models/lidar/conv1d_256seq_400epochs_092620.pth (torch, 295818 bytes, 9 tensors)

conv1.weight f4 [32, 6, 5]
-0.30981103 -0.18717666 -0.34835586 -0.47341156 -0.43398827 0.006155608 -0.054834742 0.123117775
-0.1975186 -0.13643755 -0.15130429 -0.1481876 -0.13383111 -0.20654942 -0.15054776 -0.30051112
-0.22864625 -0.15300883 -0.26848653 -0.38316724 0.029697184 0.098088466 -0.06944217 0.0027061792
-0.1839584 0.025161514 0.13782717 -0.20539229 -0.15418679 -0.10941937 -0.15841952 0.20741276
-0.1011665 -0.0742353 -0.1838721 -0.26859072 -0.18008624 0.11423717 0.025060235 0.019698348
-0.015600425 -0.044078607 0.0131513635 -0.06990411 -0.22500263 -0.13870333 0.042085823 -0.010705626
-0.14731432 -0.16330424 0.050640874 0.025293866 -0.054017354 -0.08158455 -0.008936622 -0.1260955
-0.039478824 -0.13883893 -0.109804936 -0.2235262 0.014560768 0.07761985 -0.13937257 0.07762534
-0.031811297 -0.20067106 0.034086842 0.09898559 0.11447241 0.09233498 -0.039032392 -0.119649716
0.13343276 -0.019126682 0.07133911 0.32362673 -0.006436003 -0.19372562 0.025014296 -0.16343114
-0.17074084 0.1598666 0.17946078 -0.2045987 -0.013563806 0.11251368 0.0072952565 -0.13232657
0.14743297 -0.18359654 -0.10075038 0.064550534 0.14136548 -0.1129685 -0.48208627 -0.20406672
0.12645167 0.057550866 -0.2894433 -0.27177224 -0.34722462 -0.023374682 -0.23961303 -0.10437394
-0.20020728 -0.19402456 -0.129912 -0.09464882 -0.076865345 -0.24501488 -0.11705158 0.18218811
-0.08465287 0.07501179 0.0085068885 -0.31315508 -0.106358565 -0.14685935 -0.14458069 -0.00808929
0.0601867 -0.0010726766 -0.14325531 0.08542191 -0.20192616 -0.13109183 -0.0687929 -0.13865277
-0.074623264 -0.17122895 -0.06786457 0.010810535 -0.14904037 -0.042204555 0.10401013 -0.064734735
-0.04027465 -0.068239465 -0.0028014285 0.093324214 0.12520853 0.0687749 0.12356196 -0.053430095
-0.1837343 -0.13169356 0.08016829 -0.045747343 -0.12916254 -0.15632445 -0.20664376 -0.18963592
-0.07285557 0.06429268 0.0987071 -0.21178535 0.07840175 -0.17857064 -0.074303366 -0.074028835
-0.06541232 -0.06715866 -0.19649087 -0.19095376 -0.028569113 -0.035591017 -0.12073556 0.030823424
-0.2022795 -0.012321427 0.12347857 -0.111384585 0.12778163 0.029033221 -0.16476607 0.07807178
-0.058379427 -0.118957214 0.10853003 -0.14753732 -0.010700539 -0.28733963 0.09016744 -0.10688556
0.06802432 -0.066335216 -0.28093773 -0.18408684 -0.32033235 -0.021573216 0.21289273 -0.09993914
0.015547665 -0.13322115 -0.039656043 -0.12555714 -0.28600058 0.058968943 -0.22817962 0.0037146052
-0.19683082 -0.048913002 -0.34029382 -0.25333428 -0.29025435 -0.065057255 -0.32806292 -0.038228057
-0.119461 -0.13697943 -0.04918238 -0.08269672 0.032811973 -0.08957384 -0.04543948 -0.02107372
-0.18623261 -0.08971504 0.10316221 -0.1885427 -0.058853064 0.13550392 0.08059547 -0.040347632
-0.19907694 0.04692493 -0.17284073 -0.030282032 -0.10369242 -0.06690975 -0.040090162 0.10935329
0.038811546 0.12231718 0.07402521 -0.151985 0.04695003 -0.105603546 -0.111170374 0.024427978
-0.16070393 0.23135988 -0.0029474092 0.036451075 0.08581743 -0.553945 0.17888993 0.041492116
0.08474909 0.065165594 0.10552079 0.0009048505 -0.012028117 -0.06820701 0.025070796 0.18442547
00000000: 8d9f 9ebe 3dab 3fbe b35b b2be 0063 f2be
00000010: b633 debe fcb4 c93b 659a 60bd 2c25 fc3d
00000020: 5142 4abe 49b6 0bbe 83ef 1abe 7dbe 17be
00000030: 060b 09be b181 53be 3129 1abe 98dc 99be
00000040: 3e22 6abe 59ae 1cbe 1177 89be 7f2e c4be
00000050: 8247 f33c 9be2 c83d b237 8ebd 275a 313b
00000060: 975f 3cbe 851f ce3c 9122 0d3e 5b52 52be
00000070: 24e3 1dbe 4317 e0bd ba38 22be 0364 543e
00000080: 6230 cfbd ad08 98bd f848 3cbe b984 89be
00000090: 8768 38be 2df5 e93d 1f4b cd3c 6e5e a13c
000000a0: ed98 7fbc c58b 34bd d178 573c e329 8fbd
000000b0: 1767 66be 3f08 0ebe 2f62 2c3d a666 2fbc
000000c0: 91d9 16be 3a39 27be ce6c 4f3d 1535 cf3c
000000d0: 4d41 5dbd cd15 a7bd e96a 12bc 2e1f 01be
000000e0: 8cb4 21bd cb2b 0ebe 69e1 e0bd 0de4 64be
000000f0: 4a90 6e3c 28f7 9e3d afb7 0ebe 09fa 9e3d
00000100: 904c 02bd b77c 4dbe a59e 0b3d f5b8 ca3d
00000110: 8370 ea3d 1f1a bd3d 6ee0 1fbd e90a f5bd
00000120: 99a2 083e 8faf 9cbc 3d1a 923d 67b2 a53e
00000130: 1be5 d2bb 0260 46be c8ea cc3c 7e5a 27be
00000140: b0d6 2ebe 12b4 233e 91c4 373e 5282 51be
00000150: ba3a 5ebc 926d e63d 0c0d ef3b 9e80 07be
00000160: abf8 163e bb00 3cbe 3756 cebd 1233 843d
00000170: 1dc2 103e 075c e7bd 03d4 f6be def6 50be
00000180: 8c7c 013e 75ba 6b3d ea31 94be bb25 8bbe
00000190: 6dc7 b1be 437c bfbc 1e5d 75be 01c2 d5bd
000001a0: 2303 4dbe 60ae 46be a707 05be 3ed7 c1bd
000001b0: 946b 9dbd 2ee5 7abe bdb8 efbd 858f 3a3e
000001c0: 7c5e adbd c89f 993d 7a60 0b3c dd55 a0be
000001d0: 85d2 d9bd 4c62 16be f60c 14be f188 04bc
000001e0: 5486 763d 0e99 8cba 85b1 12be aff1 ae3d
000001f0: bbc5 4ebe f03c 06be 4be3 8cbd fefa 0dbe
00000200: 15d4 98bd a456 2fbe 94fc 8abd ac1e 313c
00000210: 0a9e 18be afde 2cbd 4303 d53d a593 84bd
00000220: 08f7 24bd 22c1 8bbd 2c98 37bb c420 bf3d
00000230: aa36 003e dbd9 8c3d 0e0e fd3d 84d9 5abd
00000240: d824 3cbe adda 06be 462f a43d 9161 3bbd
00000250: 2f43 04be 8413 20be 6c9a 53be eb2f 42be
00000260: 4d35 95bd e1ab 833d f326 ca3d 42de 58be
00000270: 1991 a03d 39db 36be 5d2c 98bd 6e9c 97bd
00000280: e5f6 85bd 7b8a 89bd e734 49be 6289 43be
00000290: c609 eabc e3c7 11bd 3544 f7bd 6881 fc3c
000002a0: 5b22 4fbe d0df 49bc 55e2 fc3d 9a1d e4bd
000002b0: 30d9 023e 14d7 ed3c 70b8 28be 19e4 9f3d
000002c0: 441f 6fbd d79f f3bd fe44 de3d 0614 17be
000002d0: 5051 2fbc 2e1e 93be b5a9 b83d d1e6 dabd
000002e0: 5650 8b3d c2da 87bd 12d7 8fbe 4381 3cbe
000002f0: 9a02 a4be 50ba b0bc 8d00 5a3e e4ac ccbd
00000300: a2bb 7e3c 206b 08be 606e 22bd 0d92 00be
00000310: ab6e 92be 6b89 713d eba7 69be bc70 733b
00000320: 058e 49be 0059 48bd fe3a aebe 08b5 81be
00000330: 389c 94be bd3c 85bd ddf7 a7be 0695 1cbd
00000340: f8a7 f4bd 5644 0cbe 7773 49bd e65c a9bd
00000350: d965 063d 7d72 b7bd c01e 3abd cba2 acbc
00000360: c3b3 3ebe 85bc b7bd b546 d33d 5611 41be
00000370: e90f 71bd 8ac1 0a3e 3d0f a53d 8f43 25bd
00000380: d3da 4bbe 5b34 403d 29fd 30be 0612 f8bc
00000390: b15c d4bd fb07 89bd 9535 24bd 9ef4 df3d
000003a0: dbf8 1e3d 6e81 fa3d 889a 973d f5a1 1bbe
000003b0: ad4e 403d ac46 d8bd 4bad e3bd 2f1d c83c
000003c0: 928f 24be 9be9 6c3e 5229 41bb b94d 153d
000003d0: 0cc1 af3d 57cf 0dbf ec2e 373e a3f3 293d
000003e0: ee90 ad3d 8a75 853d 491b d83d 7d33 6d3a
000003f0: 9411 45bc 1eb0 8bbd 4561 cd3c 08da 3c3e

conv2.weight f4 [32, 32, 3]
-0.10872008 -0.016367223 0.061767537 -0.14059322 -0.14314152 -0.017203594 0.040077478 -0.10165408
-0.019999439 0.02652359 0.07386897 0.004904669 0.06281385 0.028286124 -0.09484693 -0.021205626
0.052140694 0.09000951 -0.09531373 0.012534218 -0.062823534 -0.13508302 -0.007583477 -0.09162472
-0.025992015 -0.02654419 -0.115652606 -0.038687576 -0.034285273 0.029665 -0.03109798 0.044207744
-0.024111317 -0.075238526 0.029153423 -0.030536849 -0.018702643 -0.07335019 -0.041378807 -0.059084974
-0.05250355 -0.12326524 -0.0006276703 -0.084716044 -0.021956697 0.015325331 -0.11436924 -0.1086664
-0.06366434 -0.067597024 -0.023506755 -0.018052684 0.01080769 -0.11068388 0.035178427 0.019841641
0.05371749 -0.036640957 -0.09790217 -0.01394909 0.025970872 -0.10251163 -0.09048582 0.0013059665
-0.05101124 -0.064579785 -0.10212861 -0.00092584075 -0.07839632 0.0272861 0.03834102 -0.028774217
-0.052312076 -0.06662979 -0.049517155 -0.026676344 -0.109981894 -0.056403313 -0.09986248 0.028283516
-0.10064189 0.053720526 -0.06501014 -0.07765024 0.0072468445 -0.02806215 0.028929966 0.0032577396
-0.14076737 0.020678924 -0.06254294 -0.08810005 0.020169869 0.04729859 -0.112214856 -0.054642737
0.053786546 0.009499755 0.055956673 -0.06500404 -0.08632927 0.05773666 0.012514282 0.06795031
-0.07265849 -0.06553067 -0.011962991 -0.12612705 0.0400058 0.0752798 -0.005526824 -0.0100844335
0.050603025 -0.064784035 0.06981401 -0.13151224 -0.09776988 -0.05414494 0.083368845 -0.019808473
0.00916897 -0.1048397 0.007193053 -0.011404769 0.040908888 0.07208058 0.014336839 -0.038709328
-0.036314446 -0.094038814 -0.06694357 0.03629632 -0.07095405 0.033357102 -0.07049838 -0.053797644
-0.027855411 -0.12368634 -0.0010190868 -0.010287423 -0.009168886 -0.050430145 0.05043592 0.045293
-0.099200815 0.017383054 -0.11008322 -0.11691512 0.0011710058 -0.028527565 -0.047612607 -0.12846673
-0.039511915 0.004061148 -0.12449632 -0.12917727 0.012948874 -0.07352594 -0.119442075 -0.03932311
-0.01643208 -0.122771844 -0.09817718 -0.023335524 -0.1262691 -0.04437278 -0.095929265 -0.07075324
0.01008603 -0.07855613 -0.10737363 0.028176598 -0.010945366 0.06292174 -0.027280731 -0.04929752
-0.009445484 -0.029511148 0.047809545 -0.13168947 -0.0372944 0.0151198525 -0.08623135 -0.081889406
0.019295799 -0.12782183 -0.0058433316 -0.109042585 0.02070365 -0.11729471 0.062748246 -0.09661529
-0.077343546 0.021349734 0.20890449 -0.15841736 0.0022546072 0.031119924 0.027599812 -0.06283298
-0.02875515 0.19957943 0.16207162 0.037068576 -0.037826736 -0.07785704 0.020995436 -0.0253498
-0.0004551319 -0.024637539 -0.08603516 0.05550429 0.027634388 -0.030094039 0.010702854 0.04420607
0.070815526 -0.14189664 0.105086245 -0.13203448 -0.044825792 -0.014477376 0.050904494 -0.10195839
0.029064203 -0.18641746 0.07630734 0.25461662 0.07806907 -0.056490347 0.00490423 0.08400416
0.085136086 0.12550893 0.10514131 0.06370494 0.041922405 -0.112062685 0.13610125 0.0073571354
0.14753918 0.13013498 0.10877877 -0.046035994 -0.056499243 -0.017143268 0.13124502 -0.021186296
0.18298054 -0.00380344 -0.07145227 -0.015101768 0.05671987 -0.05242451 -0.0556849 0.1374658
00000000: a2a8 debd 8e14 86bc f5ff 7c3d abf7 0fbe
00000010: b193 12be 8dee 8cbc 4828 243d 0430 d0bd
00000020: ddd5 a3bc 0048 d93c 9d48 973d 58b7 a03b
00000030: 8ca4 803d 4db8 e73c 1b3f c2bd 6cb7 adbc
00000040: 7b91 553d e856 b83d d833 c3bd 525c 4d3c
00000050: a0a9 80bd 3453 0abe d17e f8bb bea5 bbbd
00000060: 35ed d4bc 3373 d9bc 46db ecbd dd76 1ebd
00000070: b76e 0cbd 0404 f33c 31c1 febc 2e13 353d
00000080: 1985 c5bc a816 9abd 29d3 ee3c 6a28 fabc
00000090: 4936 99bc a038 96bd d37c 29bd 1603 72bd
000000a0: f60d 57bd 7c72 fcbd 3e8a 24ba 9b7f adbd
000000b0: 88de b3bc 1917 7b3c 6c3a eabd 7d8c debd
000000c0: 7362 82bd 4f70 8abd 3d91 c0bc 39e3 93bc
000000d0: bd12 313c 3bae e2bd 4117 103d f08a a23c
000000e0: df06 5c3d d414 16bd ef80 c8bd b98a 64bc
000000f0: dec0 d43c 9ef1 d1bd a150 b9bd f72c ab3a
00000100: 29f1 50bd 6842 84bd ce28 d1bd 1fb4 72ba
00000110: 408e a0bd 1987 df3c 790b 1d3d e8b7 ebbc
00000120: 3045 56bd 3375 88bd 80d2 4abd 5988 dabc
00000130: 303e e1bd 2907 67bd b384 ccbd d5b2 e73c
00000140: 561d cebd 0e0a 5c3d 0924 85bd 1707 9fbd
00000150: f076 ed3b 98e2 e5bc 89fe ec3c cd7f 553b
00000160: 5225 10be d966 a93c 8316 80bd cd6d b4bd
00000170: 483b a53c 2bbc 413d e7d0 e5bd 10d1 5fbd
00000180: 484f 5c3d dca4 1b3c d332 653d d720 85bd
00000190: 66cd b0bd 477d 6c3d b408 4d3c 8829 8b3d
000001a0: f9cd 94bd f234 86bd 6c00 44bc 7327 01be
000001b0: 1fdd 233d 4c2c 9a3d 5c1a b5bb 2e39 25bc
000001c0: 1e45 4f3d 7ead 84bd a6fa 8e3d 25ab 06be
000001d0: 933b c8bd 16c7 5dbd 49bd aa3d 6145 a2bc
000001e0: 7339 163c 32b6 d6bd b4b3 eb3b 11db 3abc
000001f0: 1490 273d fc9e 933d 10e5 6a3c ac8d 1ebd
00000200: 75be 14bd 6c97 c0bd b619 89bd 73ab 143d
00000210: 5b50 91bd 75a1 083d 7461 90bd eb5a 5cbd
00000220: 0831 e4bc 444f fdbd e192 85ba 948c 28bc
00000230: 1839 16bc d78f 4ebd e595 4e3d 2785 393d
00000240: cc29 cbbd e866 8e3c 5073 e1bd 3271 efbd
00000250: 6f7c 993a a4b2 e9bc 7005 43bd c88c 03be
00000260: 3fd7 21bd 6113 853b edf7 febd 0c47 04be
00000270: 8427 543c c594 96bd 0c9e f4bd 4511 21bd
00000280: 929c 86bc ce6f fbbd 1e11 c9bd 242a bfbc
00000290: b04c 01be 3bc0 35bd 9076 c4bd 13e7 90bd
000002a0: e03f 253c 09e2 a0bd b5e6 dbbd 9cd2 e63c
000002b0: 3154 33bc 1ddd 803d d77b dfbc 32ec 49bd
000002c0: 3bc1 1abc 5dc1 f1bc f1d3 433d 9bd9 06be
000002d0: 03c2 18bd 42b9 773c 109a b0bd a2b5 a7bd
000002e0: 3912 9e3c bae3 02be 6b79 bfbb b851 dfbd
000002f0: b39a a93c 3538 f0bd 2782 803d 3dde c5bd
00000300: 4b66 9ebd a3e5 ae3c 0feb 553e 2938 22be
00000310: 08c2 133b 36ef fe3c 0019 e23c 94ae 80bd
00000320: ec8f ebbc 8d5e 4c3e 1af6 253e 38d5 173d
00000330: 35f0 1abd 8373 9fbd 9ffe ab3c 62aa cfbc
00000340: c59e eeb9 aad4 c9bc 3433 b0bd 7758 633d
00000350: 8361 e23c c687 f6bc 065b 2f3c 6d11 353d
00000360: bb07 913d 5a4d 11be 7537 d73d 0c34 07be
00000370: 409b 37bd 8432 6dbc 3b81 503d 8fcf d0bd
00000380: 0d18 ee3c 38e4 3ebe 0647 9c3d 1c5d 823e
00000390: ade2 9f3d 6c62 67bd aab3 a03b 5f0a ac3d
000003a0: d45b ae3d 6a85 003e 5454 d73d bc77 823d
000003b0: d4b6 2b3d 1f81 e5bd 205e 0b3e 2014 f13b
000003c0: 8314 173e 1b42 053e 67c7 de3d 3d90 3cbd
000003d0: c06b 67bd 0a70 8cbc 1865 063e e28e adbc
000003e0: 405f 3b3e 2243 79bb 9155 92bd 686d 77bc
000003f0: 1853 683d 15bb 56bd da15 64bd d6c3 0c3e

conv3.weight f4 [64, 32, 3]
-0.079318315 -0.0751661 0.056599025 -0.09200945 0.043735564 0.11178942 -0.067691565 -0.2817787
-0.29813135 -0.009993891 -0.18394725 -0.041048113 0.0038916331 -0.048118725 0.038799208 -0.026483463
-0.035004314 -0.16950239 0.004649718 -0.07661948 0.021199564 -0.100657985 -0.12522936 -0.21152525
-0.07996616 -0.04929404 -0.15898317 0.026236847 -0.048141263 0.030143902 0.08905343 0.13016583
0.45495814 0.04427407 -0.024545599 -0.103552364 0.03973805 -0.0866348 -0.10909785 -0.054584667
0.081306316 -0.115891784 -0.03267671 -0.098656096 -0.008277754 -0.009018996 -0.049072284 0.046654504
-0.09937967 -0.029692143 -0.07743116 0.071026064 0.041126143 0.05918814 0.028246023 -0.15420592
-0.28204 -0.069230326 0.02446666 -0.091121346 0.029484354 -0.12078436 -0.05408119 -0.10351071
0.058356397 -0.034110453 -0.053978607 0.053968 -0.0041527213 -0.045401327 0.023887936 -0.068060905
0.080528595 0.10230778 0.091831036 0.046390504 -0.14624746 -0.11766407 -0.09821098 -0.053195357
-0.08461702 0.07512498 0.055063743 0.060105693 -0.07307015 0.04351778 -0.044360552 -0.06321324
0.03751868 -0.098383226 -0.095627 0.040045857 -0.17037717 -0.02779446 -0.14632423 0.053082176
0.0012198401 -0.016584083 0.009129096 -0.03050293 0.0009519551 -0.03535286 -0.016825087 -0.022032145
-0.113425754 -0.03400744 0.01699996 0.03158913 0.016728342 -0.017051522 0.035735805 -0.09579151
-0.14197367 -0.029975023 -0.21999146 -0.02294784 -0.13603051 -0.2273915 -0.13122822 0.043553542
-0.039449736 -0.019420013 -0.04125618 0.033918228 -0.046675835 -0.0019110976 -0.07898747 -0.06382182
-0.22498001 0.030333592 -0.031382207 -0.026108941 -0.14279 -0.0398839 -0.061972886 -0.06356425
-0.026731208 -0.05107383 -0.036962356 -0.08886088 0.05284263 0.041675724 0.009131975 0.011674343
0.00621915 0.069860525 0.017275594 -0.009578526 -0.056997545 0.050504353 -0.14854504 -0.024421578
-0.09911388 -0.042240612 0.03240257 -0.060789403 0.018898806 -0.082120806 0.093891665 0.02429731
-0.05332269 0.053243414 -0.10325781 -0.066793025 -0.066238105 0.013435448 0.010026884 -0.08778433
0.14127101 0.039904166 -0.009123935 -0.0036795314 -0.04851027 0.024622153 0.036947418 -0.17838171
0.005950026 0.060727753 -0.06638437 -0.17996643 0.0338708 -0.033150777 0.05635997 0.006806684
-0.105050385 0.0038129713 0.04910201 -0.009269596 -0.11048139 0.08507123 -0.07846721 -0.067766674
0.067251295 0.11169783 0.14328955 0.05784023 -0.08622754 0.053382024 -0.18168426 -0.22992961
-0.14230502 0.06918707 -0.017106453 -0.22353996 -0.1292989 0.016153364 -0.050958235 -0.07798421
-0.097876586 -0.17868575 0.016164929 0.14084369 -0.08292631 -0.1516703 -0.21994598 -0.13514006
-0.18247673 -0.13433528 0.20024808 -0.023288568 -0.095109046 -0.22167751 0.1613543 -0.13667206
-0.053848647 -0.021479445 0.015849892 0.04072882 0.051827934 0.06220638 0.09138979 0.048948888
-0.05267154 0.005267312 -0.28796113 -0.017299503 -0.10208161 -0.02777201 -0.042014346 0.03627577
-0.05432625 0.09990171 -0.09181171 -0.08049712 -0.095768325 -0.10233449 -0.06299004 -0.050722253
-0.27242917 0.021168657 -0.0772871 0.0052759275 0.06135712 -0.22880314 -0.1480512 0.04931099
00000000: a471 a2bd aff0 99bd 61d4 673d 736f bcbd
00000010: 1024 333d daf1 e43d e0a1 8abd 4c45 90be
00000020: aca4 98be 6bbd 23bc ab5c 3cbe 1122 28bd
00000030: c50a 7f3b 2418 45bd ebeb 1e3d d9f3 d8bc
00000040: af60 0fbd 0992 2dbe a95c 983b adea 9cbd
00000050: b5aa ad3c c625 cebd 203c 00be 139a 58be
00000060: 4cc5 a3bd 8ce8 49bd 7ccc 22be a8ee d63c
00000070: c62f 45bd 58f0 f63c a561 b63d 314a 053e
00000080: 46f0 e83e ba58 353d da13 c9bc 4313 d4bd
00000090: 5ec4 223d 966d b1bd b26e dfbd 2c94 5fbd
000000a0: ed83 a63d ac58 edbd 04d8 05bd 350c cabd
000000b0: 6b9f 07bc 69c4 13bc 0500 49bd cb18 3f3d
000000c0: 9287 cbbd f03c f3bc 3a94 9ebd 1d76 913d
000000d0: e373 283d 436f 723d 3464 e73c 28e8 1dbe
000000e0: 8c67 90be a1c8 8dbd 4e6e c83c d49d babd
000000f0: 2c89 f13c ca5d f7bd 3d84 5dbd 6cfd d3bd
00000100: 1e07 6f3d 67b7 0bbd ac18 5dbd 8d0d 5d3d
00000110: 8d13 88bb bef6 39bd a2b0 c33c 8463 8bbd
00000120: 2dec a43d be86 d13d e911 bc3d f803 3e3d
00000130: e5c1 15be dcf9 f0bd d722 c9bd 60e3 59bd
00000140: b04b adbd 20db 993d 858a 613d 6331 763d
00000150: cea5 95bd b33f 323d 69b3 35bd f175 81bd
00000160: 30ad 193d 257d c9bd 17d8 c3bd 2007 243d
00000170: 5a77 2ebe 35b1 e3bc 05d6 15be b26c 593d
00000180: 0be3 9f3a 58db 87bc 3492 153c 48e1 f9bc
00000190: a08c 793a 29ce 10bd c4d4 89bc c27c b4bc
000001a0: c34b e8bd 634b 0bbd 8043 8b3c 9b63 013d
000001b0: e009 893c a2af 8bbc b55f 123d 572e c4bd
000001c0: 8c61 11be 2e8e f5bc 7145 61be 1cfd bbbc
000001d0: 954b 0bbe 51d9 68be b160 06be 3365 323d
000001e0: 0c96 21bd b816 9fbc 3dfc 28bd d7ed 0a3d
000001f0: 292f 3fbd cb7d faba 2fc4 a1bd 04b5 82bd
00000200: 2961 66be 277e f83c a18a 00bd 6be2 d5bc
00000210: 8b37 12be 4d5d 23bd 48d7 7dbd f92d 82bd
00000220: 68fb dabc cb32 51bd d765 17bd b1fc b5bd
00000230: 8371 583d 2ab4 2a3d 479e 153c be45 3f3c
00000240: 03ca cb3b 0913 8f3d 8c85 8d3c 40ef 1cbc
00000250: 4276 69bd a7dd 4e3d 311c 18be c30f c8bc
00000260: 38fc cabd 7e04 2dbd 8fb8 043d 4ffe 78bd
00000270: abd1 9a3c f42e a8bd 464a c03d 270b c73c
00000280: e568 5abd c415 5a3d d578 d3bd c8ca 88bd
00000290: d8a7 87bd 5a20 5c3c cd47 243c 45c8 b3bd
000002a0: 59a9 103e 8d72 233d 8f7c 15bc 4b24 71bb
000002b0: b4b2 46bd 66b4 c93c 2d56 173d b2a9 36be
000002c0: 70f8 c23b aabd 783d 87f4 87bd 1f49 38be
000002d0: 1cbc 0a3d 1cc9 07bd b6d9 663d 9b0a df3b
000002e0: a824 d7bd 0be3 793b 301f 493d 81df 17bc
000002f0: 1144 e2bd d339 ae3d 6bb3 a0bd 41c9 8abd
00000300: 0cbb 893d d5c1 e43d 7fba 123e e1e9 6c3d
00000310: 1198 b0bd 1ca7 5a3d 700b 3abe ab72 6bbe
00000320: 68b8 11be f3b1 8d3d d522 8cbc a9e7 64be
00000330: ee66 04be 0f54 843c 95b9 50bd 2fb6 9fbd
00000340: 8573 c8bd 66f9 36be 506c 843c 5439 103e
00000350: 45d5 a9bd 764f 1bbe 8539 61be 2862 0abe
00000360: 2edb 3abe 308f 09be d50d 4d3e abc7 bebc
00000370: 88c8 c2bd 6eff 62be 103a 253e c3f3 0bbe
00000380: 6690 5cbd a9f5 afbc a2d7 813c 43d3 263d
00000390: 8749 543d 1ecc 7e3d 922a bb3d a17e 483d
000003a0: 1dbe 57bd 6a99 ac3b a46f 93be b0b7 8dbc
000003b0: 2a10 d1bd 2082 e3bc 3c17 2cbd e795 143d
000003c0: 3485 5ebd 4599 cc3d c707 bcbd addb a4bd
000003d0: 2f22 c4bd bf94 d1bd ec00 81bd 23c2 4fbd
000003e0: d67b 8bbe e469 ad3c b348 9ebd b0e1 ac3b
000003f0: 9a51 7b3d 5f4b 6abe bc9a 17be 52fa 493d

conv4.weight f4 [64, 64, 3]
-0.017466962 -0.08119553 -0.072383076 -0.08205259 -0.08954175 -0.017046535 -0.0195642 -0.04128681
0.05012587 0.014962458 -0.025554966 0.07687257 -0.07034876 -0.02795937 -0.03495475 -0.18966086
-0.06606204 0.016388461 0.0889622 0.013049848 -0.053456604 0.059406623 -0.03278806 0.0077406075
-0.07098643 -0.050339878 -0.056980755 0.08614506 0.015154253 -0.061370455 0.06572336 0.019770075
0.19580697 -0.089026056 -0.05078411 -0.00068173447 -0.0018039005 -0.042301483 -0.0924718 -0.020690566
-0.052217696 -0.04639319 -0.013026933 -0.086294875 -0.06304592 0.02323401 -0.033722233 0.06105327
-0.12773424 -0.060955882 -0.06680557 -0.08946828 -0.16594316 -0.35098624 -0.100977965 -0.13756266
-0.23619393 0.003577003 0.037326474 -0.043706402 -0.011759865 -0.006235649 -0.010118567 -0.18104018
-0.23012507 -0.06590679 -0.05962153 -0.043671913 0.07401781 -0.099324554 -0.056500286 -0.06892082
-0.029313242 -0.19904622 -0.09972479 0.030613525 0.009600321 -0.013802875 -0.039761182 -0.01336299
-0.027699856 -0.044467464 -0.031207584 -0.043424863 -0.08451706 -0.051354457 -0.11162075 0.005396289
0.049786843 -0.022775445 -0.03725392 -0.024438929 0.02088314 0.030577533 -0.061366513 0.02024494
-0.13366286 0.052859824 0.001169045 -0.15039918 -0.17574425 -0.16551515 0.0693572 -0.019184504
-0.09444645 -0.10748235 -0.06076294 -0.024034698 0.07540855 0.05202075 0.050438687 -0.04848488
-0.02128565 0.008754132 -0.09301734 -0.09008134 -0.0069909054 -0.020011635 -0.05155708 -0.059627943
-0.014039469 -0.27129418 -0.21343532 -0.058593094 0.014430575 -0.016223125 -0.032212052 0.021493811
-0.07193985 0.056312304 0.026415456 0.018922208 -0.10779295 -0.17350182 -0.1767164 -0.11276813
0.3077557 0.07450433 -0.08925776 -0.17776738 -0.05022875 -0.04221963 -0.04961435 0.018516745
-0.0116237905 -0.022413153 -0.11054895 -0.07149356 -0.07775283 0.053590048 -0.066990964 -0.008657847
0.08863137 -0.052262258 -0.031359594 -0.08173764 -0.04683667 -0.03678424 -0.0008073181 -0.028967215
-0.039000034 0.03990838 0.02692121 -0.013031747 -0.022267204 -0.0816428 -0.077021115 -0.051981468
0.06793138 -0.115286455 0.0060442523 -0.09922796 -0.052762263 0.0059053153 -0.0562234 -0.05469307
-0.070103355 -0.046586633 0.019747809 0.088967204 -0.048704665 -0.007398104 -0.000125199 -0.02979341
-0.04436665 0.03407097 -0.2761528 -0.15679929 -0.1493597 0.07983234 -0.015015447 0.008441165
0.0073776175 -0.099162586 0.022550214 -0.044245325 -0.10099608 -0.058335483 -0.027955316 -0.00016161874
-0.059329502 0.025028048 -0.0052486463 0.0026190544 -0.11017803 -0.047377143 -0.04611863 0.021776976
-0.0027486512 -0.025861518 0.05111621 -0.037713237 -0.009751196 -0.02998054 0.023335403 -0.015106082
0.027197614 -0.07528007 0.018665187 0.076244466 0.006614092 0.08661372 -0.011690819 0.001649135
-0.16721594 -0.07934635 -0.05301 0.018405363 -0.056855313 -0.099051654 -0.094914995 -0.025792342
-0.14869764 -0.024844194 -0.020210732 -0.0037215452 -0.020229606 -0.0252121 -0.00038451917 -0.012578127
-0.15391724 -0.022541976 -0.11804081 0.06122054 -0.01777311 0.10374269 -0.119715706 -0.17995426
-0.21398148 -0.067950964 -0.047432173 -0.06593363 -0.054206196 -0.057559494 0.061182167 -0.07174382
00000000: e016 8fbc d849 a6bd 943d 94bd 300b a8bd
00000010: aa61 b7bd 2da5 8bbc 1a45 a0bc 5c1c 29bd
00000020: c950 4d3d 1925 753c a658 d1bc 5e6f 9d3d
00000030: 0313 90bd 0c0b e5bc b62c 0fbd 7536 42be
00000040: 894b 87bd 1841 863c d031 b63d 08cf 553c
00000050: 50f5 5abd 5c54 733d c64c 06bd eca4 fd3b
00000060: 5561 91bd 3031 4ebd a764 69bd d26c b03d
00000070: 8b49 783c 965f 7bbd f899 863d daf4 a13c
00000080: 9f81 483e 4b53 b6bd 0003 50bd 6db6 32ba
00000090: db70 ecba 5244 2dbd db61 bdbd 437f a9bc
000000a0: 39e2 55bd c906 3ebd eb6e 55bc 5ebb b0bd
000000b0: 381e 81bd 4055 be3c 5320 0abd fe12 7a3d
000000c0: c4cc 02be e0ac 79bd 5cd1 88bd 253b b7bd
000000d0: 01ed 29be 78b4 b3be 89cd cebd 3add 0cbe
000000e0: d2dc 71be 276c 6a3b a5e3 183d 7c05 33bd
000000f0: 73ac 40bc 6a54 ccbb 59c8 25bc 9962 39be
00000100: e8a5 6bbe 24fa 86bd b535 74bd 52e1 32bd
00000110: a696 973d ac6a cbbd d86c 67bd 5c26 8dbd
00000120: 5322 f0bc c6d2 4bbe 833c ccbd 37c9 fa3c
00000130: aa4a 1d3c 7425 62bc 9fdc 22bd 71f0 5abc
00000140: cfea e2bc 8423 36bd 0ca7 ffbc 45de 31bd
00000150: 4817 adbd 0d59 52bd 6b99 e4bd 5ad3 b03b
00000160: 4aed 4b3d 9293 babc 9197 18bd 2634 c8bc
00000170: 1e13 ab3c bc7d fa3c 745b 7bbd b7d8 a53c
00000180: ebde 08be 8b83 583d a43a 993a 3e02 1abe
00000190: 4df6 33be ce7c 29be 260b 8e3d d228 9dbc
000001a0: 246d c1bd b51f dcbd 90e2 78bd 6ae4 c4bc
000001b0: cc6f 9a3d b613 553d cc98 4e3d 1598 46bd
000001c0: 3e5f aebc 7e6d 0f3c e07f bebd 917c b8bd
000001d0: f713 e5bb 71ef a3bc 842d 53bd 6e3c 74bd
000001e0: cd05 66bc 12e7 8abe ca8e 5abe 50ff 6fbd
000001f0: 386e 6c3c 5ce6 84bc c9f0 03bd ca13 b03c
00000200: 3355 93bd bba7 663d 3a65 d83c bf02 9b3c
00000210: 8dc2 dcbd 76aa 31be 25f5 34be faf2 e6bd
00000220: 2892 9d3e ba95 983d c6cc b6bd a708 36be
00000230: a9bc 4dbd 7eee 2cbd 6b38 4bbd 6eb0 973c
00000240: b671 3ebc ca9b b7bc 7d67 e2bd 376b 92bd
00000250: e03c 9fbd 3d81 5b3d 8f32 89bd a4d9 0dbc
00000260: 5d84 b53d f310 56bd eb72 00bd 1066 a7bd
00000270: cfd7 3fbd 12ab 16bd 33a2 53ba a74c edbc
00000280: 80be 1fbd f876 233d df89 dc3c 1c83 55bc
00000290: b669 b6bc 5734 a7bd 3fbd 9dbd 85ea 54bd
000002a0: 9b1f 8b3d 4e1b ecbd dd0e c63b 0738 cbbd
000002b0: 3e1d 58bd 6081 c13b 824a 66bd d705 60bd
000002c0: 5992 8fbd a0d1 3ebd 28c6 a13c 7034 b63d
000002d0: 8b7e 47bd cb6b f2bb da47 03b9 4f11 f4bc
000002e0: ceb9 35bd 008e 0b3d e663 8dbe fe8f 20be
000002f0: c0f1 18be 237f a33d 5903 76bc d04c 0a3c
00000300: f1bf f13b c115 cbbd 3abb b83c 963a 35bd
00000310: 08d7 cebd 30f1 6ebd 8c02 e5bc 3378 29b9
00000320: 7e03 73bd 9f07 cd3c d6fc abbb 71a4 2b3b
00000330: 05a5 e1bd 890e 42bd e3e6 3cbd a165 b23c
00000340: b722 34bb 89db d3bc 3b5f 513d 3279 1abd
00000350: 7bc3 1fbc c099 f5bc e329 bf3c 807f 77bc
00000360: 88cd de3c 702c 9abd bce7 983c 0f26 9c3d
00000370: 06bb d83b 8962 b13d d98a 3fbc ca27 d83a
00000380: a83a 2bbe 5780 a2bd 0421 59bd d8c6 963c
00000390: 1ee1 68bd 98db cabd cb62 c2bd 764a d3bc
000003a0: 3244 18be 0d86 cbbc fa90 a5bc 2be5 73bb
000003b0: 8fb8 a5bc 9b89 cebc 4a99 c9b9 7d14 4ebc
000003c0: 7b9c 1dbe f3a9 b8bc 61bf f1bd 64c2 7a3d
000003d0: ea98 91bc 0c77 d43d 822d f5bd ee45 38be
000003e0: f61d 5bbe e029 8bbd 3d48 42bd 3608 87bd
000003f0: 5107 5ebd 81c3 6bbd 279a 7a3d 6dee 92bd

conv5.weight f4 [64, 64, 3]
-0.0791177 0.015857939 -0.019221008 -0.16470717 -0.24386366 -0.1903391 -0.016808415 -0.010065341
-0.028731264 0.05128797 -0.08174189 -0.08363174 -0.04036053 0.04393608 -0.024931476 -0.0059688417
0.124547265 0.015147661 -0.06813063 -0.035473216 0.0127434805 -0.0049146633 -0.13861503 -0.081604294
-0.013819671 0.10508279 0.05685102 0.0015094659 0.033224992 -0.015159543 -0.2298821 -0.11704582
-0.18173124 0.0064143655 -0.06028353 -0.020756202 -0.05451798 -0.0486552 -0.0011682126 0.010823558
-0.097694084 -0.045089122 -0.017722841 0.049781423 0.03498949 -0.03892845 -0.25633645 -0.16073975
-0.27290383 -0.29202574 -0.20071739 0.09476089 0.047762513 -0.047736865 -0.1353852 -0.18111107
-0.13478561 0.18758748 0.17121145 -0.046481784 -0.07018298 0.064203046 -0.056512333 -0.031814583
0.06194023 0.0013371229 -0.0043946034 -0.21638004 -0.20590952 -0.10598682 -0.10811981 -0.13863638
0.010303778 0.052073363 -0.10326458 -0.15231098 0.010427779 -0.15228759 -0.056570046 0.007303788
-0.042798214 -0.10124427 -0.12579869 0.027134249 -0.27731434 0.066452436 -0.21359311 -0.028099675
-0.00032561793 -0.11550223 -0.062530495 -0.0069390987 -0.04527677 0.037683424 0.016011706 0.034913346
-0.10354196 -0.29475033 -0.21717699 -0.15149727 -0.024819707 -0.03875174 -0.15654272 -0.13045321
-0.48121172 -0.021350712 -0.009256056 -0.1452452 -0.14816837 -0.16746965 -0.08756077 -0.057676338
0.06390164 0.013795982 -0.048641443 -0.064497404 0.062005013 -0.05742027 0.043895073 -0.054331765
-0.2156422 -0.034285884 -0.0459283 0.024351878 -0.06142599 -0.052172523 0.0712914 0.0578443
-0.050086558 -0.09649561 -0.05181294 -0.06326338 -0.20200294 -0.034383383 -0.18120117 -0.031373113
0.023327911 -0.026643416 0.008332838 -0.11725493 -0.054260425 -0.055171624 0.017541265 -0.0628133
-0.43098876 -0.070672564 -0.22117496 -0.25486246 0.052056294 -0.12622942 -0.0059510255 0.00037164838
0.017346555 0.004414235 0.028585756 -0.030827224 0.022035807 0.017294517 -0.0018853393 -0.31438807
-0.12201479 0.015526278 -0.113200404 -0.04174593 -0.07934365 -0.3768472 -0.058218036 -0.24485439
-0.0987556 0.018107876 0.021614537 0.102416255 -0.18203202 -0.15679088 -0.1285326 -0.08877958
-0.11078171 -0.43362015 -0.22024451 -0.2619755 0.06620247 -0.08555482 -0.13901229 0.011731443
0.015741933 0.05054779 -0.019969082 -0.049466923 0.002011825 -0.2506376 -0.16947335 -0.23043412
0.18257506 0.35520333 0.062420554 -0.18047631 -0.10636812 -0.34092796 -0.07087537 0.048487455
-0.03409946 0.06874474 0.040466823 -0.23312925 -0.01836155 -0.04382485 0.07659733 -0.019545518
-0.10259958 0.010512051 0.017066933 -0.048631396 -0.011419125 -0.056538973 -0.020683557 0.008659624
-0.13153647 -0.016241552 -0.05688059 -0.042341895 0.13802616 0.030864656 -0.08588706 -0.13396752
-0.123435475 -0.019896593 -0.00085663 0.032453444 -0.00055015675 -0.08317137 -0.043808382 -0.0026723181
0.024605084 -0.042290244 -0.07399526 -0.066376716 -0.046547618 -0.29336774 0.043133575 -0.13397636
-0.14533286 -0.35670137 -0.137077 -0.1042177 -0.11841426 -0.102230474 -0.1444899 -0.07844714
-0.08931064 -0.19927359 -0.11367058 -0.095595196 -0.088215224 -0.0018794746 0.045461074 0.03460124
00000000: 7608 a2bd 82e8 813c 6075 9dbc ffa8 28be
00000010: 65b7 79be 41e8 42be cdb1 89bc 1ae9 24bc
00000020: d45d ebbc 5613 523d 4b68 a7bd 1e47 abbd
00000030: 1551 25bd 52f6 333d 183d ccbc 4696 c3bb
00000040: a312 ff3d e52d 783c 1288 8bbd 5d4c 11bd
00000050: 08ca 503c 2f0b a1bb 19f1 0dbe 2720 a7bd
00000060: e76b 62bc a535 d73d 9ddc 683d 45d9 c53a
00000070: ee16 083d bb5f 78bc 3766 6bbe b8b5 efbd
00000080: c117 3abe 992f d23b ddeb 76bd e908 aabc
00000090: 3f4e 5fbd ad4a 47bd b61e 99ba 4b55 313c
000000a0: d613 c8bd 5faf 38bd 7e2f 91bc 9be7 4b3d
000000b0: 2451 0f3d 7073 1fbd 883e 83be f698 24be
000000c0: 0dba 8bbe 6684 95be dc88 4dbe ff11 c23d
000000d0: a0a2 433d bb87 43bd 6ba2 0abe 2e75 39be
000000e0: 3d05 0abe ef16 403e 0e52 2f3e af63 3ebd
000000f0: 18bc 8fbd e37c 833d 7a79 67bd 0250 02bd
00000100: 0ab5 7d3d 6642 af3a 9b00 90bb bb92 5dbe
00000110: f2d9 52be 9e0f d9bd eb6d ddbd b2f6 0dbe
00000120: 2dd1 283c e14a 553d 617c d3bd 69f7 1bbe
00000130: 46d9 2a3c 47f1 1bbe feb5 67bd 9d54 ef3b
00000140: 2e4d 2fbd 2859 cfbd 5fd1 00be a548 de3c
00000150: 25fc 8dbe 3718 883d 27b8 5abe 4a31 e6bc
00000160: b3b7 aab9 6f8c ecbd fd0f 80bd 6161 e3bb
00000170: 2274 39bd ef59 1a3d fb2a 833c 4c01 0f3d
00000180: cf0d d4bd 84e9 96be a563 5ebe 1a22 1bbe
00000190: b352 cbbc 25ba 1ebd bc4c 20be 8795 05be
000001a0: 6261 f6be b0e7 aebc b6a6 17bc 28bb 14be
000001b0: 73b9 17be 2a7d 2bbe 1053 b3bd 063e 6cbd
000001c0: ddde 823d 8b08 623c 403c 47bd 3717 84bd
000001d0: f8f8 7d3d 8431 6bbd 52cb 333d fc8a 5ebd
000001e0: 4fd1 5cbe 5b6f 0cbd 501f 3cbd 977d c73c
000001f0: d299 7bbd dbb2 55bd 3a01 923d 25ee 6c3d
00000200: 9027 4dbd 7e9f c5bd ce39 54bd 3b90 81bd
00000210: dcd9 4ebe 97d5 0cbd cd8c 39be 1881 00bd
00000220: 2d1a bf3c 4b43 dabc 7586 083c 5a23 f0bd
00000230: 2e40 5ebd a4fb 61bd b3b2 8f3c 42a4 80bd
00000240: 8faa dcbe c7bc 90bd b07b 62be 557d 82be
00000250: fb38 553d 4942 01be d200 c3bb cdd9 c239
00000260: 5d1a 8e3c 49a5 903b ad2c ea3c 6089 fcbc
00000270: 7084 b43c 3bad 8d3c 7d1d f7ba 79f7 a0be
00000280: e4e2 f9bd ee61 7e3c 9dd5 e7bd c8fd 2abd
00000290: ec7e a2bd 1ef2 c0be 0976 6ebd 1cbb 7abe
000002a0: 6040 cabd f856 943c f810 b13c 9dbf d13d
000002b0: 9a66 3abe ca8d 20be 0d9e 03be 12d2 b5bd
000002c0: 85e1 e2bd 7603 debe c787 61be a721 86be
000002d0: 2995 873d 5e37 afbd 3d59 0ebe 3d35 403c
000002e0: 3af5 803c 330b 4f3d 3396 a3bc d49d 4abd
000002f0: d3d8 033b 9253 80be 6c8a 2dbe ecf6 6bbe
00000300: f5f4 3a3e 36dd b53e b2ac 7f3d c8ce 38be
00000310: 87d7 d9bd 1c8e aebe 1b27 91bd c89a 463d
00000320: e0ab 0bbd 0bca 8c3d 8ac0 253d 6fb9 6ebe
00000330: f66a 96bc b081 33bd 10df 9c3d ec1d a0bc
00000340: bb1f d2bd bd3a 2c3c f4cf 8b3c b731 47bd
00000350: 4817 3bbc 6995 67bd 9070 a9bc 18e1 0d3c
00000360: 7fb1 06be 010d 85bc 9ffb 68bd b26e 2dbd
00000370: bb56 0d3e e0d7 fc3c 8ee5 afbd c82e 09be
00000380: bdcb fcbd 2efe a2bc 778f 60ba e7ed 043d
00000390: 6538 10ba c055 aabd 6b70 33bd 0f22 2fbb
000003a0: 9a90 c93c 8938 2dbd d48a 97bd 84f0 87bd
000003b0: b7a8 3ebd 4c34 96be d5ac 303d 1931 09be
000003c0: 23d2 14be 90a1 b6be ea5d 0cbe 1770 d5bd
000003d0: 2d83 f2bd 365e d1bd 29f5 13be e5a8 a0bd
000003e0: 7fe8 b6bd 600e 4cbe 1fcc e8bd 6ac7 c3bd
000003f0: 2faa b4bd b458 f6ba 6435 3a3d 08ba 0d3d

conv6.weight f4 [64, 64, 3]
-0.086647645 0.0031666434 -0.0567803 -0.08673111 0.018444786 -0.08803813 -0.073133595 -0.046083145
-0.09417945 -0.03227345 -0.0036308211 -0.01289131 -0.14950724 -0.20072003 -0.0067673987 -0.28623593
-0.04738857 -0.21935593 -0.03974591 -0.033294905 -0.086907856 -0.016331678 -0.05080037 -0.04399632
0.16933967 -0.12170656 0.0036619895 -0.07437554 -0.055924773 0.037163574 -0.03763442 0.02290466
-0.07368262 0.04929213 -0.027168881 0.028817492 0.063399635 -0.014205181 -0.009529857 -0.12275389
-0.05026733 -0.30725083 -0.047556683 0.03141613 -0.15211809 -0.083347365 -0.12517595 -0.13996093
-0.11039554 0.12645306 -0.14490777 -0.020513289 -0.013660941 0.034555335 -0.023702769 -0.07655043
0.08358885 0.14315912 0.14510551 0.09186282 -0.017006533 -0.007943121 -0.0742485 -0.008472415
0.030286219 -0.07269149 -0.06776782 -0.0850707 -0.1625783 -0.07626362 -0.00034830882 -0.0083973445
0.0204992 0.025376137 0.017940754 -0.067613326 0.031559225 -0.06523776 -0.05558455 -0.07393528
-0.03021691 -0.059770018 -0.056737065 -0.0071322466 -0.10136082 -0.020632338 -0.10993756 0.013043158
-0.06520252 -0.027288971 -0.17432076 -0.14238398 -0.17879312 -0.030142475 -0.031458836 -0.11448945
0.034476064 -0.059771165 0.0010008131 0.017985182 0.17080486 -0.28697988 -0.064229466 -0.045081217
-0.08412123 -0.07454241 -0.084105246 -0.06495081 -0.087343335 0.021071602 -0.095112056 -0.08380105
0.047601864 -0.07190413 -0.021312581 -0.036902104 0.018745346 -0.09936235 -0.01074222 -0.029714089
0.040876444 0.012841348 -0.03490221 0.12119424 -0.19555163 0.07183803 -0.03774215 0.026814872
-0.08775096 0.050515372 -0.09549713 0.007257297 0.007354583 -0.092145465 -0.0812886 -0.17116892
0.0016137605 0.0014856999 -0.039034877 -0.044832684 0.01761351 -0.052399635 -0.07601265 0.035119798
0.023201138 -0.061222073 0.056273457 0.03576172 0.058208134 0.1713585 -0.04446051 -0.008732693
0.051014297 0.014856029 0.115817815 -0.018205777 0.034297798 0.077311754 0.0061440365 0.033441685
-0.083181225 0.01992452 -0.014495288 -0.04153569 -0.09212806 0.028224818 0.08015643 0.0858246
0.02259153 -0.5071955 -0.07782366 0.27028164 0.0025792927 0.011593227 0.070490584 -0.071378104
-0.061943263 -0.037489343 0.019605823 -0.013754525 -0.08772853 0.026413545 0.007043131 -0.14761965
0.046432957 -0.0024776282 0.00596429 -0.046354674 0.009460428 0.010370135 -0.36872658 -0.27313086
-0.02926687 -0.11735341 0.14803618 0.08930561 -0.04113306 -0.024443254 0.048807997 -0.02094397
-0.13877296 0.018611632 -0.029717023 0.09460405 -0.11083414 -0.08096629 -0.106455095 -0.1755334
-0.14057729 -0.0618772 0.0049072336 -0.035759643 -0.028784236 -0.009964286 0.019140098 -0.029049411
0.10213769 -0.17032799 -0.25266743 0.09539571 -0.109221086 -0.07873315 -0.025535148 -0.0134248
-0.05360012 0.5213621 0.124611475 0.11822676 0.085742705 -0.08361765 -0.31275696 -0.5173504
-0.23599224 -0.54841864 -0.17555721 -0.10542235 -0.0029416354 -0.0267557 -0.13915086 -0.2935455
-0.11074959 0.048384856 0.107771225 -0.00027365558 -0.033272274 0.18176407 -0.00055117276 0.081756
-0.082242504 -0.13568339 0.28967187 0.23056287 0.024543922 -0.24530037 -0.07409885 0.041005388
00000000: 5274 b1bd 7687 4f3b 7692 68bd 15a0 b1bd
00000010: 8519 973c 564d b4bd 11c7 95bd aec1 3cbd
00000020: 28e1 c0bd 2a31 04bd 12f3 6dbb 1336 53bc
00000030: 6d18 19be 8d89 4dbe 0ec1 ddbb 848d 92be
00000040: 841a 42bd d79e 60be 9bcc 22bd 3d60 08bd
00000050: bffc b1bd 03ca 85bc 0c14 50bd 7c35 34bd
00000060: 6167 2d3e 4a41 f9bd fdfd 6f3b 3452 98bd
00000070: 6011 65bd d538 183d 8d26 1abd 8ea2 bb3c
00000080: eae6 96bd 8be6 493d 4691 debc a912 ec3c
00000090: abd7 813d d9bc 68bc 1e23 1cbc 6466 fbbd
000000a0: 1ee5 4dbd fb4f 9dbe ccca 42bd 33ae 003d
000000b0: d8c4 1bbe 06b2 aabd 202e 00be eb51 0fbe
000000c0: 0f17 e2bd e97c 013e b462 14be 7c0b a8bc
000000d0: 24d2 5fbc e589 0d3d 4f2c c2bc 79c6 9cbd
000000e0: a230 ab3d 4e98 123e 8a96 143e 9322 bc3d
000000f0: 4951 8bbc dd23 02bc 990f 98bd e2cf 0abc
00000100: ce1a f83c 47df 94bd dbc9 8abd 8c39 aebd
00000110: ed7a 26be 1a30 9cbd 389d b6b9 0495 09bc
00000120: f0ed a73c 9ee1 cf3c 7df8 923c db78 8abd
00000130: 3f44 013d 609b 85bd a0ac 63bd 616b 97bd
00000140: 7489 f7bc 68d1 74bd 2065 68bd 9fb5 e9bb
00000150: 4396 cfbd 2605 a9bc f226 e1bd f8b2 553c
00000160: e688 85bd 1f8d dfbc 2481 32be 1bcd 11be
00000170: 8b15 37be 5aed f6bc fbda 00bd 7279 eabd
00000180: c636 0d3d 9cd2 74bd b72d 833a a955 933c
00000190: 78e7 2e3e 07ef 92be bd8a 83bd 15a7 38bd
000001a0: c047 acbd b1a9 98bd 5f3f acbd ee04 85bd
000001b0: 10e1 b2bd 5a9e ac3c 1cca c2bd e39f abbd
000001c0: 2cfa 423d 7942 93bd b997 aebc a926 17bd
000001d0: d78f 993c 7d7e cbbd 2300 30bc f66a f3bc
000001e0: 0f6e 273d 8464 523c 9ff5 0ebd b034 f83d
000001f0: b03e 48be d11f 933d 8397 1abd ddaa db3c
00000200: c6b6 b3bd 35e9 4e3d 0094 c3bd 9fce ed3b
00000210: b7fe f03b c3b6 bcbd a37a a6bd e846 2fbe
00000220: d184 d33a d1bb c23a 09e3 1fbd 7aa2 37bd
00000230: 354a 903c 00a1 56bd 85ac 9bbd c7d9 0f3d
00000240: 5010 be3c ffc3 7abd ff7e 663d e27a 123d
00000250: a76b 6e3d 9a78 2f3e 391c 36bd 9213 0fbc
00000260: 5ef4 503d b466 733c e431 ed3d 4824 95bc
00000270: d97b 0c3d a055 9e3d ea53 c93b 26fa 083d
00000280: eb5a aabd bf38 a33c a57d 6dbc 5421 2abd
00000290: a3ad bcbd bc37 e73c 0e29 a43d cfc4 af3d
000002a0: df11 b93c 90d7 01bf 0362 9fbd 5b62 8a3e
000002b0: 5a09 293b 85f1 3d3c 5e5d 903d af2e 92bd
000002c0: 38b8 7dbd 6d8e 19bd 649c a03c a95a 61bc
000002d0: 04ab b3bd 3861 d83c 11ca e63b 9b29 17be
000002e0: 7c30 3e3d b45f 22bb 1770 c33b 66de 3dbd
000002f0: e9ff 1a3c 80e7 293c bbc9 bcbe cfd7 8bbe
00000300: 13c1 efbc fc56 f0bd cc96 173e dce5 b63d
00000310: 247b 28bd 383d c8bc e5ea 473d b092 abbc
00000320: 801a 0ebe 6c77 983c 1d71 f3bc c5bf c13d
00000330: 02fd e2bd a7d1 a5bd 2105 dabd 07bf 33be
00000340: 7ef3 0fbe f272 7dbd dccc a03b b478 12bd
00000350: ebcc ebbc 3f41 23bc b2cb 9c3c 08f9 edbc
00000360: 912d d13d 766a 2ebe a05d 81be d35e c33d
00000370: 4eaf dfbd d93e a1bd 162f d1bc b1f3 5bbc
00000380: cd8b 5bbd fd77 053f 4d34 ff3d df20 f23d
00000390: df99 af3d bb3f abbd ae21 a0be 1371 04bf
000003a0: f3a7 71be 2a65 0cbf 45c5 33be ace7 d7bd
000003b0: 74c8 40bb c52e dbbc 907d 0ebe 994b 96be
000003c0: aed0 e2bd 332f 463d 29b7 dc3d 6e79 8fb9
000003d0: 8248 08bd 5c20 3a3e 947c 10ba b16f a73d
000003e0: c26e a8bd 96f0 0abe df4f 943e ac18 6c3e
000003f0: 5610 c93c 0530 7bbe 23c1 97bd 44f5 273d

conv7.weight f4 [64, 64, 4]
-0.0801123 -0.15976961 0.0047210315 -0.2634785 -0.21148646 -0.054516908 -0.04040784 -0.08683576
-0.03496987 -0.0927967 -0.09164459 -0.008144773 -0.17049141 -0.077631116 0.2750129 -0.08143704
0.0055164048 0.005234157 -0.052820053 0.00487134 -0.19412531 -0.05386896 0.08939581 -0.17095964
0.026868677 0.019764224 -0.050022297 -0.03969227 -0.23834306 -0.09724465 -0.17852043 -0.20854333
0.31999442 0.038253047 0.12895721 0.0071994737 0.045795336 -0.011457517 -0.08312364 -0.017262166
-0.013638146 -0.0700732 -0.003701795 0.20326082 -0.1982962 0.082265705 -0.23262993 0.03674556
0.02184601 -0.13134775 0.128549 0.004898987 -0.021888075 -0.02048497 -0.028978383 -0.005252937
0.020729126 -0.014308465 0.007736776 -0.2220309 -0.0024476715 0.0031864962 0.0010133007 -0.00964664
-0.03578728 -0.0029536053 0.11394557 -0.06759298 -0.009868909 -0.087073684 -0.022704056 -0.06422777
-0.051366862 0.0068110037 0.017100912 -0.17838408 -0.07465599 -0.01659996 0.029528787 -0.07792559
0.073790334 0.05857191 0.06891094 0.04427611 0.0028234273 -0.06436589 -0.0023690313 0.01828792
-0.027460653 0.07034557 -0.04692164 0.05464746 -0.075307526 -0.03773443 0.10438241 -0.08171784
-0.08205009 -0.03064785 -0.074420884 -0.01726182 -0.03871798 0.07850021 -0.04608504 0.14590994
-0.04798008 0.04271821 -0.09105587 -0.005682513 -0.08398665 -0.026792267 -0.0558904 0.004551279
-0.077062726 0.028943362 -0.020186093 -0.009857773 -0.03926522 -0.009987187 0.106611356 0.06925127
-0.003663157 -0.21168998 0.0057767555 0.06219835 -0.021228766 0.006785825 -0.004912065 -0.16902587
-0.012836904 -0.06736416 0.035195548 0.05145965 0.1076868 -0.019722013 0.14435089 0.07105126
0.029201042 0.027366284 0.082091734 0.023938147 0.004957579 0.008272767 0.10157806 0.037810143
0.003785446 -0.05498707 -0.09687823 -0.06871928 0.034958173 0.02074483 -0.020140912 0.03767632
0.0034763871 -0.053794965 -0.0022668198 -0.17872708 0.05866712 0.013349361 0.26507476 0.16569512
0.10106542 0.03315128 0.013637006 -0.009402444 0.0156194065 0.055654272 0.03827676 0.06574083
0.021871747 -0.08148652 0.025914852 0.122198164 -0.26920715 -0.041962318 -0.0328783 -0.08193325
-0.051206514 -0.00014462913 -0.01865851 -0.08041128 -0.10106692 -0.21530855 0.03138604 -0.14524758
-0.05134009 -0.04480829 -0.1038753 -0.12265594 0.030618526 -0.04939608 -0.017539144 -0.24102561
-0.0011010692 0.015454242 -0.06179115 -0.07790999 9.267595e-06 0.02443062 -0.051763367 -0.04845452
-0.061377488 -0.080696635 0.05756097 0.013191865 -0.03984352 -0.07939191 -0.0351093 0.0083523765
-0.029252296 -0.009535636 -0.029215282 -0.028740145 0.16545041 0.01819738 -0.050630648 -0.055921607
0.00032789825 0.009802998 -0.04613424 0.07505414 -0.11806081 -0.23896226 -0.14492016 -0.06940582
-0.0086265365 -0.10615156 -0.09245738 -0.14177349 -0.16464914 -0.05539226 -0.23225634 -0.07349787
0.040627107 0.08316438 -0.014966384 -0.022597382 0.112575196 0.074871264 -0.21969254 0.018122982
0.093988046 -0.024025323 0.15710934 -0.014927931 0.0075170454 -0.03167191 0.0844852 -0.029631376
-0.070052385 -0.024382038 3.1155836e-05 0.018518126 0.03443465 0.04621652 -0.01726396 -0.02055409
00000000: eb11 a4bd a59a 23be e2b2 9a3b a7e6 86be
00000010: e88f 58be 1f4d 5fbd b182 25bd f2d6 b1bd
00000020: 913c 0fbd 320c bebd 29b0 bbbd a771 05bc
00000030: 4d95 2ebe 10fd 9ebd 7ece 8c3e 76c8 a6bd
00000040: f5c2 b43b 4b83 ab3b d759 58bd c39f 9f3b
00000050: c9c8 46be b3a5 5cbd 2715 b73d 0b10 2fbe
00000060: b31b dc3c 95e8 a13c 2ee4 4cbd 5d94 22bd
00000070: 3410 74be 3428 c7bd 0fce 36be 628c 55be
00000080: 4fd6 a33e 3aaf 1c3d 5c0d 043e 90e9 eb3b
00000090: e493 3b3d 4fb8 3bbc ba3c aabd 6369 8dbc
000000a0: 8872 5fbc 8a82 8fbd d099 72bb 9b23 503e
000000b0: 290e 4bbe ec7a a83d 8a36 6ebe 8382 163d
000000c0: 67f6 b23c 0680 06be 59a2 033e ae87 a03b
000000d0: 9f4e b3bc 19d0 a7bc 1364 edbc d420 acbb
000000e0: 21d0 a93c 0d6e 6abc c884 fd3b 115c 63be
000000f0: 1d69 20bb 89d4 503b bbd0 843a f10c 1ebc
00000100: af95 12bd 4691 41bb 4c5c e93d 306e 8abd
00000110: 34b1 21bc b053 b2bd dbfd b9bc d989 83bd
00000120: 0f66 52bd d72e df3b 3617 8c3c 51aa 36be
00000130: 3de5 98bd a4fc 87bc 5be6 f13c 7497 9fbd
00000140: 631f 973d 19e9 6f3d 2e21 8d3d de5a 353d
00000150: 4009 393b 44d2 83bd c041 1bbb 8cd0 953c
00000160: 2af5 e0bc 5711 903d e830 40bd 04d6 5f3d
00000170: d53a 9abd 6b8f 1abd 72c6 d53d af5b a7bd
00000180: e109 a8bd 3311 fbbc fa69 98bd a968 8dbc
00000190: bf96 1ebd b8c4 a03d abc3 3cbd 6a69 153e
000001a0: c386 44bd 4af9 2e3d 807b babd 6034 babb
000001b0: 3101 acbd 757b dbbc 55ed 64bd e522 953b
000001c0: 10d3 9dbd a11a ed3c 4e5d a5bc 7f82 21bc
000001d0: 91d4 20bd 4ca1 23bc 0e57 da3d 9cd3 8d3d
000001e0: 9411 70bb 42c5 58be f04a bd3b b2c3 7e3d
000001f0: f3e7 adbc a05b de3b 63f5 a0bb 1e15 2dbe
00000200: e151 52bc 39f6 89bd 3529 103d 5bc7 523d
00000210: e68a dc3d 0f90 a1bc b8d0 133e 5383 913d
00000220: 0637 ef3c 422f e03c b61f a83d ef19 c43c
00000230: 3073 a23b 808a 073c 2808 d03d cfde 1a3d
00000240: 3f15 783b 1f3a 61bd 1868 c6bd b2bc 8cbd
00000250: 4d30 0f3d 10f1 a93c 8efe a4bc 7c52 1a3d
00000260: 19d4 633b 1c58 5cbd ed8e 14bb 3b04 37be
00000270: ef4c 703d 47b7 5a3c e1b7 873e fbab 293e
00000280: 63fb ce3d a3c9 073d c06d 5f3c b50c 1abc
00000290: 8ae8 7f3c bcf5 633d 18c8 1c3d 21a3 863d
000002a0: 612c b33c 68e2 a6bd 624b d43c 0843 fa3d
000002b0: 85d5 89be aee0 2bbd 65ab 06bd 9fcc a7bd
000002c0: ecbd 51bd 96a7 17b9 bbd9 98bc abae a4bd
000002d0: 2cfc cebd d879 5cbe a68e 003d c8bb 14be
000002e0: fc49 52bd e688 37bd 93bc d4bd 0a33 fbbd
000002f0: b4d3 fa3c 8b53 4abd 40ae 8fbc 6bcf 76be
00000300: c051 90ba ca33 7d3c b818 7dbd 468f 9fbd
00000310: 047c 1b37 b922 c83c d305 54bd 3f78 46bd
00000320: f666 7bbd 4744 a5bd 0dc5 6b3d b122 583c
00000330: f532 23bd 3a98 a2bd c5ce 0fbd 68d8 083c
00000340: 83a2 efbc 5b3b 1cbc e354 efbc 7470 ebbc
00000350: d56b 293e ac12 953c 1562 4fbd 0e0e 65bd
00000360: c2e9 ab39 c19c 203c 42f7 3cbd fcb5 993d
00000370: dec9 f1bd 86b2 74be f365 14be a324 8ebd
00000380: 5156 0dbc fd65 d9bd 4b5a bdbd 122d 11be
00000390: c999 28be ffe2 62bd 9bd4 6dbe 0d86 96bd
000003a0: 9c68 263d 1652 aa3d 9035 75bc 251e b9bc
000003b0: d38d e63d 1b56 993d 15f7 60be a676 943c
000003c0: ce7c c03d c1d0 c4bc 45e1 203e 4894 74bc
000003d0: 8c51 f63b 68ba 01bd 9406 ad3d 80bd f2bc
000003e0: a077 8fbd d7bc c7bc 53ad 0238 53b3 973c
000003f0: 590b 0d3d 894d 3d3d 266d 8dbc 0d61 a8bc
