models/lidar/conv1d_256seq_092620.pth (torch_old, 294039 bytes, 9 tensors)

conv1.weight f4 [32, 6, 5]
00000000: 612c a03d e2c9 e4be 0d70 383e 88a4 e5bd
00000010: 07ec d23d 3af9 cdbe a2a6 ccbe 09f9 bfbe
00000020: 40b9 eebd a6a8 c9bd 5ff7 a1be 8939 d4bd
00000030: 2fd8 02be 257a 95be 8d34 8cbd 1b08 3d3e
00000040: 6a40 1dbe b0d9 453e 5b68 81be f78b 07bd
00000050: 610c 64be 032d 74be 4487 d5be 7255 debd
00000060: 459f b1be 6e84 723e dd02 60be 5fa9 093c
00000070: 70a0 14be 351b 28bd 2518 0abe 5315 1e3e
00000080: 80eb 3fbd f2f2 66bc 2a7b 483c fa02 8e3e
00000090: f6b5 66be 9d17 01bd 04b0 dd3d 39b0 173e
000000a0: 9755 a73d 7c0d 5cbe f377 4d3e 3539 b33d
000000b0: 466d a73c cd4d a0bc 2a3b fe3d 8e75 73bc
000000c0: f58a 98bd ec99 bebd e025 223d 7719 3bbd
000000d0: 9bfa 09be 25f5 dd3c 263a e23d aecb ebbd
000000e0: c455 8cbd d9c7 373e dc18 693d f1a0 d0bb
000000f0: b63d 05be 8277 43bc d034 0e3e 9992 b33d
00000100: ad14 a4bd bb67 06bf 4f1d bfbe c77d 05bf
00000110: fc37 13bf e1d0 27bf c1a9 3ebe 7666 9bbe
00000120: 4ffa 08bc 2603 c7bd 1b77 06be 5606 1d3d
00000130: 9256 ce3c a926 cc3e faad 433e d7cf 623e
00000140: bad6 bcbe 425d c4be 80d4 95be 647f a0be
00000150: 1ea8 c4be 7562 a43d f4c5 3a3d de98 563c
00000160: 2364 0c3e 10f5 513d 359c 62bb 6692 dbbd
00000170: 3cd4 803d 7c18 2c3c 5f12 5cbd dbf5 963e
00000180: 0f69 81bd 157e 973e 9dd2 20be 6856 873c
00000190: 16e0 053d 39ec dabb d842 0d3e 0544 44bd
000001a0: f14c 95bd d8b4 8cbe 6a87 0a3e 3d75 59be
000001b0: 9d33 6a3e 8f1a 4a3d 55f2 463e 738b a13c
000001c0: f31b d83d ed39 c9be b736 16bd bb3d 06bd
000001d0: 866a 1f3d d74e c3bd b85e cbbb daae dc3d
000001e0: b692 08bb eb9c 9f3d 3106 25bd 80dd 603c
000001f0: d952 81bc 7136 3cbe 726b 05be 217b c2bd
00000200: 7a10 e4bc 5207 a33c c715 45bc dbc5 80bd
00000210: 1d4f eabd 4650 0cbe 5bfc fe3c 0a50 1cbe
00000220: 5a32 6dbd 8eb5 acbd 5c9b ecbd 7863 28be
00000230: e6c2 01bd dc87 7abe 6f8f 3b3d 7afb 133d
00000240: 5b39 f9bc 23bf 6f3d 261d 3bbe e567 ddbc
00000250: 11b1 84bd 3b9d 98bd 3ee0 17be dfa5 d3bd
00000260: 6a6e 15bf af77 55bc 0abb d2bd 0924 db3e
00000270: f94b d23e 5566 42bf 0d2f c23e ac68 683e
00000280: a799 a43d 3da8 3e3d d745 54be 8b01 b73c
00000290: a923 3b3d 982f c6bd 073f f2bc aa22 03be
000002a0: d915 e9bd 5175 46be 3399 bf3d 53d3 4b3e
000002b0: 0127 64bf eca4 263d 24c6 733e 0a2f da3b
000002c0: 471d 803d 039e fcbe d1fa 8cbd f3b1 ddbc
000002d0: 619c 223e 13cc 73be 7dc1 38bb e0c6 cc3c
000002e0: bc66 8e3e 59b2 3dbf 89f0 dabe a259 34bf
000002f0: 9017 18bf bdfa 34bf b526 08be a902 b8be
00000300: b690 e7bd ab09 1abd dc9d d9bc ac0c 3d3e
00000310: 76e6 26be 868f c03e dd52 9b3e fde2 d53e
00000320: 8cfc e6be 6fc1 1abe ac0b a6be 0d77 26be
00000330: d8ad 93be 328b 803c e964 91be bd0d 2f3d
00000340: a135 7dbd 9b06 113e 97c3 e53d b82d 9fbd
00000350: 6363 2c3e 5cee 0cbe b260 2cbe a12a c9be
00000360: 0b28 26be 8dbf 8fbe 06a7 b4be 64b0 23be
00000370: 4990 a9bd 51e2 033d b36a 65bb 7f32 0abe
00000380: 108c 72bb bd86 e83c 0b1c b03d fc7d 963d
00000390: 623d 47be 7210 d0bd 89bd 9cbd 89be c7be
000003a0: 8929 2abe 91f5 94be 2d19 4cbe 88d7 85bd
000003b0: b3b7 843d 25f2 60bd 3735 ebbd ec83 003d
000003c0: 4d23 ccbe 8e3c f3bd 89a9 0b3e 1c03 cdbe
000003d0: c5af dfbd 8d8f 7dbd 3f91 253e 8d9f 833d
000003e0: 7147 b4be f030 0f3e 7c99 fcbb 138f 3e3e
000003f0: fb87 033d 037c fe3d 1e5e f8bc 6fa7 9abe
0.078209646 -0.44685274 0.18011494 -0.112130225 0.10298925 -0.40229207 -0.3997088 -0.37494686
-0.116564274 -0.0984662 -0.31634042 -0.103625365 -0.1277778 -0.2919475 -0.06845961 0.18460123
-0.15356603 0.19321322 -0.2527493 -0.033092465 -0.22270347 -0.23845296 -0.41704762 -0.10856141
-0.34691826 0.2368333 -0.21876092 0.008402198 -0.14514327 -0.04104157 -0.13485773 0.15437822
-0.04685545 -0.014096009 0.012236396 0.27736646 -0.2253035 -0.03151666 0.10824588 0.14813317
0.08170622 -0.21489519 0.20065288 0.08751146 0.020437848 -0.019568348 0.124136284 -0.01485957
-0.07448379 -0.09306702 0.0395869 -0.045678582 -0.13474505 0.027094433 0.11046247 -0.11513458
-0.06852296 0.1794733 0.056908473 -0.006366842 -0.13011822 -0.011930348 0.13887334 0.08768196
-0.08011756 -0.5250203 -0.37327048 -0.52145046 -0.575073 -0.655531 -0.18619443 -0.3035161
-0.0083604595 -0.097173974 -0.13131373 0.03833612 0.025187764 0.39873245 0.19109336 0.22149597
-0.36882573 -0.383524 -0.29263687 -0.3134719 -0.38409513 0.08026592 0.04559894 0.01309797
0.13710074 0.0512591 -0.003457797 -0.10721283 0.062904805 0.010503884 -0.053728458 0.29484448
-0.063188665 0.2958838 -0.15705343 0.016520694 0.032684408 -0.006680992 0.1379503 -0.04791643
-0.07290066 -0.27481723 0.13528219 -0.21236129 0.22871251 0.049341734 0.1942838 0.019719815
0.10552206 -0.39302006 -0.036673274 -0.032773715 0.038919948 -0.09536522 -0.0062063597 0.10775538
-0.00208394 0.077936016 -0.040289108 0.013724685 -0.015786575 -0.18380143 -0.13029268 -0.09496141
-0.027839888 0.019900952 -0.012029118 -0.06287738 -0.11440871 -0.13702497 0.031126192 -0.15264907
-0.057909347 -0.08433066 -0.1155307 -0.16444194 -0.03168001 -0.24465889 0.045791086 0.0361285
-0.030422857 0.05853189 -0.18272838 -0.02702708 -0.06479085 -0.07451864 -0.14831635 -0.10334372
-0.58371603 -0.013029023 -0.10289581 0.4280093 0.41073588 -0.75937396 0.37926522 0.22696179
0.08037119 0.046547163 -0.20729767 0.022339603 0.045688305 -0.096770465 -0.02957107 -0.12806192
-0.1138112 -0.1938069 0.09355392 0.19904833 -0.89122015 0.040684626 0.23806053 0.0066584395
0.06255584 -0.49339303 -0.06883777 -0.027062392 0.15879966 -0.23808317 -0.00281915 0.024997175
0.27812755 -0.7410026 -0.4276164 -0.7044927 -0.59410954 -0.70695096 -0.13296016 -0.3593953
-0.11306898 -0.037606876 -0.026564531 0.18461865 -0.16298851 0.376095 0.30336657 0.4177474
-0.45114553 -0.15112852 -0.3243078 -0.16256352 -0.2884357 0.015691373 -0.283973 0.04273771
-0.061818723 0.14162676 0.112189464 -0.07772392 0.16834788 -0.13762802 -0.16833761 -0.39290336
-0.16226213 -0.2807583 -0.3528368 -0.15985256 -0.08279473 0.032198254 -0.0035006225 -0.13495825
-0.0037009753 0.02838456 0.08599099 0.07348248 -0.1945701 -0.10159387 -0.076533385 -0.39012554
-0.16617407 -0.29093602 -0.19931479 -0.0653525 0.0648035 -0.054918427 -0.11484759 0.03137581
-0.39870682 -0.11876784 0.13638891 -0.40041435 -0.10922197 -0.06190448 0.16168688 0.06426916
-0.35210755 0.13983512 -0.0077087265 0.18609266 0.032112103 0.12425997 -0.030318316 -0.30205867

conv2.weight f4 [32, 32, 3]
00000000: 5359 a2bc 72a9 2a3e bd6e b23d 19db d53c
00000010: 42ff 063d 412e 713c 1086 2f3d 6ccc 8d3e
00000020: a71f 43be c75a c2bc a462 56bd fe29 403c
00000030: 048c 853c cb89 9c3a 8363 5abd 4d74 61bd
00000040: 826f 483e a6e2 153e 7985 be3e 7fe4 ec3d
00000050: f760 d5be 5d4c acbd 8d0d f9bc cfdc 3bbd
00000060: 36c7 27bd dfb6 1dbd a190 cabd c39b 41be
00000070: 1212 853d 7b04 2bbe ff98 d03b cac6 b03d
00000080: cb6c 73bd 65e0 ee3d 7412 1ebd 506a 06be
00000090: a7f0 1dbd a010 ab3d 5f95 193d ef75 273e
000000a0: 4dde eebc 5197 22bc 0ad7 4bbc 6b2d 07bd
000000b0: d312 303c c88b 1bbe 37ad cfbb a7de e73c
000000c0: 3651 6f3e 6dae ea3d 6063 613d 6a9e 033e
000000d0: 1ed5 b83d b7c0 8abd 06c8 a73d 4062 be3d
000000e0: 98c3 723c 448e a43c bd76 d0bd b02d 333d
000000f0: 1d33 cf3d 6958 9bbd 71b8 efbc 6bb7 163d
00000100: cd2c 49bd 6fb0 233e 1920 133c d835 c13d
00000110: b88d 8bbd 4275 03bd fb2b f1bd 7e49 b63d
00000120: 586f 9cbd ddd5 2abe 49cd c2bd 958e 1a3e
00000130: 2433 29bd 4468 023e 75ff d33d 8b03 813c
00000140: 38bd e13d 870c f7bc 0a76 60bc ccea 87be
00000150: af59 4e3d 9a7d d23d e945 6e3d e32e 08be
00000160: e810 8bbb e2b3 ff3d 6e0d fd3b f72d 96bd
00000170: ac5a 473b d1ce 9b3c 0bfa 58bd 21c7 ebbd
00000180: 04d5 d73d d6b6 f83e 57de 93bd 8a11 4abe
00000190: 5be6 87be c375 c4bd 4fc5 963d cf49 45bc
000001a0: 1692 1c3d 925b 50be e398 00be 4449 62bd
000001b0: 1260 043d 9a43 203e 0624 343e deb7 82bc
000001c0: a73e e23c 2305 7dbe 4fe5 74be e57a d63a
000001d0: 9b7c 6ebe c981 d3bc d37f d53d 04a4 0abe
000001e0: d5f1 733c 3069 d6bd 0886 0fbe 2c91 32bd
000001f0: 7789 88bd 1b58 b8bc b5aa 22bc bfe9 8c3c
00000200: 6c00 c13d 70eb 4cbc ccdf c2bd e2c5 943d
00000210: 6ea8 b6bd 57d1 6d3d c18e 803d 2088 36bd
00000220: 884b 57be a67f 31bd d340 c4bd 4ceb ef3b
00000230: 7e31 3f3c dc33 61be 3941 a83c eab8 453c
00000240: 0c8e 26be 2e8b a73a 11f2 70bb d221 21bd
00000250: 3a06 05b9 9e18 303d d147 47be 0bc1 80bc
00000260: 8667 e6bd 663a 81bd 4f1e b5bc 297e 9f3d
00000270: 591d 39bd 48a8 7c3c ad71 babc bfef dabd
00000280: 3872 90be ad4b a0bc 1212 bb3d 39fc 04be
00000290: ca2e 06be 2314 95bc 1007 b5bc 9951 43bc
000002a0: 3d38 95bd 3d8f 633e 9262 66bd fc08 a5bd
000002b0: f12c 92bd 03f6 ca3c 7ba8 6cbd a655 fcbd
000002c0: 557a abbc 462e ee3d 12fb 843d 0828 98bd
000002d0: 6998 74bd 1865 753e 4c64 043c 0c2a 9c3b
000002e0: 04de 80be 09ff a2bd 7f73 2a3c f5a6 4d3d
000002f0: 40fa ab3d 11db 003e b351 6d3e cc13 5d3d
00000300: a88b 453d d4ed 51be c875 1a3e 118d 863d
00000310: 421b c5bc 884b 3abd 28f1 c53d 6780 b63e
00000320: 47c5 6ebc a64c 273f db4f 69bf 38a7 adbe
00000330: 84a6 1dba 0a70 d03a 01ca e43d f2a5 cebd
00000340: ad6d efbe 724b 10c0 22f4 403f bdfd 03bf
00000350: 0048 f2be a432 2ebd 449c 19ba 9241 df3c
00000360: ce3b cd3c ae86 2abe add4 06bd c7e8 593e
00000370: 4058 bbbe 7dde 4cbf 0064 313d 8dc7 8e3d
00000380: a616 a03d 64ed a7bc 88f8 123c 766a adbd
00000390: 77f5 f93d e14f e2bb 0891 4fbe 0fad d4be
000003a0: 8530 893d 0504 b5bd b1c6 3cbc 0893 103d
000003b0: 5e87 cc3c 9b7f 36bc 8cff 11be a2a7 9d3d
000003c0: 196e a93d 4dc1 843c 18b2 5dbd 6821 3a3d
000003d0: 12ad 533e d055 ce3d 985d 6c3e 1b0c d7be
000003e0: 02a8 0b3f f2d5 1cbd 162d 423e 2489 2b3e
000003f0: d248 16be f695 71bd d16f 383d 3ccb 1fbf
-0.019817984 0.16666201 0.08712528 0.02610545 0.032958277 0.0147205 0.04285246 0.27695024
-0.19055043 -0.023724927 -0.052340165 0.011728762 0.016302116 0.0011942921 -0.053317558 -0.055042554
0.19573787 0.14637241 0.37211207 0.1156702 -0.4167554 -0.08413003 -0.03040197 -0.045864876
-0.040961467 -0.038504478 -0.09890867 -0.18907075 0.06497587 -0.16700928 0.006365895 0.08631666
-0.059429925 0.116638936 -0.038591817 -0.13126493 -0.038559582 0.0835278 0.037495967 0.16353582
-0.029158736 -0.009923772 -0.012441406 -0.0330023 0.010746676 -0.15190041 -0.0063377875 0.028304411
0.23370823 0.1145905 0.055026412 0.12853399 0.09025024 -0.06775039 0.08192448 0.092960835
0.014817141 0.020087369 -0.101788975 0.043744743 0.10117171 -0.07585222 -0.029262753 0.036796015
-0.04911499 0.15985273 0.008979821 0.09434098 -0.0681414 -0.032094248 -0.11775967 0.08900736
-0.07638425 -0.16683145 -0.09511811 0.15093453 -0.041308537 0.12735087 0.10351459 0.01574876
0.11022419 -0.03015734 -0.013700018 -0.26546323 0.050378498 0.10277863 0.05817214 -0.13299136
-0.0042439587 0.12485482 0.007722548 -0.07332986 0.0030419035 0.019019516 -0.052972835 -0.1151259
0.105386764 0.48576993 -0.07220142 -0.19733253 -0.26542935 -0.09592774 0.073618524 -0.012041523
0.038225256 -0.20347431 -0.12558322 -0.055245653 0.032318182 0.15650788 0.17591867 -0.015956815
0.027617766 -0.24708991 -0.239156 0.001636353 -0.2328972 -0.025818722 0.10424771 -0.1353913
0.0148892 -0.10469282 -0.14015973 -0.043595478 -0.06666844 -0.02250295 -0.009928395 0.017201303
0.094239086 -0.012507305 -0.09515342 0.07264306 -0.08918844 0.05806097 0.06277228 -0.044563413
-0.21024907 -0.043334626 -0.09582677 0.0073217507 0.011669515 -0.21992439 0.020538913 0.012068013
-0.16265124 0.0012782568 -0.0036765377 -0.039338894 -0.00012686188 0.042992227 -0.1946099 -0.01571705
-0.11250214 -0.06309967 -0.022109179 0.07787735 -0.045194004 0.015420981 -0.022759283 -0.10690259
-0.28212142 -0.019567335 0.09134306 -0.1298684 -0.13103786 -0.018198078 -0.022098094 -0.01192131
-0.07286117 0.2222261 -0.056246348 -0.08058354 -0.07137478 0.02477551 -0.057777863 -0.12321024
-0.020932356 0.1162992 0.064932 -0.0742951 -0.059715662 0.23964345 0.008080553 0.0047657546
-0.25169384 -0.079588 0.010403513 0.05020805 0.08397341 0.12583567 0.23175697 0.053973958
0.04822889 -0.2050088 0.15083992 0.06569875 -0.02406085 -0.04548219 0.096651375 0.35644838
-0.014573402 0.6535133 -0.91137475 -0.3391664 -0.00060138875 0.0015902531 0.11171342 -0.10090245
-0.46763363 -2.2546048 0.7537252 -0.5155905 -0.47320557 -0.042528763 -0.0005859772 0.027252946
0.025052931 -0.16652939 -0.032917667 0.21280204 -0.36590767 -0.8002699 0.043308258 0.06971655
0.0781682 -0.020498939 0.008970387 -0.084675714 0.12205022 -0.006906495 -0.20270169 -0.41538283
0.066987075 -0.08838657 -0.011521981 0.03529647 0.024966892 -0.011138822 -0.1425764 0.07697989
0.082729526 0.016205454 -0.05412492 0.045442015 0.2067149 0.10074961 0.23082578 -0.42001423
0.54553235 -0.03828997 0.18962511 0.16751534 -0.14676216 -0.058980905 0.04502851 -0.62419486

conv3.weight f4 [64, 32, 3]
00000000: a7dd d7bc 90c2 f4bc c2a7 37bd 4473 c9bd
00000010: 038a 793d 47dc 55bd f009 1dbe 1f9a 49be
00000020: de85 ffbd e4fd 6dbd 5f00 fabc b0f9 d639
00000030: 861e e9bd e857 ce3c 160f 32bd 2682 37bc
00000040: 09a4 f1bc 157c 003e 48a8 d9bd 7ea6 01be
00000050: 7ed5 84bd c958 f13c b982 0f3c c57f 8bbd
00000060: 1686 d4bd cbb6 ddbd 0a20 e43a a848 26be
00000070: abac 0dbe 1607 b0bd 3f01 b2bd 0767 82bc
00000080: 9303 35bd d412 8fbc 9261 5fbd 6f81 8dbd
00000090: 2eca b33d 887d 643d 28fa 0e3e a6a4 873d
000000a0: 6c3b a33d dcf7 b63d 67ef e93c 6279 d7bd
000000b0: fd8c 3fbd 0a25 773d fabc 76bc 0a22 803d
000000c0: 00b3 9f3d b2df f73d e9cf b73d 01e3 e33d
000000d0: 9715 08bd 48a0 943d 7e6d 373d 2c50 43bc
000000e0: d04c 9c3d 7a82 afbd 903a 903d 213f 453d
000000f0: 0586 c5bc 3137 d5bb a4df a73c 747b 323c
00000100: 7d5c 813d cc0c 773c 4cc5 c2bd 1064 60bc
00000110: 34fc 763d 3d27 1a3d c4f1 dd3d 5ac1 853e
00000120: 179d c4bd d5a7 76bd bc5b 3cba 9b5c d13c
00000130: 3e6c 58bd 59a1 b93c 690e 9dbd 6e56 33be
00000140: 7665 d4bd 9600 3ebc d283 d23c 7e97 0fbd
00000150: 10d9 413d 92fe 4cbd 7b80 a73d 42df fd3c
00000160: 1948 5d3c f786 143d 2195 f2bd fcbe 40bd
00000170: 360a a7bd 130f 79be ed22 09be 05bf d2bd
00000180: 766c 09bd c300 81bc da78 cabd b8a0 09be
00000190: 3ed1 0c3d 076f f8bd 9a0a 02bd 6220 6e3d
000001a0: a90f 7ebd d747 cfbd 0d96 56bd 9b0a c8bd
000001b0: a52a 203d 2618 ecbd dcf6 89bc e9a9 933c
000001c0: 5afe 37bd fd70 b8bb 227d 26bd b9a6 e1bd
000001d0: a25f 30bc f1e7 0e3d e861 cf3c 5c70 99bd
000001e0: 9251 03bd 07d3 bcbc 84ff a2bd 6e95 f33c
000001f0: 0bef 05be 4b82 8fbc d0b8 f7bd 7b07 16bd
00000200: 283b 713b 7679 92bc d3a2 febd 3cb2 433d
00000210: 3c73 613c 1565 1fbd ade8 eabd da51 813d
00000220: a932 173d dd53 51bd 3985 fd3c f76b d5bd
00000230: 69a2 09bd a8a0 0d3d cedd 4bbc dde3 84bd
00000240: 749d ac3c b8b8 18bc c062 463b 0aa8 9e3d
00000250: be96 babd 7c80 153d a7ef e9bd 345f 503d
00000260: e7e4 a9bd c51c d43c f511 47bd 4829 093c
00000270: 0bf5 2cbc d98c f6bd 2331 04be 5554 b93c
00000280: b90c 05be 43f5 463d 622a 6dbd a086 653c
00000290: 002d cb3c f0c2 a5bb 1078 2d3c 102f 81bb
000002a0: 70f7 0cbc fdeb bbbd f2af 603d 9be9 873c
000002b0: 73fc abbd 30aa b1bd 36ff 80bd 0720 92bd
000002c0: 7e7e aabd 0dcb acbc e311 5a3d a9fe c1bd
000002d0: 1370 59bd 724b 18bd 2b31 debc 62e9 68bd
000002e0: a846 cfbc dbda f1bb 1b64 0cbd de5d 2bbd
000002f0: bcc3 9dbd c485 e7bd 79bf 4d3d 31a8 b1bc
00000300: 4ac8 d9bd 6c2c 8ebe 6d17 07be 4c02 3b3d
00000310: 6109 84bd ecaf 8a3d 226e a6bd 1ad6 603c
00000320: df3b 06be 2e78 fbbb c3fc 1abd 4e9b 52bd
00000330: 5845 1b3d 88be 76bc 9906 d73c 16eb adbc
00000340: 32d0 3e3c e48b 153d 5192 06be fe8c c4bd
00000350: f476 41be fa65 6239 ddec b8bd b883 5ebe
00000360: e312 863d 53c2 8d3c cc98 26bd 2835 37bd
00000370: 7da6 b7bd 0a59 63bd 923f 6b3d 33d9 cebd
00000380: 1bd6 86bd e5f7 00be 36ca d0bd be0e c63c
00000390: cd3c 883d 9d5c 04bd 9c05 1a3d 184e b0bc
000003a0: 70ae e7bc e933 29bd c903 b23d 0ce5 893d
000003b0: 1c61 14bc 3816 fc3c f180 a53c e810 fc3c
000003c0: c0ce 093b 2469 6cbd 0056 f93a 2ae2 be3d
000003d0: d5b9 c5bd c7e9 50bd 6dc5 04be e062 35be
000003e0: 219c 86bd 6447 88bd 4d30 bdbd 6f7d 5f3d
000003f0: f759 e7bd 83d5 10bd ce55 14bd 844e a93c
-0.02635081 -0.02987793 -0.04483772 -0.09836438 0.060922634 -0.052212026 -0.15335822 -0.19687699
-0.12476705 -0.058103457 -0.030517755 0.00041003292 -0.11382775 0.025188401 -0.04347142 -0.011200463
-0.029497163 0.12547334 -0.106278 -0.12661168 -0.06486033 0.029461281 0.008759194 -0.068114795
-0.10377137 -0.108258806 0.0017404568 -0.16238654 -0.13835399 -0.085951015 -0.08691644 -0.015918268
-0.04419286 -0.017465033 -0.05453641 -0.06909453 0.08778797 0.05578378 0.13962615 0.06623201
0.07970318 0.08933994 0.028556539 -0.10521199 -0.046765316 0.060338058 -0.015059704 0.062564924
0.077978134 0.12103213 0.089752026 0.11127282 -0.033223715 0.07257134 0.044782154 -0.01192097
0.07631838 -0.08569808 0.0704242 0.048155908 -0.024111757 -0.0065068235 0.020492382 0.010893691
0.06316469 0.015078735 -0.09510288 -0.013695732 0.060299113 0.037635077 0.10837129 0.26124078
-0.09600275 -0.06021865 -0.00071853003 0.025556853 -0.052837603 0.022659944 -0.07668764 -0.17513439
-0.10370915 -0.011596819 0.025697622 -0.035056584 0.047326148 -0.050047465 0.081788026 0.030990247
0.013505959 0.036261525 -0.1184485 -0.047057137 -0.081562445 -0.24322157 -0.1339223 -0.1029034
-0.033550702 -0.015747434 -0.09886332 -0.13440216 0.034379236 -0.12130552 -0.03174839 0.05813635
-0.062026653 -0.10121124 -0.052389193 -0.09767648 0.03910317 -0.115280434 -0.016841345 0.018025355
-0.044920303 -0.0056287036 -0.04064668 -0.11018128 -0.010764988 0.034889165 0.02531524 -0.07492134
-0.032060213 -0.023049844 -0.07958892 0.02973434 -0.13079469 -0.017518183 -0.12095797 -0.036628228
0.0036808942 -0.017880183 -0.124334 0.0477774 0.013760384 -0.03891476 -0.11470161 0.0631444
0.036913548 -0.05110537 0.030947315 -0.10420983 -0.033602152 0.034577042 -0.012443019 -0.06488774
0.021071173 -0.009321384 0.0030271262 0.07746895 -0.09110783 0.036499485 -0.11422663 0.050872043
-0.08295613 0.025892625 -0.04860111 0.008371659 -0.01055647 -0.12038583 -0.12909369 0.02262322
-0.12993135 0.048573744 -0.057901748 0.014009148 0.024801731 -0.0050586388 0.010587707 -0.003942378
-0.008603916 -0.091758706 0.054855295 0.016590884 -0.0839776 -0.08675039 -0.062986776 -0.07135015
-0.08324908 -0.021092916 0.053239714 -0.09472401 -0.053085398 -0.037181325 -0.027123054 -0.056863196
-0.025302246 -0.007380826 -0.034275156 -0.041837566 -0.07703349 -0.11304811 0.05023143 -0.021686645
-0.10633905 -0.27768266 -0.1319253 0.045656487 -0.064471014 0.06771836 -0.08126475 0.013722921
-0.13108777 -0.0076742386 -0.03783871 -0.05141764 0.03790793 -0.015060075 0.026248263 -0.021230262
0.011646317 0.036510363 -0.13141753 -0.095972046 -0.18893033 0.00021591029 -0.09029553 -0.21729934
0.06546571 0.017304575 -0.040673062 -0.044728428 -0.08967302 -0.055504836 0.057433672 -0.10100021
-0.06583806 -0.12594564 -0.10194819 0.024176951 0.06652222 -0.032314885 0.037603006 -0.021521613
-0.02828142 -0.04130927 0.08692128 0.0673314 -0.009056356 0.030772313 0.020203086 0.03076978
0.0021027774 -0.057717457 0.0019022822 0.09320481 -0.09654585 -0.051004197 -0.12965937 -0.17713499
-0.06572748 -0.06654242 -0.09237728 0.054562982 -0.11296456 -0.03535987 -0.036214642 0.020667322

conv4.weight f4 [64, 64, 3]
00000000: 8680 123d baa0 83bd 7a16 acbd d6bb c6bc
00000010: af0a 9bbc e748 4fbd 290b 8fbd 9615 4c3d
00000020: 46d1 bfbd 495e b23c 5dca 9f3c 716f 90bd
00000030: 6c85 0c3d 10ee 743d f80c debc 0a53 83bd
00000040: eaf5 e33c 1f72 cdbd 93fd a2bd 797b b03c
00000050: 1ce8 2abd 8238 bdbd d638 5fbc 3914 b73c
00000060: bcc8 b1bd db5e 87bd 6a31 84bc cbcb 983c
00000070: dd5e e43c f141 203c 2fed 223a ef8e 0fbd
00000080: d392 7b3c 669c 5b3b fc19 50bd f5ac 0c3d
00000090: 7e59 803d b8f6 aabc 06c4 bfbc 972a adbb
000000a0: 3d09 7ebd eab3 b1bd 81e3 ad3c 2126 a3bc
000000b0: ce35 cfbd 406e dc3c 0034 3f39 8cff 69bc
000000c0: 1d20 bb3c 2847 01bd fc4e c53c f9bf c1bc
000000d0: 6dcc 53bd ff6b 0e3d 2925 02bd 10ef 5cbd
000000e0: 0426 db3c d626 7bbd e821 213d 5409 98bd
000000f0: f4e8 73bd 1b4e 94bd f7c3 00bc 5497 47bd
00000100: 1c3a 78bc 3b56 9abd f385 19bd be94 b7bd
00000110: 3ede 943c 3aa6 c9bd ff7d 8cbc 8d1f 0cbc
00000120: e69f bebc e574 b0bc c3f9 f73b d27f 19bc
00000130: ca97 b23c f96e bfbd a4fa 00bc 53f5 5fbb
00000140: 047a d23c 20f2 a7bb 0269 463d 60af 63bb
00000150: 62c1 77bb a0f3 b7bd bc68 263c f9ee 03bc
00000160: de96 adba 6ce8 23bc 41bc c3bd 413b 7a3d
00000170: 968e b1bc 3d37 37bd 7381 023c 9a01 aebd
00000180: c0c3 723d 0ce5 3a3d 74b2 16bd edb2 c0bd
00000190: fc6f 0dbd d322 96bc 0cf6 b1bd 180d b9bd
000001a0: dd0d 04bc ab50 cdbd 5497 ac3c 013c 09bd
000001b0: cb0e 88bd 3dad ad3c 04a7 c5bc b42e 1e3d
000001c0: cf56 863c 67ed 8cbd bd93 aebd d544 2f39
000001d0: aa66 cbbc 8f29 14bd e982 9a3b 7aac 553c
000001e0: be87 cf3b af78 c9bc e453 ec3c f055 af3d
000001f0: 198f bdbd be06 56bb ccf7 243d 70f0 b63b
00000200: 3ec4 2bbd 50e5 b9bb 2cb6 5f3d f2e0 353d
00000210: d422 113c 2177 47bd ab55 dd3b 2936 5c3b
00000220: 4055 b43c 530d a13c e6a3 813c e854 50bd
00000230: 2c49 1b3d bf0b b4bc 9ba9 84bd 4c94 c33b
00000240: 39b0 9abc 3749 653c 23d7 0c3d 81a0 823d
00000250: 8d3b dc3b 1148 02bd 738c 8f3a 8038 ff3b
00000260: 8bef 99bd 4023 b73b f887 403c 7428 bc3c
00000270: 1b32 c0bd b196 08bc 92fb 87bd f064 8dbd
00000280: 38f6 7b3d 9867 6ebc c5fc b2bd 7ade 06bd
00000290: 100d 65bd af0a 4bbc ea82 1fbd 0bf2 99bd
000002a0: 5175 97bd 406f f93a 2c42 193c fbdd 993b
000002b0: be52 cfbd 9a99 cfbc af0d 3d3b 4393 86bd
000002c0: bd3a 983c 9c77 1ebd 3cd1 34bd bca7 59bb
000002d0: 52f3 82bd 3fb2 41bd f908 b7bd c673 42bd
000002e0: f763 10bd f720 25bd c816 1ebd 0576 13bd
000002f0: 31f8 553c 1197 273d c805 7abd 9093 2a3c
00000300: 3188 b43c 13a9 863c 53e6 633d 3aa2 333d
00000310: 3d13 333d 84d4 adbd 0bd3 4d3d 987e 24bc
00000320: 500f 33bd 13ea 2fbb aca4 96bd d5ba 10bd
00000330: a1c2 60bc 65e6 c73d 3526 ca3c c065 94bc
00000340: 6ebe acbd c0b6 b0bd 1885 98bd 7192 d6bd
00000350: 762c 0c3b ad32 943c 1f3a 48bd 1377 093d
00000360: 710d 08be d54f 48be c535 8dbd 1ab3 5d3d
00000370: 088c f03c e691 2c3c 35d6 003d 9a45 0fbd
00000380: cbd5 4ebd 9533 32bd 10d1 0dbd 4037 b73d
00000390: efa2 26bd 78a6 663d 9005 b53c 1674 513d
000003a0: 2666 6e3d c558 94bd 5d41 b2bb ff8e 363d
000003b0: 35d2 a83c 8ad8 8d3d 5c24 4c3d 5009 7d3d
000003c0: 1d33 e23c 5685 1a3c 0360 64bd 88ef 4fbc
000003d0: 869d 72bc e16d a5bd b4d7 8d3d 680e 653d
000003e0: 0a95 273d 8f68 70bc 9830 2a3d 02b2 13bd
000003f0: a5d2 093d 0d47 f83b a56f 133d 90bc 1fbc
0.0357671 -0.064271405 -0.084027246 -0.024259489 -0.018925993 -0.050606634 -0.069845505 0.049825273
-0.093660876 0.021773474 0.019505674 -0.07052506 0.03430693 0.059797347 -0.027105793 -0.06412323
0.027827222 -0.100315325 -0.07958522 0.021543251 -0.041725263 -0.09239294 -0.013624391 0.02234851
-0.08680865 -0.06609889 -0.016136844 0.018651864 0.027877266 0.009781347 0.00062151527 -0.03504842
0.01535483 0.0033509969 -0.05080603 0.034344632 0.06267069 -0.020869598 -0.023408901 -0.005284618
-0.06202053 -0.08676894 0.021226646 -0.019915642 -0.10117684 0.02690804 0.00018234551 -0.0142821185
0.022842461 -0.031562 0.024085514 -0.02365111 -0.051708627 0.03477096 -0.03177372 -0.053938925
0.026751526 -0.061316334 0.039338976 -0.07423654 -0.059548333 -0.0724146 -0.007859222 -0.048728302
-0.015150573 -0.075359784 -0.03748126 -0.08963917 0.01817238 -0.09846158 -0.017149923 -0.008552444
-0.023269605 -0.021540115 0.0075676157 -0.009368854 0.021800894 -0.09347338 -0.007872257 -0.0034173324
0.025692947 -0.005125299 0.048439987 -0.0034741983 -0.0037804474 -0.08982015 0.010156807 -0.008052581
-0.0013243814 -0.010004144 -0.09557391 0.061091665 -0.021674436 -0.044730414 0.007965433 -0.08496399
0.059268713 0.045628592 -0.03679128 -0.094091274 -0.034530625 -0.018327152 -0.08689508 -0.090357006
-0.008059946 -0.10025152 0.021068253 -0.03350449 -0.066434465 0.02120077 -0.02412749 0.03861876
0.016398815 -0.068812184 -0.085242726 0.00016714942 -0.024829227 -0.036172446 0.0047153127 0.01304161
0.0063333204 -0.02459368 0.028848596 0.08561313 -0.09255809 -0.0032657827 0.04027538 0.0055828616
-0.041935198 -0.005673088 0.054617092 0.044403978 0.008858401 -0.048697595 0.006754597 0.0033601618
0.022013307 0.019659674 0.015825223 -0.050862223 0.03791158 -0.021978257 -0.06477662 0.005968606
-0.018882858 0.013994507 0.034384858 0.0637827 0.006720966 -0.03180701 0.0010951891 0.0077887177
-0.07516392 0.005588919 0.0117511675 0.022968508 -0.09384557 -0.008336709 -0.0663978 -0.06904018
0.06151411 -0.014551066 -0.08739618 -0.032927014 -0.05592066 -0.012392684 -0.03894321 -0.07516869
-0.07395423 0.0019030347 0.0093541555 0.0046956516 -0.10123204 -0.025341798 0.0028847267 -0.06571057
0.018582696 -0.038688287 -0.044144854 -0.003321155 -0.06394066 -0.04728913 -0.08937258 -0.04747369
-0.035251584 -0.04031464 -0.038595945 -0.036001224 0.013059662 0.040915553 -0.06104067 0.010411158
0.022037597 0.016438043 0.055639576 0.043855883 0.04371952 -0.084878 0.050250094 -0.010039948
-0.043715775 -0.00268424 -0.073556274 -0.035334427 -0.013718278 0.09760741 0.024676422 -0.018114924
-0.08434759 -0.08628607 -0.074472606 -0.1047715 0.0021388805 0.01809057 -0.048883554 0.033560824
-0.13286377 -0.19561704 -0.06895021 0.054125883 0.029363647 0.010532832 0.031454284 -0.034978487
-0.050496858 -0.043506224 -0.034623206 0.08946085 -0.04068273 0.0563111 0.022097379 0.0511361
0.058202885 -0.07243494 -0.005439921 0.044569965 0.020608047 0.06926067 0.049839363 0.06177646
0.027612263 0.009431204 -0.055755626 -0.012691386 -0.014808064 -0.08077598 0.06925908 0.055921942
0.04091362 -0.014673366 0.04155025 -0.036058433 0.033648152 0.0075768293 0.035995144 -0.009749547

conv5.weight f4 [64, 64, 3]
00000000: c16b c23d 25a6 83bc abd7 7d3d 852d c7bc
00000010: 2f41 fcbc 85c0 95bd ba70 58bd 4a46 03bd
00000020: 07a2 0d3c 14b7 2abe d7d2 d3bd 7721 4cbe
00000030: d203 3abe 7043 133e d711 3e3d a179 cabc
00000040: e3a1 e13c 637a 46bd 77cb 43be 14c0 b73c
00000050: 2e69 88bd ade0 023e 202c 52bb e693 913d
00000060: ce3c 1abe 04e4 1e3d 583a 913d 85b4 29be
00000070: 312a eb39 1514 113d 1ea8 91bb 1e34 6cbd
00000080: fa01 78bd 9076 5b3c 18d0 713d b429 6cbd
00000090: e0ce 81be 3247 eebd 5625 1dbe b8bb 8b3d
000000a0: 8898 053d c9ae e1bc 3d74 0ebd 2b47 b03b
000000b0: 3784 273d 4d54 553d 53b8 11bc 629b d4bc
000000c0: 60f4 753c 8503 593b 36dc 8fbd 79a1 313e
000000d0: 1ce4 16be e50a 7cbe b6a9 22be 5483 eabd
000000e0: ea64 67be 353b 883d b522 243c f7b9 1fbe
000000f0: 5bee 6c3e 544a 4d3e aa21 dd3d 55f5 5c3e
00000100: 03f8 2abd 68dc 673c 9ac0 a33d 050c 5a3d
00000110: 45df c8bd 1062 2d3c db7e 603d 7f39 3dbc
00000120: 240f 49bd 77d9 aabc 1a6a 0cbd 5896 66bc
00000130: da92 d33b c9f1 c1bd 2311 c63d 1a26 93bd
00000140: e112 7cbd ccde 253d fd55 84bd 24f8 b13c
00000150: f139 063e 0a5b 063e c313 6c3e 8c3d 593d
00000160: da5c 13bd 17be c0bc b29f 21bc 3755 013d
00000170: 2daf 53ba daa4 153d 90ca e7bb cef7 2cbd
00000180: 4f22 45be f6c6 2dbe 6682 0fbe 54a8 0cbe
00000190: d237 68be 12a4 1dbe f630 abbe cdf0 70be
000001a0: ea15 1dbe 25b9 8e3e b056 41be 0009 35be
000001b0: b7f8 f1bd f52b fdbd f7c8 03be 2c31 cd3c
000001c0: 3dbb afbd 100a b0bd 4c30 1b3e 99dd 2bbe
000001d0: 82e8 65bd d1af 643e c03c 043b 4637 903d
000001e0: 9866 0ebe dc18 9bbd 7d4b 53ba 0750 94bd
000001f0: a443 cdbc ce01 ce3c 3aaf 74bd b7ee cdbd
00000200: 6bb3 cc3c 2d18 03be e004 06be c89c b8bd
00000210: c7df 133c 75a1 c23d cb23 5ebd 0e10 04bc
00000220: 98fe 1f3c cfae 03be 587c 02be c2a4 1ebd
00000230: 391a 55be 5cd1 6ebe ff3a 22be 6182 efbd
00000240: 1c9c 033d 96a8 10be 7a4a abbd 6289 18be
00000250: 9fcc f5bb b88a bf3d 2cc8 6a3b 9f5b a5bd
00000260: 5f39 82bb 5869 8bbd ad65 51be 905c 2cbe
00000270: 0429 10be fd6b d5bd 2b1c 3abe c585 723e
00000280: 4984 793e 0661 093e a776 6abe 9a8a c6bd
00000290: a9be 30be bca4 31be 590e 6bbd 5316 22bd
000002a0: 0fa8 53be d4fc b5bd 8760 06be 8129 2cbd
000002b0: 1bd5 00be f8db c0bd 6582 863c c2e3 42bc
000002c0: e0ef 56bd 9b2f 08bd e2d4 2fbd 9861 68bd
000002d0: b4e0 91ba f4fd 1cbd dea7 75bd 0391 65be
000002e0: 5764 8bbe 1fa1 9ebe 32b7 af3d 4f9c fcbd
000002f0: 348b 2abd b2a6 a9bd 459d 91bc cf45 b4bd
00000300: 26e1 a43b c14d 823c adef bfbd 88b2 3bbe
00000310: f3c7 5abe e9ea 07be 554d 9abd e173 70bd
00000320: af01 b33b 82d4 123d 2753 2bbd d4d1 8abd
00000330: 96ba 6b3d 6806 243c b41d 6ebd 2d1e 11be
00000340: f61d 34be fc10 26be 64c9 523c 57cc 473c
00000350: de58 9a3d 226b 2f3d 8578 05bd 36df 8abd
00000360: a0ce 77bd 20e5 31bb 000f a33a b5b8 b7bd
00000370: 09fd 70bd 6547 f9bd be61 85be b3a3 02be
00000380: 520f 2ebe a0ec 973b d089 9b3d ebf6 bcbd
00000390: fe03 fdbc a2ba efbb 0779 12bd 786a 693e
000003a0: 40b2 e5bd ec94 85bc e49a 9f3d 7275 b73d
000003b0: 214b a9bc 8df5 2abd 727b 93bc 93ec 5fbd
000003c0: 3b64 413e c1f5 e73c 76b5 08be 09cc 0bbd
000003d0: 85d4 bd3c 9c10 343e 4bb2 67bd f551 203d
000003e0: f3a5 95bd 1257 53bd 559a d7bd 6fbd 36be
000003f0: 570c ec3d 1792 713c b704 46bd 20d3 b73d
0.09493209 -0.016070435 0.061973255 -0.024313698 -0.0307928 -0.07312111 -0.05284188 -0.032049455
0.008644587 -0.16671401 -0.10342949 -0.19934641 -0.1816552 0.14381194 0.046403732 -0.0247162
0.027543014 -0.04845656 -0.19120584 0.022430457 -0.066606864 0.1278102 -0.0032069758 0.071082875
-0.15062258 0.03879167 0.07091206 -0.16572769 0.00044854128 0.035419542 -0.00444509 -0.05766689
-0.06054876 0.013394967 0.059036344 -0.05765696 -0.25353146 -0.11634673 -0.15346274 0.06822914
0.03261617 -0.027549164 -0.034778822 0.0053795776 0.040897574 0.05208235 -0.008894044 -0.025952999
0.015011877 0.003311367 -0.07024424 0.17346753 -0.14735454 -0.24613531 -0.15885052 -0.1145083
-0.2259709 0.06651918 0.01001804 -0.15598284 0.231378 0.20047885 0.107974365 0.21577962
-0.04174043 0.01415167 0.0799572 0.05323412 -0.0980821 0.010582462 0.05480848 -0.011549353
-0.049086705 -0.020855648 -0.034280874 -0.014073931 0.006456715 -0.09469945 0.09671237 -0.07185002
-0.06154144 0.04049568 -0.064617135 0.021724768 0.1310804 0.13120666 0.23054413 0.05303721
-0.035977222 -0.023528142 -0.0098647345 0.031575408 -0.00080751145 0.036534168 -0.007073708 -0.042228512
-0.19251369 -0.16970429 -0.14014587 -0.13736087 -0.22677544 -0.15394619 -0.33435792 -0.23529358
-0.15340391 0.2787563 -0.18880725 -0.17679214 -0.11815017 -0.123619 -0.12869631 0.025047861
-0.08580635 -0.08595669 0.15155143 -0.16783752 -0.05612994 0.22332694 0.0020177811 0.070417926
-0.13906324 -0.07573101 -0.000806026 -0.072418265 -0.025056668 0.025147345 -0.05973742 -0.10055297
0.024987897 -0.12802191 -0.13087797 -0.09014279 0.009025521 0.09503452 -0.054233354 -0.008060468
0.00976529 -0.12859653 -0.12742746 -0.038731344 -0.20810784 -0.23322052 -0.15842818 -0.1169479
0.0321313 -0.1412681 -0.08363815 -0.14896157 -0.0075011994 0.093526304 0.0035824878 -0.08074116
-0.0039741243 -0.06807202 -0.20448942 -0.16832185 -0.14078146 -0.10420988 -0.18174808 0.23683842
0.24366869 0.13415918 -0.22896825 -0.09694405 -0.17260231 -0.17347997 -0.05738673 -0.03957207
-0.20669578 -0.08886114 -0.1312276 -0.04203177 -0.12581293 -0.09416956 0.016419599 -0.011895122
-0.052474856 -0.033248525 -0.04292763 -0.056733698 -0.0011129589 -0.038328126 -0.059974544 -0.22418599
-0.2722499 -0.309823 0.085798636 -0.12334501 -0.04163666 -0.08283748 -0.017775187 -0.088023774
0.0050317226 0.015906217 -0.093718864 -0.18329823 -0.21365337 -0.13273205 -0.07534281 -0.05870426
0.005462847 0.035847194 -0.041827347 -0.06778303 0.05755099 0.010011293 -0.058133796 -0.14171667
-0.17589554 -0.16217417 0.012865398 0.0121947145 0.07536481 0.04282678 -0.03258564 -0.06780855
-0.060499787 -0.0027144626 0.0012440383 -0.08970777 -0.058835063 -0.121718206 -0.26051134 -0.12757759
-0.16998032 0.004636362 0.07594645 -0.09226783 -0.030885693 -0.0073159495 -0.035759952 0.22794521
-0.11215639 -0.016306363 0.07793215 0.08957948 -0.020665707 -0.04173808 -0.0180032 -0.054668974
0.18885891 0.028315427 -0.13350472 -0.03413013 0.023172626 0.17584461 -0.056566518 0.03914066
-0.07307043 -0.05159671 -0.105274834 -0.178457 0.11525791 0.014744303 -0.04834434 0.08975816

conv6.weight f4 [64, 64, 3]
00000000: 576d d13d d75f 4e3e c68c 103e beb7 84be
00000010: 7cb1 2f3c 84a5 0cbd 70d6 f7bd 0d12 80be
00000020: fc90 0ebe be45 09be 590c fdbd 7ffd 003d
00000030: 7097 e9bd 102e 5c3e 156d 70bc 6696 5fbd
00000040: 2f4d e13d 1a1e c8bd e086 fcbd f2a8 12be
00000050: ecec 423d 8e3a 8b3e b1b1 40be 32ac 7cbd
00000060: 155c 25be f245 c0bd 98b2 083c 1435 8bbd
00000070: 5427 d83c efa6 47bd f018 d5bc a459 243d
00000080: fe3a 663c 6172 60be e6d3 5a3e 714a eb3c
00000090: c26f d1bd 8e9f 8d3e 08ec 46bd 82e6 93bd
000000a0: c208 723e e1a0 6d3c ad59 21be 117b 66be
000000b0: 9197 10bd 5341 1cbe 158a 1f3e 682e 0f3d
000000c0: db05 8fbe daf2 9b3d ae52 c4bd 699f dbbd
000000d0: 957e f0bd 10b5 67bd 38df d63d 062e e13d
000000e0: 41b4 c6bd 3cbd dfbc 4391 7d3e 753d 44bd
000000f0: 188e e93d b2c4 0fbe d1a1 6dbd 940d cd3d
00000100: 514c ccbc a764 563d 0dce 313e 45d2 ef3d
00000110: e64c f73d 2c16 3fbe 292d ba3d acc8 54bd
00000120: f895 17bd c26a 85bd 8365 603c 3adb 07bd
00000130: b0c0 ef3b a44d 8bbd 7cc7 55bd 1870 8e3c
00000140: 2057 8cbd f8be 753d 04e2 68be 2fad d9bd
00000150: 4f0d 70be e0ea 3dbe d2fd 77be 2510 54bd
00000160: 9ba7 023e 4665 8dba 2027 89bd c50e d93d
00000170: 6e85 59bd 9bea 0bbd 1c07 8b3c c547 dbbd
00000180: f850 863d fbf6 613e ce20 143d 60d9 863c
00000190: 2688 b3bc a7b8 8abd d0a9 fabc 093c f83d
000001a0: 303f 803d 2322 64be 7843 a2bd a446 57bd
000001b0: 1b9b cbbd c231 37be 6dd4 5c3c 29c8 b23d
000001c0: e312 37be 9491 463c 1178 b33d 01d0 433d
000001d0: 547d f2bd dd06 0e3e d0ce 26be fa3e 54bd
000001e0: 5595 e7bd b94e 113d 6474 e5bc dbfe 943c
000001f0: 8f9a 46bd 0ead e4bd 4373 72be 23e7 cf3d
00000200: f0cd 16bc 5cad 893d 3dea 0c3e 0b64 993d
00000210: 957e 783d ed6e 4abe 3457 ebbd 00d1 26bc
00000220: 96a8 983c 22e1 6bbc 7c08 ccbb 47f2 60be
00000230: b4df 8dbd 1a99 033c 08c3 3bbd f0ae b4bc
00000240: fa22 12be 1347 bcbb c117 2bbd 3710 07bd
00000250: 7c79 233e c308 59bc bc54 67bd d9ee 27bd
00000260: ad18 e0bd b1e9 2e3e f990 2abc 5389 95bd
00000270: 5933 14be aebc debd f15f 1cbe a81e 7c3e
00000280: 8eb6 6f3d fd17 52bd a956 9ebe b7b7 873e
00000290: 44fb 20bc 04b0 a8bd 0966 c13d 2050 eabd
000002a0: 133e 65bd 72ae 71bd bee1 acbd f908 09be
000002b0: c8a3 b63d 610b 30bc 8015 28bc 770f f33d
000002c0: a06a 3b3e 22be 53be 5866 a2bc 760a b3bd
000002d0: 21c3 dbbc e1e9 133d 9203 d1bd b41c c5bd
000002e0: 4eff c93d 5bf0 f7bd 5211 a6be b240 58be
000002f0: f907 b63d 4e64 05bd d9ab 863e 98c0 7a3d
00000300: f223 5fbd 2539 ccbb bcda 00bd 2789 93bd
00000310: 66f5 0abd dcf9 0f3c c571 63bd 525e 8e3c
00000320: 842e 1ebd 128a 993c cc33 2a3e 5401 d9bc
00000330: 31d1 ad3a 823a 11bc 4c94 bdbd f8b1 9abd
00000340: 9d9d b0bc ff0f 8abd 9ea9 96bd d96b 8fbd
00000350: 4d7c 0c3c a7ce 7c3d 0e31 573e 52c3 143d
00000360: 97af 3cbe 810e a6bd b6f9 01bd dc65 2b3d
00000370: 0d85 bfba 226b 90bc e6bb dbbd b1d4 23be
00000380: 0818 47bd 746f b2be dd69 86bd c970 0f3e
00000390: 31bd 8bbd b5a8 8cbd 17c8 693d 45ae c5bd
000003a0: 27d7 0abe 8f47 2dbe a579 41be 42ab 093d
000003b0: 8495 803c f4ce eabd 0d34 b9bc 3b18 e5bb
000003c0: e35a 8fbe 59bd e43d 181a a83c af64 b0bd
000003d0: 8d23 033e 93d8 48bd 9a83 75bb 20ce 8939
000003e0: 5479 af3c e44f e3bd 107b 463e 55f6 c13d
000003f0: 7219 96bd 11f2 e63c bd00 c3bd 1d32 0c3e
0.10225933 0.20153747 0.14116201 -0.25921434 0.010723468 -0.034337536 -0.121014476 -0.25013772
-0.13922495 -0.13405511 -0.12355871 0.031491753 -0.114058375 0.21501946 -0.014674445 -0.05458679
0.1100105 -0.097713664 -0.12330413 -0.1432226 0.047589228 0.2719311 -0.18817784 -0.061687656
-0.16148408 -0.09388341 0.008343361 -0.06797233 0.02638594 -0.048743185 -0.026012868 0.04012455
0.014052151 -0.21918632 0.21369895 0.02872202 -0.10226394 0.27660793 -0.04856494 -0.072217
0.23636153 0.014503689 -0.15756865 -0.22507884 -0.035300795 -0.15259294 0.15580018 0.034956366
-0.27934155 0.0761468 -0.095860824 -0.107237644 -0.117428936 -0.05656916 0.10491794 0.109951064
-0.097023495 -0.027311914 0.24762444 -0.047910172 0.11404055 -0.14039877 -0.05801565 0.100123554
-0.024938734 0.052342083 0.17363758 0.117100276 0.12075214 -0.18660802 0.09090645 -0.051949188
-0.037008256 -0.06514503 0.013696077 -0.033168055 0.0073166713 -0.06801918 -0.052192196 0.017387435
-0.06852555 0.059996575 -0.22742468 -0.10628735 -0.23442577 -0.18546629 -0.24217919 -0.05177321
0.12759249 -0.0010787628 -0.066969156 0.1059852 -0.053105764 -0.034159284 0.016971163 -0.10707048
0.06558412 0.22066872 0.036164097 0.016461074 -0.021915507 -0.06773501 -0.030598551 0.12120826
0.06262052 -0.22278647 -0.07923025 -0.052557603 -0.099416934 -0.17890075 0.013478381 0.08729584
-0.17878298 0.0121196695 0.08763135 0.04780579 -0.11840311 0.13869806 -0.1628983 -0.05181787
-0.1130778 0.035475466 -0.028009601 0.01818793 -0.048487242 -0.1116582 -0.23676781 0.10151508
-0.009204373 0.06722519 0.1376123 0.07489785 0.060667593 -0.19768877 -0.11491242 -0.010181665
0.018635076 -0.014396938 -0.0062265974 -0.21967421 -0.069274336 0.008032108 -0.045840293 -0.022056073
-0.14271155 -0.0057457774 -0.0417707 -0.032974448 0.15964311 -0.013246718 -0.056477293 -0.040999267
-0.109422065 0.17081334 -0.010410541 -0.07301583 -0.14472713 -0.108758315 -0.15270974 0.2462107
0.058523707 -0.05129241 -0.3092549 0.2650735 -0.009825531 -0.08236697 0.0944329 -0.11441064
-0.0559674 -0.059004255 -0.084414944 -0.13382329 0.089179575 -0.0107449 -0.010259032 0.11868184
0.18302393 -0.20677999 -0.019824192 -0.0874223 -0.026826443 0.036111716 -0.10205759 -0.09624615
0.09863149 -0.12106391 -0.3243509 -0.2111843 0.088882394 -0.03256636 0.26302984 0.061218828
-0.05447764 -0.006232398 -0.0314586 -0.07203894 -0.033925436 0.008787598 -0.05552842 0.01737896
-0.03861858 0.018742595 0.16621321 -0.026489891 0.0013261196 -0.008864047 -0.09256801 -0.07553476
-0.02155953 -0.06741332 -0.07356571 -0.07002992 0.0085745575 0.061720517 0.21014807 0.036319084
-0.18426357 -0.08108235 -0.031732284 0.041845188 -0.0014611796 -0.01762921 -0.10729198 -0.15999104
-0.048606902 -0.34850657 -0.065631606 0.14007868 -0.06823195 -0.06868116 0.057075586 -0.0965238
-0.13558637 -0.16921829 -0.1889406 0.03361059 0.015696295 -0.114652544 -0.022607828 -0.006991414
-0.2799903 0.11168928 0.020520255 -0.08612954 0.1280653 -0.049034666 -0.0037462474 0.0002628425
0.021420158 -0.11099222 0.19382882 0.09470812 -0.07329072 0.028191598 -0.09521625 0.13690992

conv7.weight f4 [64, 64, 4]
00000000: 2748 21be f093 abbe 7ba6 623b 4340 41be
00000010: 26d5 7d3c 6734 033e 0cb4 d3bb b2e7 d23e
00000020: 5f0d 26bd 9644 1d3e 0fac 923e 4464 633d
00000030: 58c4 6f3d d94d cbbd 677f 893e b83b 5dbe
00000040: 3abe b0be 0f5d e03d 7c6a bbbe f312 333e
00000050: d70b 343e 9567 98bd 8afe 2dbe e612 1abe
00000060: a750 e4bd c20f 9dbd ed08 07be 1f72 11be
00000070: 1a3f 14bd 252a 58bd 6527 97bd 76fd a7be
00000080: 1ca2 ce3c af23 8d3e 202e ddbb 99b9 20bd
00000090: 23a4 803d 03f1 5dbd 7870 99bd cffd 06bd
000000a0: d50d 6c3e b2da 9abd 8c21 f43d 65de 9abd
000000b0: e131 92be a056 773e 6ce6 783d 1b24 263c
000000c0: d63c e93c c7e6 803c b61d bebc ddca ff3c
000000d0: b7f0 81be 4974 3bbe 6071 e73e 0759 1dbe
000000e0: 907b 54bd 979d 58bd 0240 883e d8f7 19bd
000000f0: f9cb ccbb 997f e83d 01ff 9e3d d625 ba3d
00000100: 9134 d1bb 505d cebc ba5f 4e3c 8f55 6bbe
00000110: 6864 7bbe 0961 593c 6b77 57be bc5e 053c
00000120: a1dc bbbd 4bb9 a5bd a0a5 623e e505 bdbd
00000130: e9ef a13d f751 35be 6087 52be e7c5 69be
00000140: 9a90 6fbd 4804 4abc 2e90 30ba 755a 2ebe
00000150: 3e05 f0bc dd15 283d 52f8 603d 7435 04be
00000160: a2bb 2b3e f5a0 233d ec96 1f3e 0ab6 003e
00000170: 5819 8b3e 968e f13d 26f5 f2bd 867a 523e
00000180: bf9c 663d a13a df3c bd82 aebe c77f 0bbe
00000190: 60c1 aa3c b0e2 a23d 5e37 47bc 4e80 d6bd
000001a0: a220 59be 55e4 dcbd bffe 543e 878c bf3d
000001b0: f4d4 f8bd a68c 4f3e 1dd0 11be e106 5c3e
000001c0: 0321 f9be ad39 a4bd 1ba6 ba3d 8d9e 863d
000001d0: 8b16 7d3c 81b1 70bc 1887 9a3d 8cbb 8bbd
000001e0: 5b70 7fbb 5c7c cabd 83bc b63d 2d3d d6bd
000001f0: a2ea 52bc 0694 c93c 171d ccbd f154 ac3e
00000200: 5c8a 743e 4903 0d3d 4654 52bd 93cc 243e
00000210: c365 2a3e 14a9 de3d 4381 cf3e a12a 8ebd
00000220: e915 1f3e e8d7 0d3e 3be6 78be 5990 b7bd
00000230: 8698 c8bd 4245 67bc 906b 04be b947 aebd
00000240: dfdb f63c cfbe b43e 1e4d 633e db64 d03e
00000250: 875f 7f3e 7c4f 36bd 09e0 693e d243 00bd
00000260: cd30 23be dd8f 1f3e 093b 81bc 5322 2b3e
00000270: 1c4d 8b3d 0808 99bb 625c 8d3e f2f6 53be
00000280: c01b 073d 4224 403e 4629 8e3e e409 9d3b
00000290: f16b 013e 0c57 283e 28d0 b03c 9f97 96be
000002a0: d298 babd cc4b 8f3e 307c e9bc aa61 413e
000002b0: f0c7 eabc a387 8d3e e435 313d 7140 bb3e
000002c0: 60a7 103e d10b 5dbe 0ac3 a9bd 7e98 b2bd
000002d0: d2be a0bc 1cc0 9fbc 824e 9abd 4307 e4bd
000002e0: 0ecf a0bd 73b1 0f3e e13b b03b a708 3d3e
000002f0: 776f 86bd 5636 cdbd 605f cd3c a220 a8bd
00000300: af1f d6bd f24d e83d eb3a 4c3c d6d0 423e
00000310: 3303 b73d 17f5 063e 4d20 e2bd 9599 503e
00000320: 847c 27be 0ebd d4bd 8d8f 68be 5426 2bbd
00000330: d3d9 d9bd 357e cebd e6be 9dbe 42a7 12be
00000340: c913 79bd 0915 693e fd49 f7bd ff25 6cbe
00000350: a56d 55be bbfe bfbd 026f e6be b1b2 9abe
00000360: cb39 c1bc a538 34bd 97c0 42be 9593 173e
00000370: 7be1 04be c552 d93d 33b3 f4bd 3713 52be
00000380: 375d 72be 0195 7fbd 61a4 d63d 78ca 043a
00000390: 4277 a5bc 6b58 cdbd 3c7a bc3d f40f f6bd
000003a0: c473 49bd 366d 403d 5643 a7bd 56a2 32bd
000003b0: 1dc8 08bd 65cc 9239 eefa 0fbd 46bd 053e
000003c0: b76d 973c 014f ca3e 1b3d 383e 3305 df3d
000003d0: a63e 25bd aebb 533d c8f7 f5bd 2345 493d
000003e0: 3952 a5bd aedb 2abe a787 6dbe 8da2 3ebe
000003f0: bb59 a63e d220 563e fb69 743e cb1e 9c3e
-0.1575018 -0.33511305 0.0034584093 -0.1887217 0.015492713 0.12812959 -0.0064606722 0.41192394
-0.040540095 0.15358195 0.28646895 0.055515543 0.058536857 -0.09926958 0.26855013 -0.21604812
-0.3452013 0.109552495 -0.3660468 0.17487697 0.17582642 -0.07441632 -0.1699163 -0.15046272
-0.11148196 -0.07669021 -0.13186999 -0.1420369 -0.03619299 -0.052774567 -0.07380561 -0.32810563
0.025223784 0.27566287 -0.0067498833 -0.0392395 0.062813066 -0.054184925 -0.07492155 -0.032956894
0.23052152 -0.07561244 0.11920461 -0.0756195 -0.2855368 0.24154139 0.060766622 0.010140444
0.028471392 0.015735043 -0.023207527 0.031224662 -0.25378963 -0.18306078 0.45203686 -0.15365992
-0.05187565 -0.052884664 0.26611334 -0.037589878 -0.0062499014 0.11352462 0.07763482 0.09089248
-0.00638444 -0.02519098 0.012596065 -0.22981857 -0.2455002 0.013267764 -0.21041648 0.008140262
-0.09172941 -0.080919825 0.22133493 -0.0922964 0.07907087 -0.17707048 -0.20559454 -0.228294
-0.058487512 -0.012330122 -0.00067353516 -0.17026694 -0.029299375 0.041036475 0.054924317 -0.12911016
0.16770795 0.039948422 0.15584916 0.12569442 0.27167773 0.11794774 -0.118631646 0.20554551
0.05630183 0.027249636 -0.3408412 -0.13622962 0.020844162 0.079533935 -0.012159197 -0.10473691
-0.21203855 -0.107857384 0.20800303 0.09352975 -0.121499926 0.20268497 -0.14239545 0.21486999
-0.48657998 -0.08018813 0.09113713 0.0657321 0.015447269 -0.014690758 0.07545298 -0.06822881
-0.0038976881 -0.09887001 0.089226745 -0.10460887 -0.012873324 0.024606716 -0.09966486 0.33658555
0.23880905 0.03442696 -0.0513499 0.16093664 0.16640382 0.10872093 0.40528306 -0.069417246
0.15535702 0.13851893 -0.24306576 -0.08963079 -0.097947165 -0.014115633 -0.12931657 -0.08509774
0.03013414 0.35301825 0.22197387 0.40701947 0.24938785 -0.044509396 0.22839369 -0.03131468
-0.15936585 0.15582223 -0.01577522 0.16712312 0.06801817 -0.004670147 0.27609545 -0.20699671
0.03298545 0.18763831 0.27765864 0.004792439 0.12638833 0.16439456 0.021583632 -0.29412553
-0.091111794 0.27987516 -0.0285016 0.18884912 -0.02865979 0.27642545 0.043264285 0.36572602
0.14126348 -0.21586539 -0.08289154 -0.08720492 -0.01962224 -0.019500785 -0.075345054 -0.111341976
-0.078519925 0.14032535 0.005378232 0.18460332 -0.06564229 -0.100201294 0.025069892 -0.08209349
-0.10455262 0.11342992 0.012465219 0.19024977 0.08936157 0.13179432 -0.11041317 0.20371087
-0.16356093 -0.10387622 -0.2271101 -0.0417846 -0.1063725 -0.10082666 -0.30809706 -0.14321616
-0.060809884 0.2276193 -0.12074659 -0.2306137 -0.20842607 -0.09374758 -0.45006567 -0.30214456
-0.023587128 -0.043999333 -0.1901878 0.14802392 -0.12976639 0.1061149 -0.11948242 -0.20515142
-0.23668371 -0.06239796 0.104805715 0.00050655706 -0.020198468 -0.1002663 0.09203002 -0.120147616
-0.04918267 0.04697915 -0.0816714 -0.043611847 -0.033393968 0.00027999576 -0.035151415 0.13060483
0.018484933 0.395134 0.1799206 0.108896635 -0.04034295 0.051692657 -0.12010151 0.0491382
-0.08072323 -0.16685364 -0.23196279 -0.18616696 0.32490334 0.20910957 0.23868553 0.30492243
