models/trained/dncnn1d_partialconv_5kdata_20epoch_08_12_20.pth (torch_old, 922755 bytes, 92 tensors)

first_layer.weight f4 [64, 1, 3]
0	0xbcab1fca	-0.020889182
1	0xba508f83	-0.0007955955
2	0xbc70e3ba	-0.014702732
3	0xbe6a3c3a	-0.22874537
4	0xbb7259fb	-0.0036979902
5	0xbb2c130c	-0.002625647
6	0x3d401475	0.04689451
7	0x3e0cdd8c	0.13756388
8	0xbde500af	-0.11181771
9	0x3d0c907a	0.03431747
10	0xbc991f28	-0.018691614
11	0x3ce67847	0.028133525
12	0x3df00967	0.11720543
13	0xbd9a57e0	-0.07536292
14	0xbc8d2011	-0.017227205
15	0xbd9cf3fa	-0.07663722
16	0xbbeb7275	-0.007185275
17	0x3dc52672	0.096264735
18	0x3c00c240	0.007858813
19	0x3e1258f6	0.14291748
20	0xbdfde8c8	-0.12397915
21	0xbe4cea94	-0.2001136
22	0x3e2fa093	0.17151098
23	0x3d5191fc	0.051164612
24	0x3d622290	0.055208743
25	0x3e7853ad	0.2425067
26	0x3e39d1b0	0.18146396
27	0xbe26768e	-0.16256163
28	0xbe883543	-0.26603135
29	0xbda52404	-0.0806351
30	0xbce6471d	-0.028110081
31	0xbd80983e	-0.06279038
32	0xbe907b7f	-0.2821922
33	0xbe483ae6	-0.19553718
34	0x3e4ad411	0.1980746
35	0xbdbe4024	-0.092895776
36	0x3e056a5e	0.13028857
37	0x3e156a16	0.1459125
38	0x3da0ce94	0.07851902
39	0xbd1c8b9e	-0.038219087
40	0xbeaeabb7	-0.34115383
41	0x3e40343f	0.1876993
42	0x3c10f5cb	0.008847664
43	0x3e6733d1	0.2257836
44	0xbe429cb3	-0.19005089
45	0xbcadc15d	-0.021210367
46	0xbe2b478d	-0.16726513
47	0xbe07e5b0	-0.13271213
48	0x3eaf5188	0.3424189
49	0xbe1346af	-0.14382432
50	0xbe26cf73	-0.16290073
51	0xbeaf6681	-0.34257892
52	0xbea3a40c	-0.31961095
53	0x3d9bdc08	0.07610327
54	0x3d8e7817	0.06956499
55	0xbe2f9848	-0.17147934
56	0x3db0d33f	0.08634042
57	0xbf1e2cfe	-0.617874
58	0xbef63686	-0.48088473
59	0x3df2774d	0.11839161
60	0xbf96d48b	-1.1783613
61	0x3d8e90d4	0.069612175
62	0xbf454ed3	-0.770734
63	0xbe5dbfde	-0.21655223
64	0x3e2cbc68	0.16868746
65	0x3ddbb11c	0.1072714
66	0xbc8846c7	-0.016635312
67	0xbeb4c33f	-0.3530521
68	0x3e4e5197	0.20148312
69	0x3ca97714	0.020686664
70	0x3e28754c	0.16450995
71	0xbe1bc0d2	-0.15210274
72	0xbe3aba16	-0.18235049
73	0x3e5b0ba9	0.21391167
74	0x3cc3e7d1	0.02391425
75	0x3d1452a4	0.036211625
76	0xbe5fe7a8	-0.21865714
77	0x3e8131c0	0.2523327
78	0xbe90db06	-0.28292102
79	0x3ea35c42	0.31906325
80	0x3d0f0791	0.034919325
81	0xbdfcac81	-0.1233759
82	0xbb20a03f	-0.0024509577
83	0xbe6d26f1	-0.23159386
84	0xbdd0a6fa	-0.10188098
85	0x3de1d8c7	0.11027675
86	0x3cd3397f	0.025784252
87	0xbbd7b562	-0.006582902
88	0xbda5a064	-0.08087233
89	0xbc3f26ef	-0.011666997
90	0x3e675929	0.22592606
91	0xbe48d9b5	-0.19614299
92	0x3c270f19	0.010196471
93	0x3e383ba3	0.179915
94	0x3e53fc95	0.20701821
95	0x3e0e9f04	0.13927847
96	0xbabaff81	-0.001426682
97	0xbb708dd6	-0.0036705635
98	0xbbc0464f	-0.0058677564
99	0xbdffef25	-0.12496785
100	0x3e12e5e1	0.14345504
101	0x3c7b1c56	0.01532658
102	0x3de95270	0.11392677
103	0x3da74184	0.08166793
104	0x3e897a13	0.26850948
105	0x3e4a871a	0.197781
106	0xbc10929c	-0.008824017
107	0xbe2fa2cd	-0.17151947
108	0x3db49878	0.088181436
109	0x3e7a199d	0.24423833
110	0xbe511f35	-0.20422061
111	0xbda62575	-0.08112613
112	0x3d14e72c	0.036353275
113	0xbd358369	-0.044314776
114	0xbbaf4438	-0.0053487085
115	0xbe0e0bfc	-0.13871759
116	0xbe024163	-0.12720256
117	0x3d54eff4	0.05198665
118	0x3e138066	0.14404449
119	0x3cd94db2	0.026526306
120	0x3e3e7f30	0.18603206
121	0xbd17c685	-0.037054557
122	0xbe47d0cf	-0.19513248
123	0xbe3934cc	-0.18086547
124	0x3e17de7c	0.14830965
125	0xbe40c768	-0.18826067
126	0xbe9e5e46	-0.309313
127	0xbf49a6e8	-0.78770304
128	0x3d7f1ff7	0.062286343
129	0x3e5dae29	0.21648468
130	0xbe473603	-0.19454198
131	0x3cd17040	0.02556622
132	0xbe732605	-0.23744972
133	0xbe3697e4	-0.17831379
134	0xbc0e5c05	-0.008688931
135	0x3e365eac	0.17809552
136	0xbc9fadd8	-0.019492075
137	0x3e0c8c63	0.13725428
138	0x3e6974dc	0.22798485
139	0xbd99987d	-0.07499788
140	0xbe095c38	-0.13414085
141	0xbf410e5e	-0.7541255
142	0x3e6c805e	0.23095843
143	0xbd8debc1	-0.06929732
144	0x3ce54877	0.027988655
145	0xbd792db6	-0.06083461
146	0x3d9b5ff4	0.07586661
147	0xbe1e818e	-0.15479109
148	0x3de66a38	0.11250728
149	0xbe292deb	-0.16521423
150	0xbda307ac	-0.07960448
151	0xbde5af13	-0.112150334
152	0x3df2065c	0.11817619
153	0xbd1f9649	-0.038961682
154	0xbba083a3	-0.004898505
155	0xbca4cca4	-0.020117112
156	0x3e30ff42	0.17284873
157	0xbfb6c5a0	-1.427906
158	0xbf087ff9	-0.5332027
159	0xbe82bd76	-0.25535172
160	0xbb92590e	-0.0044661826
161	0x3e904f0d	0.2818531
162	0xbe194472	-0.14967516
163	0xbd5f1613	-0.05446441
164	0xbdbe4c48	-0.09291893
165	0x3c14054e	0.009034468
166	0x3e53638c	0.20643443
167	0xbe2cc506	-0.16872033
168	0xbdcfb9dc	-0.10142872
169	0xbd94c80f	-0.07264721
170	0xbd259dfb	-0.040433865
171	0xbe02beb6	-0.12768063
172	0x3e20d19b	0.15704958
173	0xbed7d660	-0.42155743
174	0xbd9aaddf	-0.075526945
175	0xbe0727ed	-0.13198824
176	0x3e0ecd6b	0.13945548
177	0xbe87873e	-0.2647037
178	0x3def60c6	0.1168838
179	0x3e269d07	0.16270839
180	0xbf3cc83c	-0.73743033
181	0xbfc323c3	-1.5245289
182	0x3dabee46	0.083950564
183	0xbc427d77	-0.011870733
184	0xb9817851	-0.0002469444
185	0xbd6c07fb	-0.0576248
186	0xbebbba9b	-0.36665806
187	0x3e02332f	0.12714837
188	0x3c0376ef	0.008023961
189	0x3d4e053f	0.05029797
190	0x3e396ab5	0.18107112
191	0xbf1592d8	-0.5842719

hidden_layer_list.0.weight f4 [64, 64, 3]
0	0x3d082aae	0.033243828
1	0x3d17f2e5	0.037096877
2	0xbe09408f	-0.13403533
3	0x3bb9ae6c	0.0056665447
4	0xbd3c0d1d	-0.045910943
5	0xbd646cc0	-0.055767775
6	0xbd7f3c6b	-0.06231348
7	0x3e29d85c	0.16586441
8	0x3e46db4e	0.19419596
9	0xbd37b4c2	-0.04485012
10	0x3e7ae82b	0.24502628
11	0xbdccaeb4	-0.099942595
12	0xbdfe4644	-0.12415746
13	0x3ce39315	0.027780095
14	0x3d865210	0.06558621
15	0xbd986ebf	-0.07442998
16	0x3de6d302	0.11270715
17	0xbe28f531	-0.16499783
18	0xbca390ed	-0.019966567
19	0x3d033fed	0.032043386
20	0x3e551aa5	0.20810945
21	0x3bce1ed5	0.0062902966
22	0x3cc4628c	0.023972772
23	0xbc326b3d	-0.010889825
24	0x3d9677bf	0.073470585
25	0x3d97735e	0.073950514
26	0x3d547c6f	0.05187648
27	0xbd0db407	-0.034595516
28	0xbe17b6a9	-0.14815773
29	0xbdebc709	-0.11512572
30	0x3d2b242e	0.04178255
31	0xbc0700e9	-0.008239963
32	0xbd415d19	-0.047207925
33	0x3cdadbd8	0.026716158
34	0xbdd4abde	-0.103843436
35	0x3d4eb1f1	0.050462667
36	0x3cf75cc8	0.030195609
37	0x3dfbe3c5	0.12299303
38	0x3d0b9f43	0.03408743
39	0xbdef016c	-0.11670193
40	0x3e2ebc6f	0.17064069
41	0x3d8288ea	0.063737705
42	0xbdff9a1d	-0.12480567
43	0x3d9a8a84	0.07545951
44	0x3e1aebbc	0.15128988
45	0xbca82a6d	-0.020528043
46	0x3d0a497a	0.03376148
47	0xbcf133af	-0.02944359
48	0x3c45172a	0.0120294485
49	0x3e0ed024	0.13946587
50	0x3bc9b67e	0.006155788
51	0xbdb028df	-0.086015455
52	0x3dab48f2	0.083635226
53	0x3da2f716	0.07957284
54	0x3d196424	0.037449017
55	0x3d9c9a3d	0.07646606
56	0xbe0d9c60	-0.13829184
57	0xbe17a0bc	-0.14807409
58	0xbbe29262	-0.006914423
59	0x3e33d610	0.17562127
60	0xbde96a9a	-0.11397286
61	0x3caf3b7c	0.021390669
62	0x3c941890	0.018078119
63	0x3e057250	0.13031888
64	0x3deb5be2	0.11492135
65	0xbdba7647	-0.09104591
66	0xbe22e935	-0.15909274
67	0x3db9c9c4	0.09071687
68	0xbdff0bfb	-0.12453457
69	0xbc8df3bd	-0.017328138
70	0x3d55e64f	0.052221593
71	0x3d933f76	0.071898386
72	0x3e5cda92	0.21567753
73	0xbc55f48d	-0.013058794
74	0x3e0d32a2	0.13788846
75	0xbe164a56	-0.14676794
76	0x3e33fc58	0.1757673
77	0xbdf5a34f	-0.11994039
78	0x3e53c03f	0.20678805
79	0x3d63251c	0.055455312
80	0x3cb730da	0.022362161
81	0xbdc7c514	-0.097543865
82	0x3cf82bda	0.030294348
83	0xbdc0c2ee	-0.0941218
84	0xbce57e85	-0.02801443
85	0xbb88256a	-0.0041548507
86	0x3c1ef6d5	0.009702404
87	0x3d26b2e0	0.040697932
88	0x3d701204	0.05861093
89	0xbddacca5	-0.10683564
90	0xbd601c5d	-0.05471455
91	0x3e5f6e90	0.2181952
92	0xbd3e7194	-0.046495035
93	0x3d9dc582	0.07703687
94	0x3e72f2e2	0.23725465
95	0xbd91183b	-0.070847
96	0x3db79fce	0.08966027
97	0xbdbe0a10	-0.09279263
98	0xbde95764	-0.113936216
99	0x3d43466e	0.04767459
100	0xbd3a1f53	-0.04544003
101	0x3dc72b1b	0.097250186
102	0x3e22f2e6	0.15912971
103	0x3e95d8d1	0.2926698
104	0xbcb10cac	-0.021612488
105	0xbd8ff9ad	-0.07030044
106	0x3e5b38af	0.21408342
107	0x3d4d9e0c	0.050199553
108	0x3db98b73	0.09059801
109	0x3e1504f4	0.1455267
110	0x3e0cddec	0.13756531
111	0x3bdec016	0.006797801
112	0x3d7cfc5e	0.061764114
113	0xbc8e9075	-0.017402867
114	0xbd2f4dba	-0.042798735
115	0x3d8976c9	0.067121096
116	0xbdeba601	-0.11506272
117	0x3da08e30	0.0783962
118	0x3deb0da2	0.1147721
119	0x3e185f62	0.14880136
120	0xbdec5191	-0.11538995
121	0xbb8810a9	-0.0041523767
122	0xbaef33bf	-0.0018249674
123	0x3d182acd	0.037150193
124	0x3c52799b	0.012846376
125	0x3cf2c750	0.029636055
126	0x3d74bf25	0.059752602
127	0xbca5379c	-0.020168118
128	0x3e22fef8	0.15917575
129	0xbccbc99b	-0.024876406
130	0x3cd56909	0.026051061
131	0xbd0df348	-0.03465584
132	0xbd5d8e61	-0.05409086
133	0x3d1d8764	0.038459197
134	0x3d3f31c1	0.04667831
135	0x3c8bc753	0.017062819
136	0x3f24b6bd	0.64341336
137	0xbdb439b3	-0.08800068
138	0xba83b22f	-0.001004761
139	0x3e200e8a	0.15630546
140	0xbe01beb1	-0.12670399
141	0xbe25c28f	-0.161875
142	0xbe2729bd	-0.16324516
143	0xbd08e2bf	-0.033419367
144	0x3da3642f	0.07978093
145	0x3e3e7f35	0.18603213
146	0xbdeaf299	-0.11472053
147	0x3dbe405e	0.09289621
148	0x3dce7179	0.10080237
149	0xbdc1b883	-0.09459021
150	0x3ce68493	0.028139388
151	0x3e14ee5d	0.14544053
152	0x3d1699f0	0.0367679
153	0x3d3a3b25	0.04546656
154	0x3d08bcf2	0.033383317
155	0xbc9e379a	-0.019313622
156	0x3e89ab0e	0.26888317
157	0x3c485525	0.012227331
158	0xbda87bd9	-0.08226747
159	0xbdfa5af7	-0.122243814
160	0x3e15a608	0.14614117
161	0xbb647269	-0.0034858233
162	0xbe31cbf5	-0.1736296
163	0x3d39e1ad	0.045381237
164	0x3ce170cd	0.027519608
165	0x3cb2695c	0.021778755
166	0x3d148521	0.036259774
167	0x3e229ef6	0.15880951
168	0x3dad2d21	0.08455873
169	0xbdd8bd7d	-0.10583017
170	0xbc846cba	-0.016165126
171	0xbd9cad80	-0.0765028
172	0xbc566619	-0.013085865
173	0xbdb7dd83	-0.08977797
174	0xbe21734a	-0.15766636
175	0x3defbcbd	0.11705921
176	0xbd21002e	-0.039306812
177	0xbdfb26ca	-0.12263258
178	0x3d59023a	0.05298064
179	0xbdb7466e	-0.0894898
180	0xbdd556f4	-0.104169756
181	0x3d1a0e83	0.037611496
182	0x3dc7908b	0.09744366
183	0x3d8124e4	0.063058645
184	0x3ddce471	0.10785759
185	0xbc794123	-0.015213284
186	0xbd9964a1	-0.074898966
187	0xbe0b0f56	-0.13580069
188	0xbb836bf3	-0.0040106713
189	0x3da5fe63	0.08105161
190	0x3e19bc93	0.15013342
191	0x3c2bf701	0.010495902
192	0x3b92e5c8	0.0044829585
193	0xbd315e0e	-0.04330259
194	0xbd886928	-0.06660682
195	0x3d9a0e56	0.075222656
196	0xbe030f1f	-0.12798737
197	0x3d4f8e23	0.05067266
198	0xbe09a9ab	-0.1344363
199	0x3c0ab242	0.008465352
200	0x3cfe468b	0.031039497
201	0xbda6f891	-0.08152879
202	0xbe0ad68d	-0.13558407
203	0xbaa69fee	-0.0012712458
204	0x3dc4fff6	0.09619133
205	0xbea6e9cf	-0.32600257
206	0x3e537703	0.20650868
207	0x3d887ff5	0.06665031
208	0xbe176732	-0.1478546
209	0xbd155d34	-0.03646584
210	0xbe975bb0	-0.2956214
211	0x3e2e08a5	0.16995485
212	0xbc3e1eb9	-0.011604005
213	0x3d8288cf	0.063737504
214	0x3d37e54b	0.044896405
215	0xbe87b310	-0.265038
216	0x3e2956f1	0.16537072
217	0x3ca9d070	0.020729274
218	0xbda6410d	-0.08117876
219	0xbc12cf48	-0.0089605525
220	0xbd65fa92	-0.056147166
221	0x3bf18f14	0.0073717926
222	0x3c802af1	0.015645476
223	0xbd1862b8	-0.03720352
224	0x3d85bd4b	0.065302454
225	0xbe77d2b5	-0.24201472
226	0x3ddf96fc	0.1091747
227	0xbeb81658	-0.35954547
228	0x3d7baf31	0.061446372
229	0x3dd03f38	0.10168308
230	0xbc998a28	-0.018742636
231	0xbda6d02f	-0.081451766
232	0x3bd94e67	0.0066316607
233	0x3dfd63e1	0.12372566
234	0xbeb9131b	-0.3614739
235	0x3e4b95fa	0.1988143
236	0xbd1a7747	-0.037711408
237	0xbce18302	-0.02752829
238	0x3d74f8f2	0.059807725
239	0xbc4d5e95	-0.012534757
240	0xbe0b0a36	-0.13578114
241	0xbda5d7f4	-0.080978304
242	0xbd5a5140	-0.053300142
243	0xbd904c98	-0.07045859
244	0x3d146fa4	0.03623928
245	0x3e16b334	0.14716798
246	0xbcec60a0	-0.028854668
247	0xbdec3c9d	-0.115349986
248	0xbd88374d	-0.06651173
249	0xbd909baf	-0.07060944
250	0x3eba2cf5	0.36362424
251	0x3e3875f3	0.18013744
252	0x3e77fbea	0.24217191
253	0xbead0856	-0.33795422
254	0x3e605e89	0.21911062
255	0x3daed730	0.085371375

hidden_layer_list.1.weight f4 [64, 64, 3]
0	0xbdfeaceb	-0.12435325
1	0x3c846fec	0.01616665
2	0x3d1a6fab	0.03770415
3	0xbe2f21e5	-0.17102773
4	0xbe0cfee8	-0.13769114
5	0x3e42716f	0.18988584
6	0xbdc05c79	-0.09392638
7	0x3dae238d	0.085028745
8	0xbdb8c285	-0.09021477
9	0xbe0cc4cc	-0.13746947
10	0xbe107131	-0.14105679
11	0x3ccddafe	0.025128838
12	0xbdb136fe	-0.08653067
13	0xbd006d3c	-0.031354174
14	0xbe01f699	-0.12691726
15	0x3e0cdb0e	0.13755438
16	0x3e34c499	0.17653121
17	0xbdbbc93d	-0.091692425
18	0xbc91a7ed	-0.017780269
19	0xbe51ff86	-0.2050763
20	0x3d8c1ce3	0.06841447
21	0xbd2e5aee	-0.042567186
22	0x3e9dadc9	0.3079665
23	0xbcc92bc9	-0.024557011
24	0x3ba07175	0.0048963376
25	0xbc94e558	-0.018175766
26	0x3d161c32	0.036647983
27	0xbda4b334	-0.08041993
28	0xbd93522e	-0.07193409
29	0x3e248d15	0.16069444
30	0xbdd9a31d	-0.106268145
31	0x3ca4289d	0.020038897
32	0x3bd76787	0.0065736207
33	0x3d662dff	0.05619621
34	0x3d617da6	0.05505147
35	0x3d0c6107	0.03427222
36	0x3ad11d28	0.0015954124
37	0x3e32e5cb	0.17470472
38	0xbd3a8ee8	-0.045546442
39	0xbdbb0555	-0.091318764
40	0xbe04a255	-0.1295255
41	0x3dd4e524	0.103952676
42	0xbd042fc1	-0.032272104
43	0xbe36a766	-0.17837295
44	0x3e021bd3	0.12705927
45	0xbe421843	-0.18954568
46	0xbe112355	-0.14173634
47	0x3dcf3fb7	0.101195745
48	0xbd2410b1	-0.04005498
49	0xbbc77c1e	-0.006087794
50	0xbe6c55ee	-0.23079655
51	0xbd8bddbf	-0.06829404
52	0xbdbfe929	-0.09370644
53	0xbd1e4029	-0.038635407
54	0xbe03c7fd	-0.12869258
55	0xbdbf58a8	-0.09343082
56	0xbd148b16	-0.036265455
57	0x3e0b2021	0.13586475
58	0x3e75fead	0.24022932
59	0xbe1c62cb	-0.15272062
60	0x3d009cd5	0.031399567
61	0x3dca28a9	0.098710366
62	0x3d03a761	0.032142047
63	0xbe056e8e	-0.13030455
64	0xbd752035	-0.05984517
65	0x3e0fda3b	0.14048092
66	0xbe42c9ee	-0.19022343
67	0xbe489b0d	-0.19590397
68	0x3e12d2ac	0.14338177
69	0xbe7c55a6	-0.24642047
70	0xbe680179	-0.22656812
71	0xbd75226c	-0.05984728
72	0x3db83aa2	0.08995558
73	0x3e13becc	0.14428252
74	0xbc8b6a11	-0.01701835
75	0xbe21b8a7	-0.15793096
76	0xbd6e7844	-0.058220163
77	0x3cb4ffb7	0.02209459
78	0xbe0c9682	-0.13729289
79	0x3cb74675	0.022372464
80	0x3dc0d054	0.094147354
81	0xbe2b4235	-0.16724475
82	0xbe716f22	-0.2357755
83	0xbbbacf8b	-0.0057010106
84	0xbcdaaa34	-0.026692487
85	0x3e07dc7c	0.13267702
86	0x3d73339d	0.059375394
87	0x3ba27918	0.004958283
88	0x3cd3068e	0.025759961
89	0x3d00feb0	0.03149289
90	0xbe7c206e	-0.24621746
91	0xbe6005f0	-0.21877265
92	0xbe10fcb8	-0.14158905
93	0xbba5e683	-0.0050628795
94	0x3c9557b4	0.018230297
95	0xbd4e3199	-0.05034027
96	0x3cffa133	0.031204795
97	0xbd02fa10	-0.03197676
98	0xbdd423b6	-0.10358374
99	0xbdaf8415	-0.085701145
100	0x3d18e379	0.03732631
101	0xbcf3e3a9	-0.029771643
102	0x3d693425	0.056934495
103	0x3dde1dfc	0.10845563
104	0x3c8749f1	0.01651475
105	0x3df60a1e	0.120136485
106	0x3b5d515e	0.0033770422
107	0xbd9570b2	-0.072968856
108	0x3dd88d11	0.10573781
109	0x3e75d624	0.2400747
110	0x3dd190e2	0.10232712
111	0x3da5f9a7	0.08104258
112	0x3e212908	0.15738308
113	0xbdee99e9	-0.1165045
114	0xbda68cea	-0.08132346
115	0xbd82ba52	-0.06383194
116	0x3d9c2dbd	0.076259114
117	0xbdfc887e	-0.12330721
118	0xbe5dbc01	-0.21653749
119	0x3c49f44a	0.012326309
120	0xbd6e9d5a	-0.05825553
121	0xbd3cf095	-0.046127874
122	0x3df65aa1	0.12029005
123	0xbe09a56d	-0.13442011
124	0x3d9af7cf	0.07566797
125	0xbc9a358f	-0.018824367
126	0x3c7f489b	0.015581275
127	0x3df2999a	0.118457034
128	0x3db66f33	0.08907928
129	0xbda37452	-0.07981171
130	0xbe46b508	-0.19404995
131	0xbe2e9b24	-0.17051369
132	0xbd09d087	-0.033646133
133	0xbdcd518e	-0.10025321
134	0x3b2b0b46	0.0026099249
135	0xbe628194	-0.22119743
136	0xbe4e2d35	-0.20134433
137	0xbdacd8b0	-0.08439767
138	0xbc925087	-0.017860664
139	0xbe7d5231	-0.24738385
140	0x3d336922	0.043801434
141	0x3da90976	0.08253758
142	0xbe445fed	-0.19177218
143	0xbd19affe	-0.037521355
144	0xbd58eea7	-0.05296197
145	0x3cc8ac3a	0.024496187
146	0x3d021fc8	0.03176859
147	0xbd45a4ca	-0.04825286
148	0x3d3cc65a	0.0460876
149	0x3e2b0473	0.16700916
150	0xbc3a879b	-0.01138487
151	0x3e702da6	0.23454913
152	0xbdfcf325	-0.12351064
153	0x3d1e6ed8	0.038679928
154	0xbd326257	-0.043550815
155	0x3ca0f043	0.019645816
156	0x3d4d0f14	0.050063208
157	0xbe6b296b	-0.22965018
158	0xbe2be3b8	-0.16786087
159	0xbd54a29d	-0.051912893
160	0x3eb6f813	0.3573614
161	0x3ba99f59	0.0051764664
162	0xbc769b41	-0.015051664
163	0xbddba0d2	-0.107240334
164	0x3adc7e43	0.0016822297
165	0x3d1145e8	0.03546706
166	0x3e709fcd	0.23498459
167	0xbdb0914a	-0.08621462
168	0x3c3d81f5	0.011566629
169	0x3b157390	0.0022804476
170	0xbe11593a	-0.14194193
171	0xbd8a6502	-0.06757547
172	0xbc505c34	-0.012717295
173	0xbe580190	-0.21094346
174	0xbe21fc68	-0.15818942
175	0xbe360fe9	-0.17779507
176	0x3e14a639	0.14516534
177	0x3d80c271	0.06287087
178	0x3d11a9e8	0.035562426
179	0xbcc3b71a	-0.02389102
180	0x3dd8d817	0.10588091
181	0x3e10a767	0.14126359
182	0x3d35d02a	0.044387974
183	0x3dc08e01	0.09402085
184	0xbc36f452	-0.011166649
185	0x3e3802e0	0.17969847
186	0x3ca05bd1	0.019575031
187	0x3d7ce881	0.06174517
188	0x3bcee4ea	0.00631391
189	0xbe304152	-0.17212418
190	0xbea14287	-0.3149607
191	0xbe5b4334	-0.21412355
192	0xbc2a0c8a	-0.010378966
193	0xbe1fd303	-0.15607838
194	0x3e3c7ff6	0.18408188
195	0xbe5cf272	-0.2157686
196	0x3e3287fc	0.17434686
197	0xbc737885	-0.014860277
198	0x3e1f3e85	0.15551193
199	0x3d590d58	0.05299124
200	0x3d1d7d35	0.038449485
201	0x3c729eb6	0.014808347
202	0x3da7ed09	0.08199508
203	0x3e883c07	0.26608297
204	0xbdf5e7fb	-0.120071374
205	0x3d4fb06c	0.05070536
206	0xbd334e6f	-0.043775972
207	0xbe352d6c	-0.17693108
208	0x3d6697b5	0.056297023
209	0xbdb885ba	-0.09009881
210	0x3cb778b3	0.022396421
211	0x3db58ef7	0.08865159
212	0x3d152a1c	0.03641711
213	0x3de84538	0.113413274
214	0x3e066b3f	0.13126849
215	0x3d6f4e98	0.058424562
216	0x3c4be862	0.012445541
217	0xbd027c17	-0.031856623
218	0x3e4162ec	0.18885392
219	0xbebce480	-0.36893082
220	0xbe6514b3	-0.22371177
221	0x3e10c1e0	0.14136457
222	0xbde179fb	-0.11009594
223	0x3e06a475	0.13148673
224	0xbd4781b5	-0.048707683
225	0xbd81e30a	-0.063421324
226	0x3cc8c389	0.0245073
227	0x3d81ad54	0.06331888
228	0xbe1b2812	-0.15152004
229	0x3e70bbcf	0.23509143
230	0xbdb43cc4	-0.088006526
231	0xbdd2e39a	-0.10297318
232	0xbd9de430	-0.07709539
233	0x3cbd1240	0.023079991
234	0xbe194fc6	-0.14971837
235	0x3d6bceef	0.057570394
236	0x3e029f92	0.12756184
237	0x3c306eb4	0.010768581
238	0xbc397a6f	-0.011320694
239	0x3dd1dfa8	0.10247737
240	0xbc868dc7	-0.016425027
241	0xbdc54477	-0.09632199
242	0xbe2b016b	-0.1669976
243	0xbf1a3692	-0.6023952
244	0xbcf77ca4	-0.0302108
245	0x3d92a775	0.07160846
246	0xbe8cdd63	-0.27512655
247	0x3cc23513	0.023706948
248	0x3d26311f	0.04057419
249	0xbe1fb5c7	-0.15596686
250	0x3d7b362d	0.061330963
251	0xbe38156a	-0.17976919
252	0x3e501e4e	0.2032406
253	0x3ec54c52	0.3853479
254	0xbdc6ee51	-0.09713424
255	0xbd462f4a	-0.048384942

hidden_layer_list.2.weight f4 [64, 64, 3]
0	0x3e045e25	0.12926538
1	0x3d3fb3c6	0.046802305
2	0xbd6415f2	-0.05568499
3	0x3c6cb488	0.014447339
4	0x3d1d1781	0.038352493
5	0xbeb37799	-0.35052183
6	0x3e644828	0.2229315
7	0xbe31e997	-0.17374264
8	0x3ba783c8	0.005112145
9	0xbda119b8	-0.078662336
10	0xbddaf96b	-0.10692104
11	0xbd5d874e	-0.054084115
12	0xbd42ec0c	-0.047588393
13	0x3d8444ab	0.0645841
14	0x3a64e4d8	0.000873161
15	0xbd0e2e6c	-0.03471224
16	0xbdc35e9d	-0.095395304
17	0xbe7f519c	-0.24933475
18	0x3cebb3a0	0.028772175
19	0x3ce2ac84	0.027670152
20	0x3e1c37e9	0.15255703
21	0x3ce6200b	0.028091451
22	0x3e58b8ab	0.21164195
23	0x3d07c27c	0.03314446
24	0x3d981d1c	0.07427427
25	0xbc967218	-0.018364951
26	0x3bdbe13c	0.0067101996
27	0x3d2d0a7c	0.042246327
28	0xbc4b485c	-0.012407389
29	0xbb62ecc7	-0.0034625994
30	0x3d7a28e6	0.06107416
31	0x3d022087	0.0317693
32	0x3df6c45a	0.1204917
33	0x3bf47bd9	0.007461053
34	0xbcf35ca3	-0.029707259
35	0xbd3949f7	-0.045236554
36	0xbd91db07	-0.07121854
37	0x3dd3d98d	0.10344229
38	0xbd8f2605	-0.069896735
39	0xbe1f8943	-0.15579705
40	0x3dc0d8f7	0.09416383
41	0x3dbf0587	0.09327226
42	0xbcf78a3b	-0.03021728
43	0x3e4954ae	0.19661209
44	0x3dcca887	0.099930815
45	0xbd3ffe12	-0.04687316
46	0xbdcd8dce	-0.10036813
47	0x3e57416b	0.21021049
48	0x3d0372c2	0.032091863
49	0x3e33d885	0.17563064
50	0xbd4831fe	-0.0488758
51	0xbd87bc91	-0.06627763
52	0x3ee2234c	0.44167554
53	0xbe145099	-0.1448387
54	0xbd19914e	-0.03749209
55	0xbdc19411	-0.094520696
56	0x3e5f662e	0.21816322
57	0x3db74c48	0.08950096
58	0x3d563d9b	0.052304845
59	0x3d3af92c	0.045647785
60	0xbc4cbf66	-0.012496805
61	0x3ceddcdf	0.029035984
62	0xbd8cd22c	-0.068760246
63	0x3d71e6d1	0.059058014
64	0xbdf26ee8	-0.1183756
65	0xbe29eff8	-0.16595447
66	0x3cf2a5bc	0.029620044
67	0x3de56138	0.11200184
68	0xbe2ed8fa	-0.17074957
69	0xbd411779	-0.047141526
70	0xbcf0d583	-0.029398685
71	0x3d964892	0.073380604
72	0x3d0a7eb6	0.033812247
73	0x3db2b2de	0.087255225
74	0xbdaeda0b	-0.08537682
75	0x3d287483	0.04112674
76	0x3e74ebd7	0.23918091
77	0x3bf2065f	0.0073860134
78	0x3d9c0a7a	0.07619186
79	0xbe39c5f6	-0.18141922
80	0x3cb5a2a1	0.022172274
81	0xbcd9cf3a	-0.026588071
82	0x3e22f945	0.15915401
83	0xbd3c7d94	-0.046018198
84	0x3def61f1	0.11688603
85	0xbdf07d8f	-0.117426984
86	0xbcd54937	-0.026035888
87	0xbd877180	-0.06613445
88	0x3d625cb6	0.055264197
89	0x3d70461e	0.05866062
90	0x3e633d7a	0.2219142
91	0xbd1e7b26	-0.038691662
92	0xbdf76c7b	-0.12081238
93	0x3d89337e	0.066992745
94	0x3dbb4ec0	0.0914588
95	0xbdd4af00	-0.10384941
96	0x3dfa4967	0.12221032
97	0x3d7bcc3b	0.061474066
98	0x3bc05048	0.0058689453
99	0x3d6ed199	0.058305357
100	0xbd5b1b01	-0.05349255
101	0xbd1c44c7	-0.03815153
102	0x3d1f5baf	0.038905796
103	0x3e182f66	0.14861831
104	0xbdee8ce5	-0.11647967
105	0x3d15ccea	0.036572374
106	0x3c6a0e9e	0.014285712
107	0x3e17d8db	0.14828818
108	0x3c443e30	0.011977717
109	0x3de0850d	0.109628774
110	0xbd939d06	-0.07207684
111	0x3c56947b	0.013096924
112	0xbd77fd62	-0.06054438
113	0x3e1ad0d4	0.15118724
114	0x3dbee818	0.09321612
115	0xbaf93987	-0.0019014337
116	0xbd5961c9	-0.05307177
117	0xbd1cadae	-0.03825157
118	0xbdc98991	-0.09840692
119	0xbd0f1a9e	-0.034937494
120	0xbdde64ca	-0.10859068
121	0x3e3fb2ab	0.187205
122	0x3f034698	0.5127959
123	0x3d7eee6d	0.0622391
124	0xbe84e228	-0.25953794
125	0x3d5c2900	0.05375004
126	0xbe814af7	-0.25252506
127	0x3e4f80ef	0.20264028
128	0x3e22cbbe	0.15898034
129	0x3c79730d	0.015225184
130	0xbd8b3718	-0.06797618
131	0x3d7c066e	0.06152957
132	0x3e182fc3	0.1486197
133	0xbe2f11a2	-0.1709657
134	0x3d71f152	0.05906803
135	0xbd9d42a0	-0.07678723
136	0xbd5d3842	-0.05400873
137	0x3e022d4f	0.12712596
138	0x3e7d1a72	0.2471712
139	0x3da73aad	0.081654884
140	0xbb44151e	-0.0029919813
141	0xbdb7531b	-0.08951398
142	0x3b1108ea	0.0022130557
143	0x3e283d21	0.16429569
144	0x3dddf6f5	0.10838119
145	0x3d98a81d	0.0745394
146	0xbd01b648	-0.031667978
147	0x3ce6f70e	0.028193977
148	0xbcf1a6c5	-0.029498467
149	0xbd244005	-0.040100116
150	0xbc6b3605	-0.014356141
151	0xbd68f6d0	-0.056876004
152	0xbd01cf37	-0.031691756
153	0x3d38b342	0.04509283
154	0x3e640b49	0.2226993
155	0xbe01ccf0	-0.12675834
156	0xbe30b0e6	-0.17254981
157	0xbdc65b10	-0.096853375
158	0x3e785a27	0.2425314
159	0x3d98c02f	0.07458531
160	0x3d77ec8d	0.060528327
161	0x3cf1660f	0.02946761
162	0xbd7b9e7e	-0.061430447
163	0xbb5111c7	-0.0031901465
164	0x3ddf3570	0.10898864
165	0x3c74c815	0.014940281
166	0xbe92d19d	-0.28675547
167	0xbdf8ac25	-0.12142209
168	0xbc84c21c	-0.01620584
169	0xbda6892f	-0.081316344
170	0xbdbb2915	-0.09138695
171	0x3e2fbdad	0.171622
172	0x3dc8272e	0.09773098
173	0x3d004c98	0.031323045
174	0x3d06904d	0.03285246
175	0x3d05a573	0.032628488
176	0xbd15804c	-0.036499307
177	0xbdde9812	-0.10868849
178	0xbdbe9bdf	-0.09307074
179	0xbde430f7	-0.11142152
180	0x3c319d3f	0.010840713
181	0x3da5d21b	0.08096715
182	0xbdcb0857	-0.099137
183	0x3c9bcf5f	0.01901978
184	0x3e374038	0.17895591
185	0x3e1d8bd9	0.15385379
186	0xbd13aaab	-0.036051434
187	0xbe6257c5	-0.22103794
188	0xbded60a3	-0.115906976
189	0x3d24f8fd	0.040276516
190	0x3d78500e	0.06062322
191	0xbd5b68c3	-0.053566705
192	0x3e7b436b	0.24537437
193	0xbc84a8d3	-0.016193783
194	0xbd31c8c3	-0.043404352
195	0x3e4f74f7	0.20259462
196	0xbe28a460	-0.16468954
197	0xbe3dd35a	-0.18537655
198	0xbcf1a911	-0.029499562
199	0xbd0f887b	-0.035042267
200	0x3e0e562d	0.13900061
201	0xbe25075b	-0.16116087
202	0x3d4307cd	0.04761486
203	0x3cde11cb	0.027108094
204	0x3e05424d	0.13013573
205	0x3ce12081	0.02748132
206	0x3d995d04	0.074884444
207	0x3d841bd7	0.064506225
208	0xbc948b3e	-0.018132802
209	0xbc948f96	-0.018134873
210	0xbe168a18	-0.14701116
211	0x3dc37f8a	0.095458105
212	0x3dee71ed	0.11642823
213	0x3e097cd1	0.1342652
214	0x3d3c503a	0.045974948
215	0x3dd0ac9c	0.101891726
216	0xbe0c8602	-0.13722995
217	0xbd187e86	-0.037230037
218	0xbca50b20	-0.020146906
219	0xbd380035	-0.044922072
220	0xbdc59c6c	-0.09648976
221	0xbde86ab7	-0.11348479
222	0x3ca671b4	0.02031789
223	0xbdc33cbd	-0.09533069
224	0xbdd3dfb4	-0.10345402
225	0x3d9440bf	0.07238912
226	0x3e02021f	0.12696122
227	0xbc46cdb7	-0.012134007
228	0xbd5207b2	-0.05127687
229	0x3d0c2955	0.034219105
230	0x3ce857e6	0.028362226
231	0xbcda1a7e	-0.02662396
232	0xbda7ab7c	-0.08187005
233	0xbdbad957	-0.091234855
234	0x3cabef36	0.020988088
235	0x3d48936f	0.04896873
236	0xbd7f360b	-0.0623074
237	0xbd01f473	-0.031727266
238	0xbbe6aebb	-0.0070398725
239	0xbd644379	-0.05572841
240	0xbdd2b517	-0.102884464
241	0xbe8db6fe	-0.27678674
242	0x3cb93129	0.02260645
243	0x3c58ee90	0.0132404715
244	0xbe28b39e	-0.16474769
245	0xbd97273f	-0.073805325
246	0x3c90a5ae	0.017657127
247	0xbdbcda68	-0.09221345
248	0x3dd83c22	0.105583444
249	0x3e7c882f	0.24661325
250	0x3e46d803	0.1941834
251	0xbcf28fb9	-0.029609548
252	0x3e5f8c35	0.21830828
253	0xbdbedf5a	-0.09319945
254	0xbe2f8219	-0.17139472
255	0x3e45682d	0.19278021

hidden_layer_list.3.weight f4 [64, 64, 3]
0	0x3e7259d1	0.23667075
1	0xbdc26c55	-0.09493319
2	0xbc4854df	-0.012227266
3	0xbdd59b36	-0.10429995
4	0x3d9fe4ec	0.07807335
5	0x3df8fa7c	0.12157151
6	0xbdae0446	-0.08496909
7	0xbd4861df	-0.048921462
8	0x3b4f4e47	0.003163235
9	0x3e0c6761	0.13711311
10	0xbd4356eb	-0.047690313
11	0x3d2d534d	0.04231577
12	0x3e0ec406	0.13941965
13	0xbcd7a43f	-0.026323436
14	0xbd8e3456	-0.06943576
15	0xbb945011	-0.004526146
16	0xbc3769e9	-0.011194685
17	0x3b92e939	0.0044833687
18	0x3d2c03bc	0.04199575
19	0xbd4ecf19	-0.050490472
20	0x3e23cd6f	0.15996335
21	0x3d1a913a	0.037736155
22	0xbe746cef	-0.2386968
23	0x3d06c249	0.03290013
24	0xbd8008e5	-0.062516965
25	0x3e298019	0.16552772
26	0x3db194da	0.08670969
27	0xbcf1cd79	-0.029516922
28	0xbdb48746	-0.08814864
29	0x3c71fa66	0.014769172
30	0xbcbc6dbe	-0.023001548
31	0xbd74f897	-0.059807386
32	0x3df14361	0.1178043
33	0x3e7a1e30	0.24425578
34	0xbd43fab5	-0.047846515
35	0x3b926437	0.004467513
36	0x3d13ac4b	0.036052983
37	0x3ddff2da	0.10934992
38	0xbcd653d4	-0.02616302
39	0x3d9b0727	0.075697236
40	0x3d69edf8	0.05711171
41	0x3aec515f	0.0018029622
42	0x3da869d4	0.0822331
43	0xbcf771c8	-0.030205622
44	0x3e236f5a	0.15960446
45	0xbd9c204e	-0.07623349
46	0x3cefd13c	0.029274575
47	0x3da71cfc	0.08159825
48	0xbcff6385	-0.031175384
49	0x3e16274f	0.14663433
50	0x3cce15c2	0.02515686
51	0xbdbaf485	-0.0912867
52	0x3d96018f	0.07324516
53	0x3cf0f917	0.02941565
54	0x3e64c9e2	0.22342637
55	0xbc8b98d4	-0.017040648
56	0x3d87c838	0.066299856
57	0xbd8d21b1	-0.06891192
58	0xbd3f92fd	-0.04677104
59	0x3ca4e802	0.020130161
60	0x3d1c205f	0.03811681
61	0x3ddb5c53	0.10710969
62	0xbdd861ac	-0.105655044
63	0x3dc19a42	0.094532505
64	0x3d93c7ec	0.072158664
65	0x3d7df38b	0.06199984
66	0xbe4ad843	-0.1980906
67	0xbe1ec4ae	-0.15504715
68	0x3cb48fdb	0.022041252
69	0xbc8a81fb	-0.016907683
70	0xbdf7c079	-0.12097258
71	0xbe23d2ae	-0.15998337
72	0xbd2ef737	-0.04271623
73	0xbe3ca050	-0.1842053
74	0xbdc05f3f	-0.09393167
75	0xbe847830	-0.25872946
76	0xbdf3fd12	-0.11913504
77	0xbd323f64	-0.043517485
78	0xbd3d3546	-0.046193384
79	0xbe3107f0	-0.17288184
80	0xbe1e1a0b	-0.15439622
81	0xbd76cc96	-0.060253702
82	0xbe369a56	-0.17832312
83	0x3e1b2ede	0.15154597
84	0xbe6d80de	-0.2319369
85	0x3bdbec1d	0.0067114965
86	0x3e1366ea	0.14394727
87	0xbe0b7d70	-0.1362207
88	0x3cdda0c9	0.027054207
89	0xbd4fd0f7	-0.050736394
90	0x3da748cc	0.08168182
91	0x3e7bf045	0.24603374
92	0x3e37a9ca	0.17935863
93	0xbd15bb0f	-0.036555346
94	0xbb55d5b5	-0.00326286
95	0xbd8e2673	-0.06940927
96	0x3d41a953	0.04728062
97	0xbe9f3fac	-0.31103265
98	0x3bcb00a8	0.0061951466
99	0x3e17c456	0.1482099
100	0x3c01e482	0.007928016
101	0xbc9cd914	-0.01914648
102	0xbc7c39a0	-0.015394598
103	0x3c3ae166	0.011406278
104	0x3d2d032a	0.042239346
105	0xbe085127	-0.13312207
106	0x3d2f8bce	0.042857938
107	0xbcd93d7a	-0.026518572
108	0x3c1a4c72	0.00941764
109	0x3e10dfa2	0.14147809
110	0x3e392251	0.18079497
111	0xbcbe4030	-0.023223966
112	0xbc9e4eac	-0.019324623
113	0x3e3bb4d1	0.18330695
114	0xbc25eb80	-0.010126948
115	0x3d94863f	0.07252168
116	0x3e938770	0.28814268
117	0x3e0d3d14	0.1379283
118	0x3d78d982	0.060754307
119	0x3d186c3e	0.037212603
120	0xbdec4d34	-0.11538163
121	0xbd150736	-0.03638383
122	0x3be896ed	0.00709807
123	0xbe1c878f	-0.15286086
124	0x3d1aa20c	0.037752196
125	0xbd945c1d	-0.07244132
126	0xbdd09a82	-0.1018572
127	0x3dbbb253	0.09164872
128	0x3c2d26d1	0.010568337
129	0xbe44f53c	-0.19234174
130	0x3e25d34f	0.16193889
131	0x3d59516e	0.053056173
132	0xbd128825	-0.03577437
133	0x3e4ba379	0.19886579
134	0x3e90a067	0.28247377
135	0x3bacf294	0.005277941
136	0xbdd444f7	-0.103647165
137	0xbde344df	-0.110971205
138	0xbd4557da	-0.048179485
139	0xbc82dd44	-0.015974648
140	0xbd5e379d	-0.054252256
141	0x3d864d06	0.0655766
142	0xbb6f5066	-0.0036516427
143	0x3eb0665d	0.34453097
144	0xbcf9263e	-0.030413743
145	0x3d5deb5d	0.054179538
146	0xbba68c09	-0.0050826115
147	0xbd57219d	-0.05252229
148	0x3ca7e4a0	0.02049476
149	0x3c0a0b10	0.008425489
150	0xbd96fab6	-0.07372038
151	0x3c0f754e	0.008755995
152	0x3db8b203	0.09018328
153	0x3de0b9e1	0.109729536
154	0xbe398a2a	-0.18119112
155	0x3c6221e3	0.013802025
156	0xbd12e954	-0.03586705
157	0x3d764e01	0.060132984
158	0x3e4954fe	0.19661328
159	0xbda7378e	-0.08164893
160	0xbd2516a4	-0.040304795
161	0x3db2188a	0.08696087
162	0x3ca28a0a	0.019841213
163	0xbde23e50	-0.110470414
164	0x3ddd4752	0.10804619
165	0x3dd9b215	0.106296696
166	0x3dd63813	0.10459914
167	0xbcd49208	-0.02594854
168	0x3dbb2700	0.09138298
169	0x3e0b0a42	0.13578132
170	0x3e8c0357	0.27346298
171	0xbe083273	-0.13300495
172	0x3dbf635a	0.09345122
173	0x3d741914	0.05959423
174	0xbd86c5e3	-0.06580713
175	0xbca13855	-0.019680182
176	0xbe3cce64	-0.18438107
177	0xbc4560d0	-0.012047008
178	0x3d131998	0.03591308
179	0xbd4faba0	-0.050700784
180	0x3d7e46fb	0.06207941
181	0x3d87b3a5	0.06626061
182	0x3cc7f15b	0.02440708
183	0x3d52bea2	0.051451333
184	0xbcf8599b	-0.030316165
185	0xbe050827	-0.12991391
186	0xb955d3bf	-0.00020392145
187	0x3d2ad23e	0.04170441
188	0xbda10588	-0.07862383
189	0x3d594398	0.053042978
190	0xbd30bc96	-0.0431486
191	0xbd7339de	-0.05938136
192	0x3d837545	0.06418852
193	0x3e3f93ce	0.18708727
194	0xbea101a9	-0.3144658
195	0xbd401ebc	-0.04690431
196	0x3d88d17d	0.06680582
197	0xbd84bf41	-0.06481791
198	0x3e04d2cf	0.12971042
199	0xbe52035a	-0.20509091
200	0xbdfdad36	-0.12386553
201	0xbd1359f9	-0.035974476
202	0x3db42556	0.08796184
203	0xbbad0ec4	-0.005281301
204	0x3e1fa30e	0.15589544
205	0xbe6aaa83	-0.22916608
206	0xbdbd6fcc	-0.09249839
207	0xbc10b307	-0.008831746
208	0xbd660a99	-0.05616245
209	0x3e409dca	0.18810192
210	0x3e635c66	0.22203216
211	0xbdde04c6	-0.10840754
212	0xbe8073f5	-0.25088468
213	0x3da667d4	0.081252724
214	0xbd84e158	-0.064882934
215	0xbd2f9d66	-0.042874716
216	0xbd8279a9	-0.06370861
217	0x3e014a9d	0.12626119
218	0xbda2bf9b	-0.07946702
219	0xbdbe5d72	-0.09295167
220	0x3d931675	0.07182018
221	0xbe318e6b	-0.17339484
222	0x3e0d67ee	0.13809177
223	0x3ddf901f	0.10916161
224	0x3e07ffcf	0.13281177
225	0xbe99c3bb	-0.30032143
226	0x3e4ba4f6	0.19887146
227	0xbd011428	-0.031513363
228	0x3e92b4f7	0.2865369
229	0xbcd474c7	-0.02593459
230	0xbd654a03	-0.055978786
231	0xba6b00a1	-0.0008964632
232	0xbe5e39e5	-0.21701773
233	0xbd26033f	-0.04053044
234	0x3dcf41b2	0.10119952
235	0x3da6ac8e	0.08138381
236	0x3e1e1e21	0.15441181
237	0x3d9024bf	0.07038259
238	0xbd406170	-0.046967924
239	0xbd74298b	-0.05960993
240	0x3e38b90d	0.18039341
241	0xbe369bf6	-0.17832932
242	0xbeabe0b2	-0.33569866
243	0xbda96e4e	-0.08272992
244	0x3e73d74f	0.23812602
245	0x3e5b416b	0.21411674
246	0xbe1bffe3	-0.15234332
247	0x3d9d2737	0.07673495
248	0xbd6fc440	-0.058536768
249	0xbd091b4f	-0.03347331
250	0xbcfcc481	-0.03085542
251	0x3e1bcb54	0.15214282
252	0xbca05187	-0.019570125
253	0xbe07b6a9	-0.13253273
254	0xbcd59b88	-0.02607514
255	0x3db20836	0.08692972

hidden_layer_list.4.weight f4 [64, 64, 3]
0	0x3d3439ce	0.04400044
1	0x3c47acb3	0.012187171
2	0xbd2d410f	-0.042298373
3	0x3daa5c87	0.083184294
4	0x3e9fff64	0.31249535
5	0x3e01d202	0.12677768
6	0xbd6e2e57	-0.058149662
7	0x3e1b6c62	0.15178064
8	0x3c1d1f4c	0.009589981
9	0xbe4bbe18	-0.19896734
10	0x3e0b5271	0.13605668
11	0x3d534bf4	0.051586106
12	0x3c8426a4	0.016131707
13	0x3d3ceadb	0.046122413
14	0xbdb85bff	-0.09001922
15	0xbc8561c1	-0.016281964
16	0x3e6b3241	0.22968389
17	0x3e52c45a	0.20582715
18	0x3be5fb58	0.007018488
19	0x3d8f9094	0.07009998
20	0x3db2b5cd	0.08726082
21	0x3d9f4454	0.077767044
22	0xbe81ca40	-0.25349617
23	0xbb877ecb	-0.004134988
24	0x3e8c4c1e	0.27401823
25	0x3dad908b	0.08474835
26	0x3d1943a6	0.03741803
27	0xbddf96f4	-0.10917464
28	0xbdce5ca6	-0.10076265
29	0x3cd123c3	0.025529748
30	0xbdd13ba6	-0.10216455
31	0xbdac3537	-0.084085874
32	0xbb3827ba	-0.002809985
33	0x3e39137d	0.1807384
34	0x3d8a0e94	0.06741062
35	0x3d2a9195	0.041642744
36	0x3c3248a1	0.010881574
37	0x3e127386	0.14301881
38	0x3e5d4235	0.21607287
39	0xbc2e9172	-0.010654794
40	0x3e915bd1	0.28390363
41	0x3d2423ec	0.04007332
42	0xbdaf975d	-0.08573792
43	0xbeb3efec	-0.35143983
44	0xbc6a9052	-0.014316635
45	0x3d1c8117	0.038209047
46	0x3db4bef8	0.08825487
47	0xbe024e10	-0.12725091
48	0x3cf3f9bc	0.029782169
49	0xbe4c2a0a	-0.19937912
50	0x3bb56245	0.0055353963
51	0x3d64a794	0.055823877
52	0x3d4b203a	0.04959128
53	0x3d93421f	0.07190346
54	0xbe423da1	-0.18968822
55	0x3d27538b	0.040851157
56	0x3cec7e91	0.028868945
57	0x3e1e7f11	0.1547816
58	0xbe6db4bb	-0.23213474
59	0xbe021f87	-0.12707339
60	0xbd353d88	-0.044248134
61	0xbcbbfc7e	-0.022947546
62	0x3dc17be3	0.09447458
63	0x3b94bf63	0.0045394166
64	0x3c03061f	0.007997065
65	0xbd6e323d	-0.05815338
66	0xbd2076f6	-0.03917595
67	0xbe01cdd4	-0.12676173
68	0xbd8065bf	-0.062694065
69	0x3d5e0e48	0.05421284
70	0xbb4fefad	-0.0031728551
71	0xbd7fa56d	-0.06241362
72	0x3c992ffb	0.018699637
73	0xbde69b26	-0.11260061
74	0x3d815019	0.063141055
75	0x3e5a8645	0.21340282
76	0x3dae3c8d	0.08507643
77	0xbe06531a	-0.13117638
78	0xbe240417	-0.16017185
79	0xbca9f9c2	-0.020748977
80	0x3e6bed9e	0.23039863
81	0xbdd35089	-0.10318095
82	0x3cf1c472	0.029512618
83	0x3d251ed2	0.040312596
84	0xbcc23b68	-0.023709968
85	0xbd8856e9	-0.06657202
86	0xbc812cf8	-0.015768513
87	0x3d097d0c	0.03356652
88	0x3dd9d432	0.10636176
89	0xbdfbad79	-0.12288947
90	0x3d4348ec	0.047676966
91	0x3ddcb732	0.10777129
92	0xbdb15020	-0.08657861
93	0x3dfc146f	0.12308585
94	0x3d57cb04	0.052683845
95	0xbe293a57	-0.16526161
96	0x3a4c193c	0.00077857426
97	0xbd846ed5	-0.06466452
98	0xbdd88f8b	-0.10574254
99	0x3dc72980	0.09724712
100	0x3cea9575	0.02863572
101	0xbbbcd2e6	-0.0057624457
102	0x3e82e0bd	0.25562087
103	0xbd4b6cb6	-0.04966422
104	0xbd9e8801	-0.077407844
105	0xbd0ff42f	-0.03514498
106	0xbdf9ac63	-0.12191083
107	0x3dccfdcb	0.10009345
108	0x3e950048	0.29101777
109	0x3e1f825b	0.1557707
110	0xbe7f711c	-0.24945492
111	0xbe01a12b	-0.12659137
112	0xbdffb672	-0.124859706
113	0xbd7aa455	-0.061191875
114	0xbe175c7a	-0.14781371
115	0xbb52e75c	-0.0032181358
116	0x3e067f41	0.13134481
117	0xbcb9319e	-0.022606667
118	0x3e101ef2	0.14074305
119	0x3db6254e	0.08893834
120	0xbdc0e01e	-0.09417747
121	0xbde201ce	-0.110355005
122	0x3da77826	0.08177213
123	0xbc86e6ce	-0.016467478
124	0x3d0ff7de	0.035148494
125	0x3e3e1eb6	0.18566403
126	0x3e1ce5a3	0.15321974
127	0xbe638fcc	-0.22222823
128	0xbe846adb	-0.25862774
129	0x3db11f8d	0.08648596
130	0xbc92d77a	-0.017925013
131	0xbd389c12	-0.045070715
132	0xbca99965	-0.020703027
133	0x3ddf2fcb	0.10897788
134	0x3d076066	0.033050917
135	0x3d80311f	0.06259369
136	0xbd11802f	-0.035522636
137	0xbd47ac60	-0.048748374
138	0x3d8d8985	0.069109954
139	0x3c8015fe	0.015635487
140	0xbb45105e	-0.003006957
141	0x3d6effd2	0.058349438
142	0x3df8f38e	0.12155829
143	0x3c60a29f	0.013710647
144	0xbccdb3f9	-0.025110232
145	0xbc9f61bd	-0.019455785
146	0xbda33708	-0.07969481
147	0x3da40991	0.08009637
148	0x3c8f7473	0.017511582
149	0xbdfbddb7	-0.12298148
150	0x3d271a78	0.040796727
151	0xbe1dd05c	-0.15411514
152	0xbe3992d1	-0.18122412
153	0x3d36e9ed	0.044656683
154	0x3daf6737	0.085646085
155	0xbd1ad454	-0.037800148
156	0x3dc4d481	0.096108444
157	0xbd601c5c	-0.054714546
158	0x3e42d92d	0.19028158
159	0xbd57703c	-0.05259727
160	0xbe109468	-0.14119112
161	0xbc99735f	-0.018731771
162	0x3e60bb29	0.21946396
163	0xbd48d36e	-0.04902976
164	0x3d0c35b2	0.034230895
165	0x3dbf6c5c	0.0934684
166	0x3e8b9c22	0.27267557
167	0xbd624243	-0.055238973
168	0x3d9b065f	0.075695746
169	0x3e02091d	0.12698789
170	0xbd72829a	-0.059206583
171	0x3dfa3899	0.122178264
172	0xbd812d9f	-0.0630753
173	0x3d9a8c53	0.07546296
174	0xbdd54894	-0.10414234
175	0xbdb220db	-0.08697673
176	0xbd4b14c0	-0.049580336
177	0xbd9a31ed	-0.07529054
178	0xbe420daf	-0.18950532
179	0xbcfb738b	-0.030694744
180	0x3e042c0b	0.12907426
181	0x3c51027b	0.012756939
182	0x3dd407a7	0.10353022
183	0xbdb9ae66	-0.09066467
184	0xbd6865ea	-0.056737818
185	0x3d5ad1f6	0.05342289
186	0x3dd5e013	0.104431294
187	0x3c952930	0.018208116
188	0xbdd823d5	-0.105537094
189	0xbcfde811	-0.030994447
190	0x3c50204b	0.012703012
191	0x3e23b6c8	0.15987694
192	0xbbf6ed8e	-0.007535643
193	0x3db2f493	0.08738055
194	0xbc9a066d	-0.018801892
195	0xbe0d05f1	-0.13771798
196	0x3ca61e9f	0.020278273
197	0xbd290424	-0.041263714
198	0xbd3cc279	-0.0460839
199	0xbe13cfa0	-0.14434671
200	0xbe0b8e17	-0.13628422
201	0xbdf19731	-0.117964156
202	0x3c8ea844	0.01741422
203	0x3e30c96d	0.17264338
204	0x3daa83df	0.08325934
205	0x3df8985e	0.12138437
206	0x3c65c547	0.014024085
207	0x3c9be9d9	0.019032406
208	0x3d0d8de2	0.034559138
209	0x3e27816c	0.16357964
210	0xbccb7560	-0.024836242
211	0x3d33a66b	0.04385988
212	0x3d980066	0.07421951
213	0xbd6fcfd0	-0.058547795
214	0xbda347df	-0.07972693
215	0x3e52b8b4	0.20578271
216	0x3bc7fb3c	0.0061029475
217	0x3def59ca	0.11687048
218	0xbbe08cea	-0.0068527358
219	0xbdd036d9	-0.10166711
220	0xbeba507b	-0.36389527
221	0xbd1fc252	-0.039003678
222	0xbe4474ae	-0.19185135
223	0x3d421458	0.047382683
224	0xbca722e9	-0.020402389
225	0xbd8ffd34	-0.070307165
226	0xbdc8c8df	-0.09803938
227	0x3d9fb8f4	0.07798949
228	0xbe564a1d	-0.2092671
229	0xbe0abc2a	-0.13548341
230	0x3e0b48bd	0.13601966
231	0x3e150b6a	0.14555135
232	0x3e18c013	0.1491702
233	0xbcfec06a	-0.03109761
234	0xbd5a6c6c	-0.053326055
235	0x3d6e1b78	0.058131665
236	0x3d803631	0.06260336
237	0x3e8c10ab	0.27356467
238	0x3db36a0d	0.08760462
239	0xbcaaaf48	-0.020835534
240	0xbd422434	-0.047397807
241	0xbdde4f7c	-0.10855004
242	0x3e490702	0.1963158
243	0x3dcc6f16	0.099821255
244	0x3d4b1820	0.049583554
245	0x3db88eb2	0.09011592
246	0xbdca6de1	-0.09884239
247	0xbe1bcb17	-0.15214191
248	0xbd2dd2ce	-0.042437367
249	0xbbdc4c93	-0.0067229955
250	0xbd11a038	-0.035553187
251	0x3d0d69f7	0.034524884
252	0xbdc036af	-0.0938543
253	0x3ca2a0db	0.019852092
254	0x3e4ed40e	0.2019808
255	0x3dd243c0	0.102668285

hidden_layer_list.5.weight f4 [64, 64, 3]
0	0xbd37b017	-0.044845667
1	0xbe89edcf	-0.26939246
2	0x3cd0c233	0.025483226
3	0xbdbf79cf	-0.09349405
4	0x3d1a56c6	0.03768041
5	0x3e37b2d9	0.17939319
6	0xbeca5d94	-0.3952452
7	0x3d8ecdb7	0.06972831
8	0xbca3848e	-0.019960668
9	0xbd9de45f	-0.07709574
10	0x3e0d9b7e	0.13828847
11	0xbe881898	-0.26581264
12	0x3d1abb9d	0.03777658
13	0xbe708442	-0.23487952
14	0xbd87f13c	-0.06637809
15	0x3d591a75	0.053003747
16	0xbd8294b9	-0.06376023
17	0xbcc4f5cc	-0.024042986
18	0x3bcee451	0.0063138385
19	0xbd6cd635	-0.05782147
20	0x3dd508be	0.10402058
21	0x3ccc42f1	0.024934264
22	0xbca01946	-0.019543301
23	0xbd70b1e1	-0.05876339
24	0xbe1a6701	-0.15078355
25	0xbca4178e	-0.020030763
26	0x3da71cd9	0.08159799
27	0xbdaceabb	-0.08443209
28	0x3dcba00f	0.09942638
29	0xbd087b31	-0.03332061
30	0x3d4f36de	0.050589435
31	0xbbc99fd0	-0.0061530843
32	0x3d98c222	0.07458903
33	0xbea187b5	-0.3154885
34	0x3c57f022	0.013179811
35	0xbdb7378a	-0.0894614
36	0xba419fef	-0.00073861977
37	0xbdada69a	-0.08479042
38	0xbdf40a98	-0.11916083
39	0xbd35bf70	-0.044372022
40	0xbb3c7664	-0.002875709
41	0xbb29a904	-0.0025888095
42	0x3d151d45	0.036404867
43	0xbd443652	-0.047903366
44	0x3cf83f4e	0.030303624
45	0x3df8893d	0.12135551
46	0xbd91d68a	-0.07120998
47	0xbd907f9c	-0.070555896
48	0x3d3e15f0	0.04640764
49	0x3c6907c6	0.014223045
50	0xbdd09c3d	-0.1018605
51	0xbc6daf9b	-0.0145072
52	0xbcda30c0	-0.026634574
53	0x3b9beb34	0.004758263
54	0xbd80f4a2	-0.0629666
55	0x3c73c341	0.014878095
56	0x3ba4ccdc	0.005029304
57	0xbd70e74e	-0.05881434
58	0xbc55d445	-0.013051097
59	0xbce29c83	-0.027662521
60	0x3da8daa6	0.08244829
61	0xbcf94fce	-0.030433562
62	0x3ce90c62	0.028448287
63	0x3d96c97e	0.0736265
64	0xbe19b62f	-0.15010904
65	0x3a4a9c5c	0.0007728988
66	0x3e32e718	0.17470968
67	0x3d9307d6	0.07179229
68	0xbdbc9c4d	-0.092094995
69	0x3dcc9e4e	0.09991132
70	0xbde00229	-0.10937912
71	0xbe4b8cd4	-0.1987794
72	0xbdc047d5	-0.09388701
73	0xbe550339	-0.2080201
74	0xbe62a18f	-0.22131942
75	0xbe30ea04	-0.1727677
76	0xbb58cc51	-0.0033080766
77	0x3c33d44a	0.010975907
78	0x3b2a47ef	0.0025982817
79	0xbdcaaf9d	-0.09896777
80	0xbe0232aa	-0.1271464
81	0x3de500aa	0.11181767
82	0x3e056f44	0.13030726
83	0x3c4b531c	0.012409952
84	0x3e8b3f6d	0.27196828
85	0xbd3dc4f9	-0.046330426
86	0xbd3cd5f8	-0.046102494
87	0xbd9b6f64	-0.075896055
88	0x3cebb066	0.028770637
89	0xbd329e9f	-0.043608304
90	0x3e127413	0.14302091
91	0xbe3127ea	-0.17300382
92	0xbe3aaba2	-0.18229535
93	0x3d5c737c	0.053821072
94	0xbd8c4c39	-0.06850476
95	0xbdd78fc9	-0.10525472
96	0xbcb86535	-0.022509197
97	0xbe731cd1	-0.23741461
98	0xbd09c6f4	-0.033637002
99	0x3c91b76f	0.017787663
100	0xbd63e6f8	-0.05564019
101	0xbc27d29b	-0.010243083
102	0xbded8261	-0.115971334
103	0xbdbfbe5f	-0.09362482
104	0xbdd9ab05	-0.106283225
105	0x3d9858aa	0.07438786
106	0x3d15c7ea	0.036567606
107	0x3dab3288	0.083592474
108	0xbe41cb05	-0.18925102
109	0xbe0484c1	-0.12941267
110	0xbe0b22d0	-0.13587499
111	0xbd9fddf3	-0.07806005
112	0xbdb98579	-0.09058661
113	0xbd19c4a3	-0.037541043
114	0x3d29465f	0.041326877
115	0xbdee3781	-0.1163168
116	0xbc9cd586	-0.019144785
117	0x3dfe5a1d	0.124195315
118	0x3c0477df	0.00808522
119	0xbdeb1dc7	-0.11480289
120	0x3c28e70d	0.010308993
121	0xbe0269c4	-0.12735659
122	0x3e37ff98	0.17968595
123	0xbc11c5a4	-0.008897219
124	0xbaecd02a	-0.0018067409
125	0x3c69e7d4	0.014276464
126	0xbcc7bfa9	-0.024383383
127	0x3e82346e	0.25430626
128	0x3e85acb3	0.26108322
129	0x3dab3164	0.0835903
130	0x3e0464a4	0.12929016
131	0x3d01760f	0.03160673
132	0xbd854e91	-0.06509126
133	0xbe097e54	-0.13427097
134	0xbd22fd12	-0.039792128
135	0xbe171da4	-0.14757401
136	0x3e626d1d	0.22111936
137	0x3defac74	0.11702815
138	0x3dbd1af1	0.09233654
139	0xbdee7417	-0.11643236
140	0xbda84700	-0.08216667
141	0xbbb13f39	-0.005409148
142	0xbcd5371f	-0.02602726
143	0xbe05b211	-0.13056208
144	0x3e40fdf4	0.18846875
145	0x3e089c71	0.13340928
146	0x3e1afc5a	0.15135327
147	0x3e542af4	0.2071951
148	0xbdabe0a6	-0.08392458
149	0x3cd28743	0.025699263
150	0xbb0f93e5	-0.002190822
151	0x3d06f8b6	0.032952033
152	0xbd8d8660	-0.069103956
153	0xbd5df13c	-0.054185137
154	0x3da6aaa0	0.08138013
155	0xbddce428	-0.10785705
156	0x3cf06731	0.02934608
157	0xbcacf7f2	-0.021114323
158	0xbc2eac3a	-0.010661179
159	0xbe777d3b	-0.24168865
160	0xbeb13d9c	-0.34617317
161	0x3dd18279	0.10229964
162	0x3db1274b	0.08650073
163	0xbe46fdeb	-0.194328
164	0xbdab4c77	-0.08364194
165	0xbda4386d	-0.08018575
166	0x3be4e094	0.0069847796
167	0x3da6d271	0.08145607
168	0xbe50160e	-0.20320913
169	0x3daa8a86	0.083272025
170	0x3d3aa201	0.045564655
171	0xbd0f7cda	-0.035031177
172	0xbe47e8fe	-0.19522473
173	0x3e361576	0.17781624
174	0x3dc45e94	0.09588352
175	0xbddb1255	-0.10696856
176	0xbe1b5825	-0.15170343
177	0x3e80c71a	0.25151902
178	0xbe98bc32	-0.29831082
179	0xbdc9d001	-0.09854127
180	0x3cd917f8	0.026500687
181	0xbd8b85d4	-0.06812635
182	0x3d0e50c3	0.03474499
183	0x3d955f28	0.0729354
184	0xbdead4d9	-0.11466379
185	0x3e04accf	0.12956546
186	0x3def8b73	0.1169652
187	0xbdb82b94	-0.08992687
188	0xbc939482	-0.01801515
189	0x3cbe0752	0.02319685
190	0xbddd836f	-0.108160846
191	0xbe0ed1f5	-0.1394728
192	0x3dce3682	0.1006899
193	0xbe99ca97	-0.30037376
194	0xbb06acda	-0.0020549805
195	0xbce626b5	-0.028094629
196	0xbd4e8036	-0.05041524
197	0xbdaed409	-0.08536536
198	0x3d1a9f70	0.037749708
199	0xbd96086c	-0.07325825
200	0xbc9ad4bd	-0.01890027
201	0x3db7ed87	0.089808516
202	0xbe253b52	-0.1613591
203	0x3deab461	0.11460186
204	0xbe6dada4	-0.2321077
205	0x3e63de97	0.2225288
206	0x3d954265	0.072880544
207	0x3c9334d1	0.01796952
208	0xbda89687	-0.08231836
209	0xbd8d225f	-0.068913214
210	0x3cbb7d27	0.022886826
211	0x3d8ccbfa	0.06874843
212	0x3d41cab4	0.047312453
213	0xbc0ee880	-0.0087224245
214	0x3d9e1c7e	0.07720278
215	0x3e728fe5	0.23687704
216	0xbdfd5212	-0.12369169
217	0xbe8c2c30	-0.27377462
218	0xbe07349a	-0.1320366
219	0xbd0d95f2	-0.034566827
220	0x3d0e1e44	0.034696832
221	0xbcd8bfc8	-0.026458636
222	0x3c7b5209	0.015339383
223	0xbbb6832c	-0.005569836
224	0x3de95fad	0.11395202
225	0x3d122316	0.03567799
226	0xbd8f04c7	-0.06983333
227	0x3dad222e	0.08453785
228	0x3dde1956	0.10844676
229	0xbd168ac7	-0.036753442
230	0x3e42a682	0.1900883
231	0xbd15d694	-0.03658159
232	0x3d06f74d	0.03295069
233	0xbdac4b9c	-0.08412859
234	0xbd8be8c9	-0.068315096
235	0xbdfdd91c	-0.12394926
236	0xbe08916c	-0.13336724
237	0xbe50b446	-0.20381269
238	0xbe1a73d7	-0.15083252
239	0x3e2c5dd9	0.16832675
240	0x3d0c14e2	0.034199603
241	0x3de9d578	0.11417669
242	0x3b8063b1	0.003918134
243	0xbe0615a1	-0.13094188
244	0xbd415681	-0.047201637
245	0xbdad869d	-0.08472941
246	0xbe29ab46	-0.16569242
247	0xbd2a04cc	-0.04150848
248	0xbd0c2c0c	-0.034221694
249	0xbe150866	-0.14553985
250	0x3dc1881d	0.0944979
251	0xbd250596	-0.04028853
252	0x3d612f53	0.054976773
253	0x3dd41eb5	0.103574194
254	0x3e29955c	0.16560882
255	0x3e06bfea	0.13159147
