models/trained/dncnn1d_partialconv_10kdata_100epoch_08_09_20.pth (torch_old, 922719 bytes, 92 tensors)

first_layer.weight f4 [64, 1, 3]
0	0xbc50eadf	-0.01275131
1	0x3c8e9789	0.017406242
2	0xbc55a9f9	-0.013041013
3	0xbe6a3c3a	-0.22874537
4	0xbb7259fb	-0.0036979902
5	0xbb2c130c	-0.002625647
6	0x3d6dce3d	0.058058012
7	0x3dedb969	0.1160763
8	0xbdce8d53	-0.10085549
9	0x3d64c41a	0.05585108
10	0xbd13fd08	-0.03612998
11	0x3d3a1ecb	0.045439523
12	0x3db64b7c	0.08901116
13	0xbd9d6b07	-0.076864295
14	0xbba0efd2	-0.0049114013
15	0xbdaef7d7	-0.085433654
16	0xbb400487	-0.0029299574
17	0x3dbb685a	0.09150763
18	0x3b0c4909	0.0021405837
19	0x3e0200b6	0.12695584
20	0xbde59d79	-0.11211676
21	0xbe2f523f	-0.17121218
22	0x3e41f274	0.18940145
23	0x3d27e182	0.040986545
24	0x3d341a41	0.04397035
25	0x3e79d9d0	0.24399495
26	0x3e41a4b1	0.18910481
27	0xbe26768e	-0.16256163
28	0xbe883543	-0.26603135
29	0xbda52404	-0.0806351
30	0xbce6471d	-0.028110081
31	0xbd80983e	-0.06279038
32	0xbe907b7f	-0.2821922
33	0xbe2a47ee	-0.16629001
34	0x3e602e76	0.21892723
35	0xbd9fb5dc	-0.07798359
36	0x3e0378c5	0.12839039
37	0x3e15eba9	0.14640678
38	0x3d9665f2	0.07343663
39	0xba533106	-0.00080563163
40	0xbe72bd22	-0.23704961
41	0x3e47c340	0.19508076
42	0x3bfdf9e1	0.007750735
43	0x3e4a6e68	0.19768679
44	0xbe2d7301	-0.16938402
45	0xbcadc15d	-0.021210367
46	0xbe2b478d	-0.16726513
47	0xbe07e5b0	-0.13271213
48	0x3eaa89c0	0.3330822
49	0xbe0cb27c	-0.13739961
50	0xbe158587	-0.14601718
51	0xbe4781ec	-0.19483155
52	0xbe590137	-0.2119187
53	0x3db1a040	0.086731434
54	0x3da66872	0.0812539
55	0xbe2d2ede	-0.1691241
56	0x3e037b82	0.12840083
57	0xbedeec7e	-0.43539804
58	0xbec27a48	-0.37983918
59	0x3df6c02b	0.12048372
60	0xbf6a3e09	-0.9150091
61	0x3d31d4ce	0.043415837
62	0xbf0c017a	-0.54689753
63	0xbe38b357	-0.18037163
64	0x3e4adfd1	0.19811942
65	0x3dcaa6e4	0.09895113
66	0x3ab40090	0.0013733078
67	0xbe83b5d3	-0.25724658
68	0x3e575c61	0.21031334
69	0x391e69da	0.00015107487
70	0x3e1f2930	0.15543056
71	0xbe0af21a	-0.13568917
72	0xbe3401fe	-0.17578885
73	0x3e47210c	0.194462
74	0x3aa42b77	0.001252516
75	0x3d5907e9	0.05298606
76	0xbe605372	-0.21906832
77	0x3e791d48	0.24327576
78	0xbe8acfbd	-0.27111617
79	0x3e998ff9	0.29992655
80	0x3c3bb500	0.011456728
81	0xbdfcac81	-0.1233759
82	0xbb20a03f	-0.0024509577
83	0xbe6d26f1	-0.23159386
84	0xbdc38696	-0.095471546
85	0x3decad8a	0.115565374
86	0x3c7d0cf3	0.015444982
87	0xbbd7b562	-0.006582902
88	0xbda5a064	-0.08087233
89	0xbc3f26ef	-0.011666997
90	0x3e50d9f5	0.20395644
91	0xbe3ff23b	-0.18744747
92	0x3cac8a59	0.021062063
93	0x3e2b63ee	0.16737339
94	0x3e551993	0.20810537
95	0x3dfc7b71	0.12328232
96	0xbabaff81	-0.001426682
97	0xbb708dd6	-0.0036705635
98	0xbbc0464f	-0.0058677564
99	0xbdf378f7	-0.118883066
100	0x3e0d2d6b	0.13786857
101	0xbbd89e92	-0.0066107
102	0x3dcc930f	0.09988987
103	0x3d8d2d96	0.068934605
104	0x3e880f59	0.2657421
105	0x3e3785a0	0.17922068
106	0xbc1ef52c	-0.009702008
107	0xbe22f8da	-0.15915242
108	0x3dc6c2f9	0.09705157
109	0x3e61d455	0.22053654
110	0xbe43dcae	-0.19127151
111	0xbd8ce2ce	-0.06879197
112	0x3db06495	0.086129345
113	0x3b813aad	0.0039437623
114	0xbbaf4438	-0.0053487085
115	0xbe0e0bfc	-0.13871759
116	0xbe024163	-0.12720256
117	0x3d465ca4	0.048428193
118	0x3e15f9cc	0.14646071
119	0x3d197e45	0.037473936
120	0x3e49b685	0.19698532
121	0xbc82251c	-0.015886836
122	0xbe40708c	-0.18792933
123	0xbe1eb822	-0.15499929
124	0x3e30896d	0.17239924
125	0xbe256b8d	-0.16154309
126	0xbe5aeb57	-0.21378838
127	0xbf0fb62b	-0.5613734
128	0x3d85013b	0.06494375
129	0x3e4b4a77	0.19852625
130	0xbe3be241	-0.18348028
131	0x3d1bca3e	0.03803467
132	0xbe732605	-0.23744972
133	0xbe3697e4	-0.17831379
134	0xbc0e5c05	-0.008688931
135	0x3e312c2a	0.17302004
136	0xbce2f9b3	-0.027706956
137	0x3e0fae4e	0.14031336
138	0x3e529c8c	0.2056753
139	0xbda243d4	-0.079230934
140	0xbdeb2ff3	-0.11483755
141	0xbf27e625	-0.6558555
142	0x3e67f258	0.2265104
143	0xbd8535ea	-0.06504424
144	0x3cbce1f6	0.023056965
145	0xbd581c81	-0.05276156
146	0x3de56318	0.11200541
147	0xbe031805	-0.12802131
148	0x3e115f7c	0.1419658
149	0xbe0844a6	-0.13307437
150	0xbd57ade8	-0.052656084
151	0xbda71cfc	-0.08159825
152	0x3e11979b	0.14217989
153	0xbd1f9649	-0.038961682
154	0xbba083a3	-0.004898505
155	0xbca4cca4	-0.020117112
156	0x3de3aaa2	0.1111653
157	0xbfa1377c	-1.2595057
158	0xbf0b7a29	-0.54483277
159	0xbe754f74	-0.2395609
160	0xbbbf33e0	-0.0058350414
161	0x3e82addb	0.25523266
162	0xbe194472	-0.14967516
163	0xbd5f1613	-0.05446441
164	0xbdbe4c48	-0.09291893
165	0x3b824e08	0.003976587
166	0x3e32c1f7	0.17456804
167	0xbe18f8ac	-0.14938611
168	0xbdcfb9dc	-0.10142872
169	0xbd94c80f	-0.07264721
170	0xbd259dfb	-0.040433865
171	0xbdd73ad4	-0.105092674
172	0x3e2d826c	0.16944283
173	0xbeb4b322	-0.35292917
174	0xbd4768d1	-0.048683945
175	0xbde4a647	-0.111645274
176	0x3e2fd32f	0.17170404
177	0xbe80580d	-0.25067177
178	0x3def1bb5	0.116752066
179	0x3e11fa7c	0.14255708
180	0xbf138c20	-0.5763569
181	0xbf9b31b1	-1.212454
182	0x3da6ecba	0.08150621
183	0xbc427d77	-0.011870733
184	0xb9817851	-0.0002469444
185	0xbd6c07fb	-0.0576248
186	0xbea33bbc	-0.3188151
187	0x3e04a187	0.12952243
188	0x3cacee47	0.021109713
189	0x3d1266c0	0.03574252
190	0x3e1bd853	0.1521924
191	0xbf0404e7	-0.5156998

hidden_layer_list.0.weight f4 [64, 64, 3]
0	0x3cdad87c	0.026714556
1	0x3d123956	0.03569921
2	0xbe06fc4f	-0.13182186
3	0x3bb9ae6c	0.0056665447
4	0xbd3c0d1d	-0.045910943
5	0xbd646cc0	-0.055767775
6	0xbd4aa804	-0.04947664
7	0x3e1c470c	0.15261477
8	0x3e3c33e3	0.18379168
9	0xbd38b7d2	-0.04509718
10	0x3e8489b2	0.25886303
11	0xbd5438e9	-0.051812086
12	0xbe1137e8	-0.14181483
13	0x3ccda84c	0.025104664
14	0x3deccd47	0.11562591
15	0xbd2fc9c5	-0.04291703
16	0x3dc740fe	0.09729193
17	0xbe5416dc	-0.20711845
18	0xbc447206	-0.011990076
19	0x3cd06d26	0.025442671
20	0x3e3cf25c	0.18451828
21	0x3c2967d0	0.010339692
22	0x3d515416	0.05110558
23	0xbc42ed11	-0.011897341
24	0x3d57fa2f	0.052728828
25	0x3d3d64c2	0.04623867
26	0x3d4dfab5	0.05028792
27	0xbd0db407	-0.034595516
28	0xbe17b6a9	-0.14815773
29	0xbdebc709	-0.11512572
30	0x3d2b242e	0.04178255
31	0xbc0700e9	-0.008239963
32	0xbd415d19	-0.047207925
33	0x3d0fd9b4	0.035119727
34	0xbdefcf59	-0.1170947
35	0x3c4f50db	0.012653555
36	0x3c522733	0.012826729
37	0x3da346d7	0.07972496
38	0x3d370597	0.044683065
39	0xbdd20652	-0.10255112
40	0x3e2244a7	0.15846501
41	0x3c64eebc	0.013972934
42	0xbdf1de7c	-0.11810014
43	0x3d8974b4	0.067117125
44	0x3df4e22a	0.119572
45	0xbca82a6d	-0.020528043
46	0x3d0a497a	0.03376148
47	0xbcf133af	-0.02944359
48	0x3d05c492	0.032658167
49	0x3de955ab	0.11393293
50	0x3d2dd2d7	0.0424374
51	0xbd8d6ca0	-0.06905484
52	0x3d95d4f3	0.073160075
53	0xbbdc815f	-0.0067292894
54	0x3d2509d8	0.04029259
55	0x3d947f7d	0.07250879
56	0xbdd70b2d	-0.105001785
57	0xbe078c5e	-0.1323714
58	0xbc9f82e1	-0.019471588
59	0x3dacb58f	0.08433067
60	0xbdd19f09	-0.10235412
61	0x3cdad048	0.026710644
62	0x3a655ff0	0.00087499525
63	0x3e038b16	0.12846026
64	0x3e02a298	0.12757337
65	0xbdbb4c6f	-0.09145438
66	0xbe167915	-0.14694627
67	0x3d9c6c01	0.076377876
68	0xbe32377e	-0.17403981
69	0xbc177f08	-0.009246595
70	0x3d379f61	0.04482973
71	0x3d40d790	0.047080576
72	0x3e5ad7cc	0.21371382
73	0x3c57f9fe	0.013182161
74	0x3e051b7a	0.12998763
75	0xbe09acba	-0.13444796
76	0x3e21bdfb	0.15795128
77	0xbdd5ed7a	-0.10445686
78	0x3e4f3c89	0.20237936
79	0x3db00c3b	0.08596083
80	0x3c9258d4	0.017864622
81	0xbdc7c514	-0.097543865
82	0x3cf82bda	0.030294348
83	0xbdc0c2ee	-0.0941218
84	0xbc836a76	-0.016041975
85	0x3d030226	0.03198447
86	0x3b5c2be3	0.0033595494
87	0x3d26b2e0	0.040697932
88	0x3d701204	0.05861093
89	0xbddacca5	-0.10683564
90	0xbd33848e	-0.043827586
91	0x3e58b193	0.21161489
92	0x3bc854d5	0.0061136284
93	0x3d6d525b	0.05793987
94	0x3e3f99ba	0.18710986
95	0xbd843d52	-0.064570084
96	0x3db79fce	0.08966027
97	0xbdbe0a10	-0.09279263
98	0xbde95764	-0.113936216
99	0x3d4f560d	0.050619174
100	0xbd1aa728	-0.03775707
101	0x3daa8d49	0.08327729
102	0x3e12593c	0.14291853
103	0x3e7f5a01	0.24936678
104	0xbc87f0f1	-0.016594382
105	0xbd475dbb	-0.048673373
106	0x3e365595	0.17806084
107	0x3d627d31	0.055295173
108	0x3dbe2609	0.092845984
109	0x3df0913b	0.117464505
110	0x3de7fa1f	0.11327004
111	0x3bf412a7	0.0074485126
112	0x3df3942a	0.118934944
113	0xbc4a698c	-0.012354266
114	0xbd2f4dba	-0.042798735
115	0x3d8976c9	0.067121096
116	0xbdeba601	-0.11506272
117	0x3d7a00b3	0.061035823
118	0x3dc3a450	0.095528245
119	0x3e20e692	0.15712956
120	0xbdb40e37	-0.08791774
121	0xbd18e092	-0.037323542
122	0xbacb9584	-0.001553223
123	0x3cfbe5ad	0.030749166
124	0x3a87300f	0.0010314005
125	0xba9eb9ec	-0.0012109852
126	0x3d9efe4b	0.07763346
127	0xbcf62a0d	-0.030049348
128	0x3d8cedb2	0.06881274
129	0xbc86bef4	-0.016448475
130	0x3c92f4f0	0.01793906
131	0x3c883eed	0.016631568
132	0xbd5d8e61	-0.05409086
133	0x3d1d8764	0.038459197
134	0x3d3f31c1	0.04667831
135	0x3b88472a	0.004158874
136	0x3f028c81	0.5099564
137	0xbd85d759	-0.06535215
138	0x3c7c1fe7	0.0153884655
139	0x3e01b48f	0.12666534
140	0xbdd824db	-0.105539046
141	0xbe34787c	-0.17624086
142	0xbdea7853	-0.11448731
143	0xbd344bd4	-0.044017628
144	0x3db6db65	0.08928565
145	0x3e3cf34b	0.18452184
146	0xbdade903	-0.08491709
147	0x3dad296c	0.08455166
148	0x3db6a8cc	0.08918914
149	0xbe007ffc	-0.12548822
150	0x3d62d89a	0.05538235
151	0x3e0e8df4	0.13921338
152	0x3cf0d030	0.029396147
153	0x3d3a3b25	0.04546656
154	0x3d08bcf2	0.033383317
155	0xbc9e379a	-0.019313622
156	0x3e67e3c7	0.22645484
157	0x3c10d36f	0.008839472
158	0xbc82cef6	-0.015967827
159	0xbdace80b	-0.08442696
160	0x3e0f86b4	0.14016229
161	0xbc946020	-0.018112242
162	0xbe31cbf5	-0.1736296
163	0x3d39e1ad	0.045381237
164	0x3ce170cd	0.027519608
165	0x3cecbb41	0.028897883
166	0x3ce9bde5	0.028532932
167	0x3e01cbf5	0.1267546
168	0x3dad2d21	0.08455873
169	0xbdd8bd7d	-0.10583017
170	0xbc846cba	-0.016165126
171	0xbd900f6a	-0.0703419
172	0xbced7ecc	-0.028991126
173	0xbdfbeb28	-0.12300712
174	0xbe05b988	-0.13059056
175	0x3de0d0bc	0.10977313
176	0xbd4c7de0	-0.04992473
177	0xbdcbeeb8	-0.09957641
178	0x3d590499	0.0529829
179	0xbdd472c2	-0.10373451
180	0xbdb081eb	-0.0861853
181	0x3cd023d2	0.025407705
182	0x3bcef79e	0.0063161394
183	0x3d8124e4	0.063058645
184	0x3ddce471	0.10785759
185	0xbc794123	-0.015213284
186	0xbda03d44	-0.078241855
187	0xbdc5cc7b	-0.09658142
188	0xbc51215b	-0.0127643
189	0x3dbb7653	0.09153428
190	0x3e0cb4cb	0.13740842
191	0xbb47cd9e	-0.0030487548
192	0x3c5eca4b	0.013598035
193	0xbd3cd7fe	-0.046104424
194	0xbd91a0d7	-0.07110756
195	0x3d9a0e56	0.075222656
196	0xbe030f1f	-0.12798737
197	0x3d4f8e23	0.05067266
198	0xbdcdaa23	-0.10042217
199	0x3c8a66c3	0.016894704
200	0x3c080e31	0.008304165
201	0xbd707760	-0.058707595
202	0xbde79293	-0.11307254
203	0xbc873ebb	-0.016509404
204	0x3d44fe1b	0.048093896
205	0xbe942568	-0.2893479
206	0x3e3de112	0.18542889
207	0x3d4eecff	0.050518986
208	0xbe0f189a	-0.13974229
209	0xbaae17b7	-0.0013282214
210	0xbe5bd4a9	-0.21467842
211	0x3e2b6aa8	0.16739905
212	0xbc3b9337	-0.011448673
213	0x3d442fb1	0.047897045
214	0x3d1e62b0	0.038668334
215	0xbe4c3167	-0.1994072
216	0x3e24764b	0.1606075
217	0x3d2df4fb	0.04246996
218	0xbdbad093	-0.091218136
219	0xbc12cf48	-0.0089605525
220	0xbd65fa92	-0.056147166
221	0x3bf18f14	0.0073717926
222	0x3c802af1	0.015645476
223	0xbd1862b8	-0.03720352
224	0x3d85bd4b	0.065302454
225	0xbe812597	-0.2522399
226	0x3df923da	0.12165041
227	0xbeaa68f3	-0.33283195
228	0x3da714a6	0.08158235
229	0x3e04378d	0.12911816
230	0xbd180574	-0.037114576
231	0xbd9b068f	-0.0756961
232	0xbc910eaf	-0.017707197
233	0x3df4356b	0.11924251
234	0xbe8949d3	-0.26814136
235	0x3e432913	0.19058637
236	0xbd1efbc4	-0.03881432
237	0xbce18302	-0.02752829
238	0x3d74f8f2	0.059807725
239	0xbc4d5e95	-0.012534757
240	0xbddcdd1f	-0.10784363
241	0xbd36cf89	-0.044631515
242	0xbdba8976	-0.0910825
243	0xbd7f2f51	-0.062300984
244	0x3c33f282	0.010983111
245	0x3e0fe66a	0.1405274
246	0xbcd80f94	-0.026374616
247	0xbe044b35	-0.12919314
248	0xbd9ad876	-0.07560818
249	0xbd7aaea9	-0.061201725
250	0x3eac51fb	0.33656296
251	0x3e2d73d0	0.1693871
252	0x3df166c6	0.117871806
253	0xbe8a6aa3	-0.27034482
254	0x3db9520f	0.090488546
255	0x3d8f08b9	0.069840856

hidden_layer_list.1.weight f4 [64, 64, 3]
0	0xbd6b6059	-0.05746493
1	0x3c15a39a	0.009133244
2	0x3db138b8	0.08653396
3	0xbe1fe51a	-0.15614739
4	0xbdc0f509	-0.09421737
5	0x3e196440	0.14979649
6	0xbd001fc0	-0.03128028
7	0x3d81dead	0.063413
8	0xbd8a73f3	-0.06760397
9	0xbdd70b58	-0.105002105
10	0xbdad57a0	-0.08463979
11	0x3caef7b0	0.021358341
12	0xbd473f13	-0.048644137
13	0xbc967ece	-0.018371012
14	0xbdeed7bf	-0.11662244
15	0x3dff56da	0.124677375
16	0x3de31202	0.11087419
17	0xbd482638	-0.048864573
18	0xbc83801e	-0.016052302
19	0xbe3bda38	-0.18344963
20	0x3db194c1	0.08670951
21	0xbd4b3534	-0.049611285
22	0x3e8e35e7	0.277755
23	0x3cc57ca6	0.024107289
24	0x3bee382e	0.0072698807
25	0xbd54d187	-0.051957633
26	0x3db56b38	0.08858341
27	0xbdaf7bb8	-0.08568519
28	0xbcd399b1	-0.025830122
29	0x3dfa2291	0.12213624
30	0xbdb4f46e	-0.08835684
31	0x3d8bdce9	0.06829245
32	0xbc0c85a9	-0.008576789
33	0xbb47989f	-0.003045596
34	0x3d8dff0a	0.069334105
35	0x3cbe521f	0.023232518
36	0xbb04bec3	-0.0020255304
37	0x3df867ac	0.12129149
38	0xbcf2d6b4	-0.029643394
39	0xbdcdf442	-0.10056354
40	0xbe140d00	-0.14458084
41	0x3cb8c781	0.022556068
42	0xbba4d61e	-0.0050304076
43	0xbde5c667	-0.11219483
44	0x3deb1861	0.11479259
45	0xbe30e19b	-0.17273562
46	0xbde553b6	-0.11197607
47	0x3dd75cf4	0.10515776
48	0x3ca69f20	0.020339549
49	0xbca0e424	-0.019640036
50	0xbe488cf2	-0.19585016
51	0xbd3a577e	-0.045493595
52	0xbda1f1cb	-0.079074465
53	0xbd87636e	-0.066107616
54	0xbdf0ec30	-0.11763799
55	0xbdca65b0	-0.098826766
56	0xbdc1a4f8	-0.094552934
57	0x3dec69a8	0.1154359
58	0x3e4ababc	0.19797796
59	0xbdfb1259	-0.12259359
60	0xbc7d18c8	-0.015447803
61	0x3deda8e1	0.11604477
62	0x3d068f68	0.032851607
63	0xbdf0e3ad	-0.11762176
64	0xbd0c22d8	-0.034212917
65	0x3de96c26	0.11397581
66	0xbe2a095b	-0.16605131
67	0xbe3179a0	-0.17331553
68	0x3df28aba	0.11842866
69	0xbe4ed07a	-0.20196715
70	0xbe05e677	-0.13076197
71	0xbd7c421c	-0.061586484
72	0x3daeacb4	0.08529034
73	0x3dddffc8	0.10839802
74	0x3c1cfa50	0.0095811635
75	0xbe09fbde	-0.13474986
76	0xbcc45239	-0.023964988
77	0x3b26b974	0.0025440129
78	0xbdd5c6db	-0.10438319
79	0x3c39d273	0.011341679
80	0x3d804ad9	0.06264276
81	0xbe32799a	-0.174292
82	0xbe755c96	-0.239611
83	0xbcfd9204	-0.030953415
84	0xbca66877	-0.020313485
85	0x3db7ec49	0.08980615
86	0x3dc326a2	0.09528853
87	0xbc1cfc8e	-0.009581698
88	0x3ad79695	0.0016448075
89	0xbd48168a	-0.04884962
90	0xbe518e7d	-0.20464511
91	0xbe265f6d	-0.1624734
92	0xbde2d1d1	-0.110751756
93	0xbc268f6c	-0.01016603
94	0x3c8c8d34	0.017157175
95	0xbd03cccd	-0.032177735
96	0x3d33a8ff	0.04386234
97	0xbd229202	-0.039690025
98	0xbdb6f81f	-0.08934044
99	0xbd319f67	-0.04336491
100	0x3d039541	0.03212476
101	0xbba1080f	-0.0049142907
102	0x3d5c7112	0.05381877
103	0x3d19f578	0.037587613
104	0x3d1c1274	0.038103536
105	0x3e08602e	0.1331794
106	0x3cb282d4	0.0217909
107	0xbdcad804	-0.09904483
108	0x3defbe59	0.11706228
109	0x3e5c01e4	0.21485096
110	0x3e00db31	0.12583615
111	0x3d35274d	0.044226933
112	0x3e068cce	0.1313965
113	0xbd624c4e	-0.05524855
114	0xbd9d6ddb	-0.07686969
115	0xbd95d56d	-0.07316098
116	0x3d78f1cf	0.06077748
117	0xbe248a19	-0.16068305
118	0xbe250065	-0.16113432
119	0x3cdc9b58	0.026929542
120	0xbd730fc4	-0.059341207
121	0xbd40c790	-0.047065318
122	0x3dcccd85	0.10000137
123	0xbe130540	-0.14357471
124	0x3dbd2d19	0.09237117
125	0xbd21f719	-0.03954229
126	0xbb933494	-0.004492352
127	0x3dcc389d	0.099717356
128	0x3da8436f	0.08215987
129	0xbd2d4e8d	-0.04231124
130	0xbe2ff95c	-0.17184967
131	0xbe12f54b	-0.14351384
132	0xbd5947be	-0.053046934
133	0xbda6a262	-0.08136441
134	0x3a7579bd	0.0009364149
135	0xbe4db459	-0.20088328
136	0xbe3ffd49	-0.18748964
137	0xbdbd95d8	-0.09257096
138	0xbca2739a	-0.019830514
139	0xbe63c236	-0.22242054
140	0x3cd589cd	0.026066685
141	0x3dbbdb25	0.09172658
142	0xbe33828c	-0.17530268
143	0xbd7db362	-0.06193865
144	0xbcac983f	-0.02106869
145	0x3d0c0b30	0.034190357
146	0x3cf8d8d5	0.030376831
147	0xbd8c5674	-0.06852427
148	0x3b07f59a	0.0020745755
149	0x3e337e33	0.1752861
150	0xbc7e8937	-0.015535644
151	0x3e3910db	0.18072836
152	0xbdd10c22	-0.10207392
153	0x3d04fc7c	0.03246735
154	0xbd265520	-0.040608525
155	0x3cf73edd	0.030181343
156	0x3d256542	0.04037977
157	0xbe5c8e8f	-0.21538757
158	0xbe1470c3	-0.1449614
159	0xbd5635ee	-0.052297525
160	0x3e96bae0	0.2943945
161	0x3cca41f7	0.024689658
162	0x3bc74f3a	0.0060824426
163	0xbd846739	-0.06465001
164	0x3c781d2f	0.015143677
165	0x3d0d6787	0.03452256
166	0x3e549964	0.20761639
167	0xbd3ec27d	-0.046572197
168	0x3b9d9e28	0.0048101135
169	0x3b8c9d67	0.0042912248
170	0xbdd778c3	-0.1052108
171	0xbd51cb10	-0.051219046
172	0xbcd5cfce	-0.026100066
173	0xbe2e05b7	-0.16994368
174	0xbe0018af	-0.12509416
175	0xbdf81dfa	-0.121150926
176	0x3e145a89	0.14487661
177	0x3d047d00	0.03234577
178	0x3da01195	0.078158535
179	0xbca9909f	-0.020698844
180	0x3dc1ebf8	0.094688356
181	0x3e02162b	0.12703769
182	0x3d6892b0	0.056780517
183	0x3d6261c9	0.055269036
184	0x3c2956e1	0.010335655
185	0x3e346e10	0.1762011
186	0x3d72efdf	0.05931079
187	0x3dd1dc57	0.102471046
188	0x3ceeddf5	0.029158572
189	0xbe06e301	-0.13172533
190	0xbe7416df	-0.2383685
191	0xbe556975	-0.2084101
192	0xbd058581	-0.032598022
193	0xbe0e0cad	-0.13872023
194	0x3e13747a	0.14399901
195	0xbe634aae	-0.22196457
196	0x3d95c7b8	0.07313484
197	0x3ce5ce27	0.028052403
198	0x3e224502	0.15846637
199	0x3d32a254	0.04361184
200	0x3d2144d8	0.039372295
201	0x3aba50e0	0.0014214776
202	0x3d9d314f	0.076754205
203	0x3e83e14c	0.25757825
204	0xbcfeb1c9	-0.031090634
205	0x3d509b55	0.050929386
206	0xbd710c2c	-0.0588495
207	0xbe2af223	-0.1669393
208	0x3d8a5e44	0.06756261
209	0xbdb4d408	-0.08829504
210	0x3cc45952	0.023968372
211	0x3dbf17f0	0.093307376
212	0x3cc027e6	0.023456525
213	0x3d855dab	0.06512006
214	0x3e09b980	0.13449669
215	0x3d19a3fb	0.0375099
216	0xbbe95ba4	-0.00712152
217	0xbc7521f6	-0.01496171
218	0x3e18fe54	0.14940768
219	0xbea526a2	-0.32256037
220	0xbea05a74	-0.3131901
221	0x3e214d97	0.15752254
222	0xbd3b5b26	-0.045741223
223	0x3db81fd3	0.08990445
224	0xbc57b76a	-0.013166288
225	0xbd9bc1e4	-0.07605341
226	0xbcb34188	-0.021881834
227	0x3c0db81c	0.008649852
228	0xbdfdc7b5	-0.12391607
229	0x3e4bae21	0.19890644
230	0xbd76c467	-0.060245898
231	0xbdef92f6	-0.116979524
232	0xbdf46cb6	-0.119347975
233	0x3cf58a0d	0.029973054
234	0xbe262a91	-0.16227175
235	0x3b84c097	0.004051279
236	0x3dee7ee3	0.116452955
237	0x3c02a7f1	0.007974611
238	0xbcbd25c1	-0.023089292
239	0x3d92f432	0.07175483
240	0xbc114fc8	-0.008869119
241	0xbd84737f	-0.06467342
242	0xbe7adf03	-0.24499135
243	0xbf0ec627	-0.55771106
244	0xbd912a55	-0.07088152
245	0x3d9fa1bf	0.077945225
246	0xbe68d25a	-0.22736493
247	0xbcff8f76	-0.031196337
248	0x3d663daf	0.05621117
249	0xbe0bd7f8	-0.13656604
250	0x3d43cf20	0.04780495
251	0xbe143370	-0.14472747
252	0x3e4b5b4f	0.1985905
253	0x3ea17d2c	0.3154081
254	0xbdb80883	-0.089859985
255	0xbd9dfdfd	-0.0771446

hidden_layer_list.2.weight f4 [64, 64, 3]
0	0x3ddc4dbc	0.10757014
1	0x3cbfc8ec	0.023411237
2	0xbd15fb2a	-0.03661648
3	0x3d2217a1	0.039573316
4	0x3cbabc04	0.022794731
5	0xbea29ed9	-0.31761816
6	0x3e5beb8d	0.21476574
7	0xbe1d089b	-0.15335314
8	0xbda094b3	-0.07840862
9	0xbb30eb70	-0.00269958
10	0xbdc07550	-0.093973756
11	0xbde4ad4d	-0.11165867
12	0xbc507602	-0.012723448
13	0x3d35f21e	0.044420354
14	0x3c2ac5be	0.010423122
15	0xbc31d584	-0.010854129
16	0xbd457dda	-0.048215725
17	0xbe81fb38	-0.25386977
18	0xbc463bc3	-0.012099209
19	0xbc62a5c8	-0.013833471
20	0x3ddad4be	0.106851086
21	0x3cb599df	0.022168098
22	0x3e3f92a9	0.1870829
23	0x3cfcc797	0.03085689
24	0x3c8a1486	0.01685549
25	0x39a929f7	0.00032265458
26	0x3ca16df2	0.019705746
27	0x3d290325	0.041262764
28	0x3b058f7b	0.002037971
29	0xbb857b69	-0.0040735495
30	0x3d13b3a7	0.03606
31	0x3b13cfb6	0.0022554225
32	0x3dedc735	0.11610261
33	0x3c9cd93b	0.019146552
34	0xbaff81b9	-0.0019493616
35	0xbd38edd7	-0.045148697
36	0xbd3c8b62	-0.046031363
37	0x3d0dc5c7	0.034612443
38	0xbdf96ece	-0.121793374
39	0xbe0d32b6	-0.13788876
40	0x3d695dd3	0.056974243
41	0xb9748a8f	-0.0002332127
42	0xbc88691d	-0.016651684
43	0x3e07b9e4	0.13254505
44	0x3d6dc2e1	0.05804718
45	0xbc3a148e	-0.01135744
46	0xbdb67b45	-0.089102305
47	0x3e0e36d2	0.138881
48	0x3daeb194	0.08529964
49	0x3deda2cb	0.11603316
50	0xbd9b3cdd	-0.07579968
51	0xbcab83ca	-0.020936865
52	0x3eb49817	0.35272285
53	0xbe18eb97	-0.1493362
54	0x3c41a4fe	0.011819122
55	0xbdad893e	-0.084734425
56	0x3dd03c20	0.10167718
57	0x3dc59f28	0.09649497
58	0x3cd1cee9	0.025611358
59	0x3c6daf0d	0.014507067
60	0xbaa6750d	-0.0012699679
61	0x3c783119	0.015148425
62	0xbd79fcaf	-0.061031993
63	0x3c42dd81	0.011893631
64	0xbd9e9557	-0.07743328
65	0xbe254797	-0.1614059
66	0x3d69dd21	0.05709565
67	0x3d9f06e8	0.07764989
68	0xbe282dad	-0.16423674
69	0xbd89c67b	-0.0672731
70	0xba0308b7	-0.0004998552
71	0x3d8d0812	0.06886305
72	0x3d13def5	0.0361013
73	0x3da7a2f5	0.081853785
74	0xbd97db05	-0.074148215
75	0xbc60f038	-0.013729148
76	0x3e2f0978	0.17093456
77	0xbbd44b1f	-0.0064786817
78	0x3d530116	0.051514708
79	0xbe1cf598	-0.15328062
80	0x3c7776b6	0.0151039865
81	0xbccf5275	-0.025307873
82	0x3d952d59	0.0728404
83	0xbd8478bb	-0.0646834
84	0x3dca9e17	0.098934345
85	0xbe1f21d0	-0.15540242
86	0xbd2a2ad1	-0.04154474
87	0xbd9a9c40	-0.075493336
88	0x3d1a9ab8	0.037745208
89	0x3d57b0e6	0.052658938
90	0x3e394991	0.1809447
91	0x3d0cb01d	0.034347642
92	0xbdef3404	-0.11679843
93	0x3c9f46fc	0.019443028
94	0x3dd5a9a2	0.104327455
95	0xbdc9b84b	-0.09849604
96	0x3dadb2d1	0.08481372
97	0x3db8efc0	0.09030104
98	0xbbdf04aa	-0.006805976
99	0x3dd5926f	0.104283206
100	0xbcd68960	-0.026188552
101	0xbd542b11	-0.051798884
102	0x3cd21b94	0.025647916
103	0x3e12a6c1	0.14321424
104	0xbda781f3	-0.08179083
105	0x3cc62a9c	0.02419024
106	0xbcf53399	-0.02993183
107	0x3dfd2e14	0.12362304
108	0x3c98967b	0.018626442
109	0x3dbfb102	0.093599334
110	0xbddef31b	-0.108862124
111	0xbc89bd1b	-0.016813805
112	0xbd889ff6	-0.06671135
113	0x3d32b605	0.04363062
114	0x3d80281d	0.06257651
115	0x3c641fb5	0.013923575
116	0xbd76b243	-0.060228597
117	0x3ce383b1	0.027772756
118	0xbdd84a24	-0.10561016
119	0xbd50280e	-0.05081945
120	0xbdecd87f	-0.11564731
121	0x3e1131d6	0.14179167
122	0x3ec5394f	0.38520285
123	0x3c840ecf	0.016120343
124	0xbe771e65	-0.24132688
125	0x3d87b5dd	0.066264845
126	0xbe4f6fbf	-0.20257472
127	0x3e1edebd	0.15514655
128	0x3e00a3a5	0.12562425
129	0xbba71757	-0.005099218
130	0xbd265e19	-0.040617082
131	0x3da30e5f	0.079617254
132	0x3dd2711a	0.10275479
133	0xbe24668c	-0.16054744
134	0x3d66bd32	0.056332774
135	0xbc9c6da0	-0.019095242
136	0xbc935881	-0.017986538
137	0x3d867170	0.06564605
138	0x3e6601e2	0.22461656
139	0x3dd0f830	0.10203588
140	0x3c56c5fb	0.013108726
141	0xbdc97a5a	-0.0983779
142	0x3cd4252f	0.025896637
143	0x3dff4b41	0.124655254
144	0x3d217c1a	0.039424993
145	0x3db17419	0.08664722
146	0xbdb2a9f5	-0.08723823
147	0x3c717186	0.014736539
148	0x3bf85aff	0.007579207
149	0xbcf8e09f	-0.030380545
150	0xbcb9aca5	-0.022665331
151	0xbd0ba3ca	-0.03409175
152	0xbd979931	-0.07402266
153	0x3ca790bd	0.020454759
154	0x3e626f55	0.22112782
155	0xbe02fb38	-0.12791145
156	0xbe2813dd	-0.16413827
157	0xbe0ba528	-0.13637221
158	0x3e2c1f51	0.16808821
159	0x3d1f392d	0.038872886
160	0x3d9965b5	0.07490102
161	0xbc5726bd	-0.0131317945
162	0xbdc7afeb	-0.097503506
163	0x3c90fee3	0.017699664
164	0x3daf7333	0.085668944
165	0x3d720be8	0.059093386
166	0xbe6d39c5	-0.23166569
167	0xbde2af68	-0.11068612
168	0xbd4acb34	-0.049510196
169	0xbd506e1b	-0.050886255
170	0xbd975f8c	-0.07391271
171	0x3de7a4b5	0.11310712
172	0x3d8af6c3	0.06785347
173	0x3cfbdeb7	0.030745847
174	0xbc5838a0	-0.013197094
175	0x3cf7fdbb	0.030272355
176	0xbd7d2470	-0.061802328
177	0xbe05f5ae	-0.13082
178	0xbd7819bb	-0.060571413
179	0xbdd5c962	-0.10438801
180	0x3a6e70fc	0.00090958155
181	0x3de8d9c2	0.11369659
182	0xbdb048ba	-0.086076215
183	0x3d020c73	0.031750154
184	0x3dd76e3e	0.10519074
185	0x3dfa70f9	0.12228579
186	0xbd505d97	-0.050870504
187	0xbe531b64	-0.20615917
188	0xbdf2a1d7	-0.11847275
189	0x3d354387	0.044253852
190	0x3cc51d2b	0.02406176
191	0xbd49b7ab	-0.049247425
192	0x3e882fcd	0.2659897
193	0xbc7787d9	-0.015108072
194	0xbd36c2e8	-0.04461947
195	0x3e53b829	0.2067572
196	0xbe11903d	-0.14215179
197	0xbe323f92	-0.17407063
198	0x3c4590bd	0.012058434
199	0xbc982be9	-0.018575625
200	0x3e0b14bc	0.13582128
201	0xbdf1b1ae	-0.11801468
202	0x3d8ef277	0.0697984
203	0x3d186b14	0.037211493
204	0x3da7ed0d	0.08199511
205	0xbb4a3744	-0.0030855695
206	0x3d6e9361	0.05824602
207	0x3d6e0b7e	0.05811643
208	0xbcbf0a0f	-0.023320226
209	0xbd2ddb62	-0.042445548
210	0xbe339b07	-0.17539607
211	0x3d993ccc	0.07482299
212	0x3d99e4ab	0.07514318
213	0x3ddb07c0	0.106948376
214	0x3c6d1717	0.014470837
215	0x3d4cb38f	0.049975928
216	0xbe20f7e9	-0.1571957
217	0xbd1eb9ab	-0.038751286
218	0x3c8613f2	0.016366933
219	0x3ad79f1a	0.0016450614
220	0xbd8f4512	-0.06995596
221	0xbda118d0	-0.07866061
222	0x3bb75562	0.005594895
223	0xbdd67639	-0.10471768
224	0xbdf33a7b	-0.11876389
225	0x3d237056	0.039902054
226	0x3dfa37b6	0.12217657
227	0xbb3113dd	-0.0027019896
228	0xbb40b8cd	-0.0029407025
229	0x3d476798	0.04868278
230	0x3c56e594	0.013116259
231	0xbd2e9559	-0.042622898
232	0xbdafec48	-0.08589989
233	0xbdf19e25	-0.11797742
234	0xbcc07cac	-0.023496948
235	0x3d01bc80	0.03167391
236	0xbdb17b30	-0.08666074
237	0xbc416b2b	-0.011805336
238	0xbd6f1ce3	-0.058377158
239	0xbdd8cc79	-0.10585875
240	0xbdc24e25	-0.09487561
241	0xbe810d1a	-0.25205308
242	0x3d3ac727	0.045600083
243	0xbb7cc051	-0.0038566778
244	0xbdb6e8f4	-0.08931151
245	0xbd04042c	-0.03223054
246	0xbb9f70b6	-0.004865731
247	0xbddf1bc6	-0.10893969
248	0x3dfd79c5	0.12376741
249	0x3e2109ad	0.15726347
250	0x3e0d99be	0.13828179
251	0xbd7afd8e	-0.061276965
252	0x3e48596d	0.19565363
253	0xbd6938dc	-0.05693899
254	0xbe10f5d3	-0.14156274
255	0x3e146b03	0.14493947

hidden_layer_list.3.weight f4 [64, 64, 3]
0	0x3e55043c	0.20802397
1	0xbd3c6c57	-0.04600176
2	0x3d65ed8c	0.056134745
3	0xbd90f1ba	-0.07077356
4	0x3d982698	0.07429236
5	0x3deb863d	0.11500213
6	0xbd8a7dce	-0.067622766
7	0xbaa90cae	-0.0012897456
8	0x3d5899d7	0.052881088
9	0x3e2503b2	0.16114691
10	0xbb36f866	-0.0027919053
11	0x3da0c73c	0.07850501
12	0x3e20039a	0.15626374
13	0x3c8b3e5a	0.016997505
14	0xbdead8ad	-0.11467109
15	0xbd5d39ef	-0.054010328
16	0xbc8c3e6b	-0.017119607
17	0xbd3c4b12	-0.04597003
18	0xbb2bb8ab	-0.00262026
19	0xbd5250dd	-0.05134665
20	0x3e05c61b	0.13063852
21	0x3cfd968a	0.030955572
22	0xbe4dbd56	-0.20091757
23	0x3cff2691	0.03114632
24	0xbd8c7da2	-0.068599
25	0x3e388541	0.18019582
26	0x3c909b15	0.017652074
27	0xbb8911d5	-0.004183034
28	0xbcc99c0c	-0.024610542
29	0x3c1ab347	0.009442157
30	0x3c03706a	0.008022407
31	0xbcdf4d5f	-0.027258573
32	0x3dab7227	0.08371382
33	0x3e4bd924	0.19907051
34	0xbd93ea97	-0.07222479
35	0x3c6ad4ef	0.014332994
36	0x3d80b12c	0.06283793
37	0x3dadaa40	0.08479738
38	0xbabd299d	-0.0014431957
39	0x3d57cc73	0.052685212
40	0x3cab4d58	0.020910904
41	0x3c7dc905	0.015489821
42	0x3d910d43	0.070826076
43	0xbcd223c6	-0.025651824
44	0x3d64ec19	0.055889223
45	0xbd716157	-0.05893072
46	0x3d4bd039	0.049759123
47	0x3e19e18c	0.15027446
48	0x3c9211f4	0.017830826
49	0x3e08d539	0.13362588
50	0xbc53435d	-0.012894479
51	0xbe0a1d52	-0.13487747
52	0x3c8a3c10	0.016874343
53	0x3d55276f	0.05203956
54	0x3e51c22e	0.2048423
55	0xbaebc872	-0.0017988815
56	0x3d29bb6f	0.041438516
57	0xbd854255	-0.065067925
58	0xbc39ea00	-0.011347294
59	0x3d8a1037	0.06741374
60	0x3d409142	0.04701353
61	0x3d534d02	0.051587112
62	0xbdc269bf	-0.09492826
63	0x3d311330	0.04323119
64	0x3c6d33a2	0.014477642
65	0xbb2e005f	-0.0026550514
66	0xbe2ae5d7	-0.1668924
67	0xbe22a731	-0.15884091
68	0xbcad4cf7	-0.021154864
69	0x3d564b7a	0.052318074
70	0xbd8c3630	-0.06846273
71	0xbdf86939	-0.12129445
72	0xbcdab6d9	-0.026698517
73	0xbe1427d6	-0.14468321
74	0xbd892b5a	-0.06697722
75	0xbe3850a6	-0.17999515
76	0xbdc6d9b2	-0.09709491
77	0xbc8359ed	-0.01603409
78	0xbcbef02b	-0.02330788
79	0xbd9c852f	-0.0764259
80	0xbdcd754f	-0.100321405
81	0xbd4aa67f	-0.04947519
82	0xbdeb3158	-0.11484021
83	0x3e461ff4	0.19348127
84	0xbe10a713	-0.14126234
85	0x3d5099a1	0.050927762
86	0x3dcd4ba4	0.10024193
87	0xbe20a8ca	-0.15689388
88	0x3d601d6c	0.05471556
89	0xbcf28ff5	-0.02960966
90	0x3d51dbe5	0.0512351
91	0x3e300507	0.17189418
92	0x3e1a4077	0.15063654
93	0xbd1e854f	-0.03870135
94	0xbd877a5d	-0.06615136
95	0xbdd3115d	-0.10306046
96	0x3dd3bd12	0.10338797
97	0xbe79715f	-0.24359654
98	0xbd29b718	-0.041434377
99	0x3e02ff2f	0.12792657
100	0xbb43e5d8	-0.0029891636
101	0xbd2e7412	-0.042591162
102	0x3c1bc86c	0.0095082335
103	0x3d8720c3	0.06598046
104	0x3d1d5227	0.038408425
105	0xbdd286bd	-0.102796055
106	0x3dcf6048	0.10125786
107	0x3d8f7265	0.07004241
108	0xbd139dfc	-0.036039338
109	0x3d9fa57a	0.07795234
110	0x3d9fc8b5	0.07801954
111	0xbc8a9b6b	-0.016919812
112	0xbcb7405e	-0.02236956
113	0x3e2211a0	0.15827036
114	0xbd4e1046	-0.05030849
115	0x3da8f413	0.082496785
116	0x3e8f658e	0.28007168
117	0x3d8b7cb2	0.06810893
118	0x3cf363a2	0.029710595
119	0xbcbe3028	-0.023216322
120	0xbd8d7879	-0.06907744
121	0xbbe1165d	-0.006869121
122	0xbb01cd12	-0.001980607
123	0xbde22b37	-0.11043399
124	0x3ddfadd9	0.10921831
125	0xbb91e9b4	-0.0044529084
126	0xbdd2343d	-0.1026387
127	0x3dfaf884	0.12254432
128	0x3d14e99a	0.036355592
129	0xbe1d71a6	-0.15375385
130	0x3e39a97b	0.18131058
131	0x3de22a2b	0.11043199
132	0xbd014163	-0.0315565
133	0x3e36984e	0.17831537
134	0x3e476c0b	0.19474809
135	0xbc1d6296	-0.009606024
136	0xbd8b636b	-0.06806072
137	0xbcfdfc8c	-0.031004213
138	0xbd288bc9	-0.041148935
139	0x3d58182f	0.05275744
140	0x3cf26936	0.029591184
141	0x3daaea61	0.083454855
142	0x3d259b14	0.040431097
143	0x3e926f63	0.28600606
144	0xbd107387	-0.035266425
145	0x3d8e8e35	0.069607176
146	0x3d3cbeb8	0.04608032
147	0xbc199243	-0.00937325
148	0x3c323305	0.010876422
149	0x3d6872f0	0.056750238
150	0xbd80dd20	-0.06292176
151	0x3d166840	0.036720514
152	0x3d84cfc7	0.06484943
153	0x3e0a01d1	0.13477255
154	0xbe10f839	-0.1415719
155	0x3d113118	0.03544721
156	0xbc5cff5d	-0.013488618
157	0x3d846273	0.0646409
158	0x3e161ef2	0.14660242
159	0xbcb47743	-0.022029525
160	0x3ca22913	0.019794976
161	0x3dbdb44d	0.09262905
162	0x3cf291d1	0.029610546
163	0xbd8bf28b	-0.06833371
164	0x3da985ba	0.082774594
165	0x3dfa98df	0.12236189
166	0x3e0b38cf	0.1359589
167	0xbba9e09b	-0.0051842458
168	0x3d50448d	0.050846625
169	0x3d985e23	0.0743983
170	0x3e4ccb65	0.19999464
171	0xbd8c0386	-0.068366095
172	0x3da0538b	0.078284346
173	0x3db2c8e2	0.087297216
174	0xbcd3a2ab	-0.025834402
175	0x3cbcd301	0.023049833
176	0xbdf121c2	-0.11774017
177	0xbc14b27e	-0.009075759
178	0x3c080f23	0.00830439
179	0xbdc92585	-0.098216094
180	0x3d8f8172	0.070071116
181	0x3cb2d1b3	0.021828508
182	0x3cefbe92	0.029265676
183	0x3d4415f3	0.047872495
184	0xbd580ebb	-0.052748423
185	0xbda8f3a7	-0.08249598
186	0xbcfeb883	-0.031093841
187	0x3cd15dc1	0.0255574
188	0xbe23e3cc	-0.16004866
189	0x3c65d645	0.014028137
190	0xbdc06dd7	-0.0939595
191	0xbd398bae	-0.045299225
192	0x3dca7238	0.09885067
193	0x3dccb58f	0.09995567
194	0xbe531b54	-0.20615894
195	0xbd2a33d4	-0.041553333
196	0x3bfe29aa	0.0077564316
197	0xbd57b5fe	-0.052663796
198	0x3d14870b	0.0362616
199	0xbe4fc3fb	-0.20289604
200	0xbdf6c6f1	-0.12049664
201	0xbb8f2285	-0.0043681287
202	0x3d907ab5	0.070546545
203	0x3ca74e31	0.020423027
204	0x3dc2ce96	0.095120594
205	0xbe2d1672	-0.16903093
206	0xbd2188de	-0.039437167
207	0x3b9510b3	0.00454911
208	0xbcc2734a	-0.023736615
209	0x3dd1593e	0.102221
210	0x3e602889	0.21890463
211	0xbdbb043f	-0.09131669
212	0xbe45591b	-0.19272272
213	0x3d895413	0.06705489
214	0xbda56f04	-0.08077815
215	0xbd3159ab	-0.043298405
216	0xbcba7282	-0.02275968
217	0x3df98731	0.12183989
218	0xbd1b8e8f	-0.03797775
219	0xbe20dd71	-0.15709473
220	0x3d907507	0.07053571
221	0xbd772430	-0.060337245
222	0x3deac2ff	0.11462974
223	0x3dc85706	0.097822234
224	0x3e042c54	0.12907535
225	0xbe444125	-0.19165476
226	0x3e12334b	0.14277379
227	0x3d308900	0.043099403
228	0x3e89101c	0.26770103
229	0xbca1991b	-0.019726327
230	0xbd3ac29c	-0.04559575
231	0x3d416dc9	0.04722384
232	0xbe39da07	-0.18149577
233	0xbcd73de8	-0.026274636
234	0x3de23500	0.11045265
235	0x3d6c0a07	0.05762675
236	0x3e26d334	0.16291505
237	0x3d95d280	0.0731554
238	0xbd0fc52d	-0.03510015
239	0xbd34afbc	-0.044112906
240	0x3e12bee8	0.14330637
241	0xbe098215	-0.13428529
242	0xbe638b8f	-0.22221206
243	0xbd64c166	-0.0558485
244	0x3e5da990	0.21646714
245	0x3e558490	0.2085135
246	0xbe2969e3	-0.16544299
247	0x3d896880	0.06709385
248	0xbb3fac8e	-0.0029247138
249	0x3d29385f	0.041313525
250	0xbda7be35	-0.08190576
251	0x3da8e702	0.08247186
252	0x3cdfe33f	0.02733004
253	0xbdac98cc	-0.08427581
254	0xbcfe4f83	-0.031043774
255	0x3df3e34c	0.11908588

hidden_layer_list.4.weight f4 [64, 64, 3]
0	0x3d3fe10e	0.04684549
1	0x3bb0c0fc	0.0053940993
2	0xbd933d17	-0.07189386
3	0x3d857be2	0.065177694
4	0x3e3b8189	0.18311132
5	0x3d94f365	0.07272986
6	0xbe079104	-0.13238913
7	0x3cf5c5c7	0.030001534
8	0x3d492d94	0.049115732
9	0xbe4598b0	-0.19296527
10	0x3db04978	0.08607763
11	0x3d21fb11	0.039546076
12	0xbc16a090	-0.0091935545
13	0x3d5fdd82	0.054654606
14	0xbdd255bb	-0.10270258
15	0x3bb6a951	0.0055743833
16	0x3e7500bb	0.2392606
17	0x3e2c038d	0.1679823
18	0xbbddff9a	-0.006774855
19	0x3cd72d00	0.026266575
20	0x3d7e8cb2	0.062145896
21	0x3dc3ef83	0.095671676
22	0xbe6528c8	-0.22378838
23	0x3c939ff1	0.018020602
24	0x3e76cbf6	0.24101242
25	0x3d413681	0.04717112
26	0xbc1ae9f1	-0.00945519
27	0xbda7e271	-0.08197487
28	0xbe064932	-0.1311386
29	0x3cc75b36	0.024335485
30	0xbda1ea5f	-0.07906031
31	0xbd85d679	-0.06535048
32	0xbcba45fe	-0.022738453
33	0x3e003ebe	0.12523934
34	0x3d1eacaf	0.038738903
35	0xbbca82af	-0.0061801295
36	0x3c2f015a	0.010681475
37	0x3d23be70	0.039976537
38	0x3e66d58a	0.22542396
39	0x3b94b497	0.0045381295
40	0x3e4d93df	0.2007594
41	0x3cfc2ecf	0.030784039
42	0xbdce8431	-0.10083807
43	0xbe9e3801	-0.30902103
44	0xbc00a2dc	-0.007851329
45	0x3bc6c6c2	0.0060661742
46	0x3d4a0576	0.049321614
47	0xbdd9c4ad	-0.10633216
48	0x3cf13924	0.029446192
49	0xbe6bbc64	-0.23021084
50	0x3d14d04f	0.03633147
51	0x3d80d46a	0.06290515
52	0xbb924092	-0.004463264
53	0x3d6ad9f8	0.057336777
54	0xbe16f46a	-0.14741674
55	0x3dacc5d0	0.08436167
56	0x3b2dbda4	0.002651074
57	0x3e4598b2	0.1929653
58	0xbe6be617	-0.23036991
59	0xbd408d09	-0.0470095
60	0xbbe546c1	-0.00699696
61	0x3be60307	0.007019404
62	0x3dbe0caf	0.09279763
63	0xbc99704b	-0.018730303
64	0xbc88630e	-0.016648795
65	0xbd85ce80	-0.065335274
66	0xbda0579d	-0.07829211
67	0xbdec2a66	-0.11531524
68	0xbd326d5b	-0.04356132
69	0x3d0cdb18	0.03438863
70	0xbc4d3a9c	-0.012526181
71	0xbd76e621	-0.06027806
72	0x3d47e888	0.048805743
73	0xbd9bceff	-0.07607841
74	0x3d862810	0.0655061
75	0x3e309243	0.17243294
76	0x3ddbfb7b	0.107413255
77	0xbd82a536	-0.06379168
78	0xbe1c2f3f	-0.15252398
79	0xbd40f4ef	-0.047108587
80	0x3e3655fa	0.17806235
81	0xbdbfdf37	-0.09368747
82	0x3d0e16d3	0.034689736
83	0x3d4c8200	0.049928665
84	0xbd89e399	-0.06732864
85	0xbdab8168	-0.08374292
86	0x3b738d9c	0.0037163263
87	0x3d4fe486	0.050755046
88	0x3d5634b9	0.052296374
89	0xbe2a5d77	-0.16637217
90	0x3cc577eb	0.024105033
91	0x3dba0d94	0.09084621
92	0xbd83959b	-0.06425019
93	0x3daad298	0.08340949
94	0x3d753528	0.059865147
95	0xbdd95801	-0.106124885
96	0xbbb9eec2	-0.005674214
97	0xbd9a8ac7	-0.07546001
98	0xbd8c3d61	-0.068476446
99	0x3d40d329	0.047076378
100	0x3d10e805	0.03537752
101	0x3d0f9bc7	0.03506067
102	0x3e55725f	0.2084441
103	0xbda4e8c3	-0.08052208
104	0xbd1c121d	-0.03810321
105	0xbda3df3e	-0.080015644
106	0xbdbc3890	-0.09190476
107	0x3dc5d8d8	0.096605
108	0x3e7b12fc	0.2451896
109	0x3df0fdbe	0.117671475
110	0xbe4e4607	-0.20143901
111	0xbdff608f	-0.12469589
112	0xbde65435	-0.1124653
113	0xbd1e65fb	-0.038671475
114	0xbe061dd6	-0.13097319
115	0xbca540e0	-0.020172536
116	0x3db895ea	0.09012969
117	0xbdbe91e6	-0.09305172
118	0x3dc669b0	0.09688127
119	0x3db79297	0.08963507
120	0xbda4a740	-0.08039713
121	0xbdca52a7	-0.09879046
122	0x3d40771d	0.046988595
123	0xbcf80501	-0.030275824
124	0xbc2702a7	-0.010193503
125	0x3de9d5b5	0.114177145
126	0x3de24472	0.11048211
127	0xbe375afc	-0.17905802
128	0xbe2722b1	-0.16321827
129	0x3d7d25df	0.061803695
130	0x3c8250bc	0.015907638
131	0x3c352596	0.0110563245
132	0xbd818025	-0.0632327
133	0x3d19734e	0.03746348
134	0x3da9367c	0.08262345
135	0x3d780531	0.060551826
136	0xbd60335f	-0.05473649
137	0xbd7380c9	-0.05944899
138	0x3dbb9542	0.09159328
139	0xbbb5445c	-0.0055318307
140	0xbca4b17d	-0.020104164
141	0x3c9f48c7	0.019443883
142	0x3e097f1a	0.13427392
143	0xbbcd01d9	-0.006256324
144	0xbd6f2021	-0.05838025
145	0xbd58149c	-0.05275403
146	0xbd8b1721	-0.06791521
147	0x3dbd8312	0.09253515
148	0x3c911c16	0.017713588
149	0xbe01c3ac	-0.12672299
150	0x3d90bbc7	0.07067066
151	0xbe2753a6	-0.16340503
152	0xbe161dfc	-0.14659876
153	0x3b80f3be	0.0039353063
154	0x3cee773c	0.02910959
155	0xbcf3c79b	-0.029758265
156	0x3db1a52c	0.08674082
157	0xbd79e9ba	-0.061013915
158	0x3e17a7e4	0.14810139
159	0xbde75f66	-0.11297493
160	0xbe05dbfd	-0.130722
161	0x3c9ed330	0.019387811
162	0x3e0d1dab	0.13780849
163	0xbcfde56f	-0.030993192
164	0x3d8cb07f	0.068696015
165	0x3d7aeb23	0.0612594
166	0x3e61b955	0.22043355
167	0xbd80d0a4	-0.06289795
168	0x3c7e8c41	0.015536369
169	0x3d816112	0.06317343
170	0xbd6c186f	-0.05764049
171	0x3e2460cc	0.1605255
172	0xbd9a767d	-0.07542131
173	0x3c74171a	0.014898086
174	0xbdc9be45	-0.09850744
175	0xbdb53ae6	-0.088491246
176	0xbd7d3b5b	-0.061824184
177	0xbde136c2	-0.10996772
178	0xbe483750	-0.1955235
179	0xbca90f90	-0.020637304
180	0x3d799afe	0.060938828
181	0xbd1a8989	-0.03772882
182	0x3d912807	0.07087713
183	0xbde7ba8d	-0.113148786
184	0xbd31a45e	-0.043369643
185	0x3d249d8a	0.040189303
186	0x3d6ee246	0.05832126
187	0x3ce5e6da	0.02806418
188	0xbdb220c6	-0.08697657
189	0xbd98673b	-0.07441565
190	0xbbccde87	-0.0062521133
191	0x3e2987c8	0.16555703
192	0x3d1cf6eb	0.038321417
193	0x3d6ec54e	0.058293633
194	0xbd80b4b0	-0.062844634
195	0xbddda535	-0.10822526
196	0xbcb45e7e	-0.022017714
197	0xbd5965fe	-0.053075783
198	0xbdd2db4c	-0.10295734
199	0xbdf19d14	-0.117975384
200	0xbe15e06a	-0.14636388
201	0xbe16a916	-0.14712939
202	0x3cb832ad	0.022485102
203	0x3e1eb835	0.15499957
204	0x3cab72f2	0.020928834
205	0x3dfa88af	0.122331016
206	0xbbbf410b	-0.005836611
207	0x3aad1980	0.0013206452
208	0x3d3e8b46	0.04651954
209	0x3d8da687	0.06916528
210	0xbc8996f9	-0.016795622
211	0xbbe5d537	-0.0070139426
212	0x3c330003	0.010925296
213	0xbd1e0ee3	-0.038588416
214	0xbdb17d55	-0.08666483
215	0x3e266526	0.16249523
216	0xbc81b451	-0.015833052
217	0x3db3e80f	0.08784496
218	0xbd1c43e7	-0.038150694
219	0xbdaa8bd0	-0.08327448
220	0xbec073ba	-0.37588292
221	0xbda0b5a5	-0.07847146
222	0xbe370dbd	-0.17876334
223	0x3d71585d	0.05892216
224	0xbd1bd3ac	-0.038043663
225	0xbb993325	-0.0046752864
226	0xbd79cbcb	-0.060985368
227	0x3d4e96e4	0.05043687
228	0xbe44946e	-0.19197246
229	0xbe2bb6c3	-0.16768937
230	0x3d85c085	0.06530861
231	0x3e032596	0.12807307
232	0x3dc6942d	0.09696231
233	0xbdb97a7b	-0.090565644
234	0xbcbdf085	-0.023185978
235	0x3daeab00	0.085287094
236	0x3c5ec086	0.013595706
237	0x3e596ae9	0.21232189
238	0x3c6c427d	0.014420149
239	0xb9e0ff40	-0.00042914785
240	0xbc4a57ce	-0.012350036
241	0xbda0f692	-0.078595296
242	0x3e23520b	0.15949266
243	0x3d8183e3	0.063239835
244	0x3c36dcf2	0.011161076
245	0x3d2e9979	0.04262683
246	0xbd423d75	-0.04742189
247	0xbdd40876	-0.10353176
248	0xbcf18adf	-0.029485164
249	0x3c9afcba	0.018919338
250	0xbcf3b6b1	-0.0297502
251	0x3ced4135	0.028961757
252	0xbbcd5b4c	-0.006266987
253	0x3d1a5ea8	0.037687927
254	0x3e154d74	0.14580327
255	0x3da07287	0.07834344

hidden_layer_list.5.weight f4 [64, 64, 3]
0	0xbcbfb6bc	-0.023402564
1	0xbe76ac46	-0.24089155
2	0x3bdab380	0.00667423
3	0xbe1cdf88	-0.15319645
4	0x3d12484f	0.03571349
5	0x3e160213	0.14649229
6	0xbe951fdc	-0.2912587
7	0x3d68051f	0.05664551
8	0xb9b879ee	-0.0003518606
9	0xbd97a679	-0.07404799
10	0x3dd5d72d	0.10441432
11	0xbe5f061e	-0.21779677
12	0xbd8641d9	-0.06555528
13	0xbe6f7ded	-0.2338788
14	0xbd1655dc	-0.036702976
15	0x3d0cc8c5	0.034371156
16	0xbd3434e3	-0.04399575
17	0xbd4c538b	-0.04988436
18	0xbb9334ec	-0.0044923928
19	0xbdb10d70	-0.08645141
20	0x3d56184d	0.05226927
21	0x3d757944	0.0599301
22	0xbc6df522	-0.014523776
23	0xbc9ec80e	-0.019382503
24	0xbd56aede	-0.05241286
25	0xbca597f6	-0.020214062
26	0x3d47c4c5	0.04877164
27	0xbdca8264	-0.09888151
28	0x3df1667e	0.11787127
29	0xbcb8aa87	-0.022542251
30	0x3d254a6b	0.040354174
31	0x3c8255a2	0.015909974
32	0x3dac45e4	0.08411768
33	0xbe6aa63e	-0.22914979
34	0x3aa7e6d5	0.0012809882
35	0xbdc3d55b	-0.09562179
36	0xbca1f5c0	-0.019770503
37	0xbda66ea8	-0.08126575
38	0xbd749e87	-0.059721496
39	0xbd426541	-0.047459844
40	0xbd037d98	-0.032102197
41	0xbd1d8bee	-0.038463525
42	0x3d5f9368	0.054583937
43	0xbc8046a4	-0.015658684
44	0xbc308079	-0.010772818
45	0x3db3aa46	0.087727115
46	0xbdf89e7e	-0.12139605
47	0xbcf6313c	-0.030052774
48	0x3cbca48c	0.02302768
49	0xbc147e98	-0.009063385
50	0xbd8b02c2	-0.067876354
51	0x3c6233b1	0.0138062695
52	0xbc5130b3	-0.012767958
53	0x3ca32538	0.019915208
54	0xbd807723	-0.062727235
55	0x3d3492e5	0.044085402
56	0xbb2912bf	-0.0025798527
57	0x3d0536b7	0.032522883
58	0xbcca1124	-0.024666376
59	0xbc5d21a8	-0.013496794
60	0x3d8da927	0.06917029
61	0xbcc8b9ba	-0.024502624
62	0x3d3bf24a	0.04588536
63	0x3d2e11ba	0.042497374
64	0xbe0d37d9	-0.13790835
65	0x3aba88ee	0.0014231482
66	0x3e18d824	0.14926201
67	0x3d3faba4	0.04679455
68	0xbd599509	-0.053120647
69	0x3da1e314	0.0790464
70	0xbd0ddb40	-0.03463292
71	0xbe124af0	-0.14286399
72	0xbe0ce4f3	-0.13759212
73	0xbe1788f6	-0.1479834
74	0xbe2709ef	-0.16312383
75	0xbdc9a624	-0.09846142
76	0x3c087d3c	0.008330639
77	0x3c2a9a30	0.010412738
78	0xbc47a014	-0.012184162
79	0xbdceb944	-0.1009393
80	0xbdd3575d	-0.103193976
81	0x3dfd42ef	0.12366282
82	0x3e0285c4	0.1274634
83	0xbc3480f3	-0.011017072
84	0x3e794eb5	0.2434643
85	0xbc917549	-0.017756121
86	0xbd031607	-0.03200343
87	0xbdaf500a	-0.08560188
88	0x3c3467c8	0.0110110715
89	0xbdac7334	-0.08420411
90	0x3def7373	0.11691942
91	0xbe1bf146	-0.15228757
92	0xbdeeb13e	-0.116549
93	0x3d6a4586	0.05719521
94	0xbd914e34	-0.07094994
95	0xbdf793dd	-0.120887496
96	0xbd83416e	-0.06408964
97	0xbe61aa71	-0.22037674
98	0xbd2c1f03	-0.042021763
99	0x3d4c2a18	0.04984483
100	0xbc9c192c	-0.019054972
101	0x3d1ba6b5	0.03800078
102	0xbd7aa704	-0.061194435
103	0xbe3130ac	-0.17303723
104	0xbe0931f4	-0.13397962
105	0x3d774568	0.060368925
106	0x3d33775c	0.043815
107	0x3db74f8b	0.089507185
108	0xbe54c3ef	-0.20777868
109	0xbe09e352	-0.13465622
110	0xbe27720b	-0.16352098
111	0xbd4dd14e	-0.050248437
112	0xbd165788	-0.03670457
113	0xbc3c91f7	-0.01150941
114	0x3db881f1	0.09009159
115	0xbde64b84	-0.11244872
116	0xbd04af45	-0.032393713
117	0x3dfa4bad	0.12221465
118	0x3d1e5ba9	0.038661633
119	0xbdbd6e6c	-0.09249577
120	0x3d43343f	0.047657248
121	0xbdccfbae	-0.100089416
122	0x3e3528b7	0.17691313
123	0xbda45a0c	-0.080249876
124	0x3d9f7c9e	0.07787441
125	0x3da94032	0.082641974
126	0xbc92b6a9	-0.017909365
127	0x3e4c4c26	0.19950923
128	0x3e5dcea7	0.21660863
129	0x3d923cf9	0.07140536
130	0x3db9ab2b	0.09065851
131	0x3c8254d8	0.015909597
132	0xbc269af6	-0.0101687815
133	0xbdac3027	-0.08407622
134	0xbc60526f	-0.013691529
135	0xbdf9c436	-0.121956274
136	0x3e434620	0.1906972
137	0x3d919a4d	0.07109509
138	0x3d71e1a5	0.059053082
139	0xbe25963e	-0.16170594
140	0xbd4a3a1a	-0.049371816
141	0x3d3c80b8	0.046021193
142	0xbcce3643	-0.025172358
143	0xbda8d07f	-0.082428925
144	0x3e000fca	0.12506023
145	0x3d9cee0b	0.076625906
146	0x3e01c0db	0.12671225
147	0x3e4cf8f8	0.20016849
148	0xbd0ec649	-0.03485707
149	0x3ce3c50e	0.027803924
150	0x3d2f6dfd	0.042829502
151	0x3bbdb7ea	0.0057897465
152	0xbd9a1619	-0.07523746
153	0xbb84f4cd	-0.004057503
154	0x3d8d5855	0.069016136
155	0xbdcbeaf2	-0.09956922
156	0xbd56f2f6	-0.0524778
157	0xbd7df37c	-0.061999783
158	0xbd8fce75	-0.070218004
159	0xbe217dea	-0.15770689
160	0xbe91c231	-0.2846847
161	0x3dbee27e	0.09320544
162	0x3d84e567	0.064890675
163	0xbd88b141	-0.066744335
164	0xbd8cee44	-0.06881383
165	0xbd5dd5bd	-0.054158915
166	0x3cacc53c	0.021090142
167	0x3d8a9f3a	0.06768651
168	0xbe1ed250	-0.15509915
169	0x3ddefc7c	0.10888001
170	0x3c3bcdf5	0.011462678
171	0x3c8fca0e	0.017552402
172	0xbe12d06e	-0.14337322
173	0x3e1d3180	0.15350914
174	0x3d8e8aeb	0.0696009
175	0xbd296342	-0.041354425
176	0xbe03a813	-0.12857084
177	0x3e1c556a	0.15266958
178	0xbe884090	-0.26611757
179	0xbd91963f	-0.07108735
180	0xbd002338	-0.031283587
181	0xbd23fd0a	-0.04003624
182	0x3d0a98e5	0.033837218
183	0x3d9c07fd	0.07618711
184	0xbd9f6477	-0.07782834
185	0x3ded9ae8	0.11601812
186	0x3bbd3c8a	0.005775039
187	0xbde4b68b	-0.1116763
188	0xbd0284d9	-0.031864975
189	0xb9de8e96	-0.00042449374
190	0xbd93c457	-0.07215183
191	0xbe0f7db8	-0.14012802
192	0x3c9a5d97	0.018843455
193	0xbe7b45af	-0.24538301
194	0x3b2bbca8	0.0026204977
195	0xbccc5b8d	-0.024945999
196	0xbd0f1e9d	-0.034941304
197	0xbd4f2457	-0.050571766
198	0x3d8c783f	0.068588726
199	0xbdf31f09	-0.11871154
200	0xbd9dd92d	-0.077074386
201	0x3d577ccc	0.05260925
202	0xbe51ed51	-0.20500685
203	0x3d6e2313	0.058138918
204	0xbe289418	-0.16462743
205	0x3e54f438	0.20796287
206	0x3d1add12	0.037808485
207	0x3c3ab0fb	0.0113947345
208	0xbda8e4df	-0.08246779
209	0xbcfc7d38	-0.030821428
210	0x3d63aa6e	0.055582456
211	0x3de0e8e3	0.109819196
212	0x3c0b3763	0.008497092
213	0x3ca86dd9	0.020560192
214	0x3da44ce4	0.08022478
215	0x3e4c421b	0.19947092
216	0xbd35edf3	-0.04441638
217	0xbe6315bd	-0.22176261
218	0xbd5c1618	-0.053732008
219	0xbc5bd39d	-0.013417152
220	0x3d09f5d7	0.033681717
221	0xbbae8f06	-0.0053271083
222	0x3d39bbf5	0.045345265
223	0x3d44e087	0.04806569
224	0x3da60aac	0.08107504
225	0xbd7eda7b	-0.062220078
226	0xbccfba9a	-0.025357533
227	0x3e1629c2	0.14664367
228	0x3df0e581	0.117625244
229	0xbc27a5cb	-0.010232399
230	0x3e0620fa	0.13098517
231	0xbbf9064d	-0.007599628
232	0x3d23901f	0.039932366
233	0xbd4c4682	-0.04987193
234	0xbde441c7	-0.111453585
235	0xbdf72fa6	-0.12069635
236	0xbd65f26c	-0.056139395
237	0xbe062cb5	-0.13102992
238	0xbdec1be3	-0.115287565
239	0x3e0989f7	0.13431536
240	0x3d3f51d3	0.046708893
241	0x3e033f50	0.1281712
242	0x3be0b4e8	0.006857503
243	0xbdc490a2	-0.09597899
244	0x3c9ab48a	0.018884916
245	0xbd9d0dda	-0.076686576
246	0xbe04e1bb	-0.12976734
247	0xbcf20c03	-0.029546743
248	0xbc82e7f2	-0.01597974
249	0xbe0eb4f7	-0.1393622
250	0x3da30566	0.07960014
251	0xbc0a6527	-0.008446968
252	0x3d2446dd	0.040106643
253	0x3defcff7	0.11709588
254	0x3e1e83af	0.15479921
255	0x3e0680c7	0.13135062
