models/trained/GAN_unet_generator_10kdata_250epoch_08_19_20.pth (torch_old, 289553 bytes, 9 tensors)

conv1.weight f4 [32, 1, 5]
0	0xbd87fb80	-0.06639767
1	0xbd226478	-0.039646596
2	0x3e041ff6	0.12902817
3	0xbb8c1e82	-0.0042760978
4	0xbd041695	-0.0322481
5	0xbc21752e	-0.009854598
6	0xbc89deb5	-0.016829828
7	0xbc5433cb	-0.0129518015
8	0xbc16569d	-0.009175924
9	0xbc7a9e67	-0.015296555
10	0xbdb372ff	-0.08762168
11	0xbb1fa7b2	-0.0024361429
12	0xba9b0e78	-0.0011829874
13	0xbccabb74	-0.024747588
14	0xba44096c	-0.00074782106
15	0xbc1fd8fe	-0.009756325
16	0x3c1856ff	0.009298085
17	0xbba57b0d	-0.005050069
18	0xbd045f63	-0.03231753
19	0x3c271da4	0.010199938
20	0xbd557d05	-0.05212118
21	0x3dc373fb	0.09543606
22	0x3d597bf5	0.05309673
23	0xbc3974d6	-0.01131936
24	0xbddd8ae0	-0.10817504
25	0x3d8f17d4	0.06986967
26	0xbfcedb48	-1.6160669
27	0xbf91f858	-1.1403913
28	0xbbfecb58	-0.0077757053
29	0x3cb1e67b	0.021716347
30	0xbd792ae8	-0.060831934
31	0x3d79da67	0.0609993
32	0x3a716133	0.0009207904
33	0xb9f979ce	-0.00047583733
34	0xbdecf27c	-0.11569688
35	0xbcf3def6	-0.029769402
36	0xbd559d76	-0.05215212
37	0x3d3a233e	0.045443766
38	0xbd70bc2e	-0.058773212
39	0xbc591dff	-0.0132517805
40	0xbc2ff849	-0.010740348
41	0xbc99cec0	-0.018775344
42	0xbb740d8a	-0.0037239515
43	0xbc6f8856	-0.014619907
44	0xb932ec2c	-0.00017063384
45	0x3c170f8d	0.009220016
46	0xbc554f9c	-0.013019469
47	0x3dcb7ce2	0.09935929
48	0x3e19b80e	0.15011618
49	0xbc9184f6	-0.017763596
50	0x3d5cc363	0.053897273
51	0xbd5f63dc	-0.054538593
52	0xbb347675	-0.0027536426
53	0x3d36f28e	0.044664912
54	0xbd097a9f	-0.033564206
55	0xbc830d92	-0.015997682
56	0xbdaf94e7	-0.08573323
57	0xbe4d7df8	-0.20067585
58	0xbf7446bc	-0.9542043
59	0x3d9f8f06	0.077909514
60	0xbc9a10a1	-0.018806757
61	0xbc4c86b3	-0.012483287
62	0xbd38d548	-0.045125276
63	0x3e003f7a	0.12524214
64	0xbd22f4be	-0.039784186
65	0xbe01419c	-0.12622684
66	0x3d054512	0.032536574
67	0x3d17ee78	0.037092656
68	0x3c81b5fd	0.01583385
69	0x3d2bcf1f	0.041945573
70	0xbb1889a2	-0.0023275395
71	0xbb83526b	-0.0040076277
72	0xba59ace5	-0.00083036564
73	0xbcaf66a0	-0.02141124
74	0xbaa83307	-0.001283259
75	0xbd009625	-0.03139319
76	0xbd528eff	-0.051405903
77	0x3dc8f00d	0.09811411
78	0xbd81bad4	-0.06334463
79	0x3bcfeb96	0.0063452227
80	0x3b5fda4c	0.0034157215
81	0x3d89148a	0.06693371
82	0xbd54bf29	-0.051940117
83	0xbb7ccaf5	-0.003857312
84	0x3d5d13e1	0.053974036
85	0xbe5b3f0c	-0.21410769
86	0xbc803032	-0.015647981
87	0x3d48d48d	0.04903083
88	0xbb51c690	-0.0032009222
89	0x3d1c8b47	0.038218763
90	0x3c9c45d8	0.019076273
91	0x3d4ae797	0.049537268
92	0xbce97b26	-0.028501105
93	0x3c98c8a2	0.018650357
94	0xbba7db30	-0.0051225647
95	0x3be89529	0.0070978594
96	0x3cb483ae	0.022035446
97	0xbc1617a3	-0.009160909
98	0xbc6c3313	-0.014416474
99	0xbaad0036	-0.0013198915
100	0xbd5a6fa7	-0.053329136
101	0x3ceb0d83	0.028692966
102	0x3ddfd564	0.10929373
103	0xbe2bcfb7	-0.16778456
104	0xbbccfe1b	-0.0062558777
105	0xbc99159f	-0.018687068
106	0xbacc797f	-0.0015600174
107	0xbaa10e70	-0.0012287628
108	0xbd3ac614	-0.04559906
109	0xbcc5bcaa	-0.024137814
110	0xbcfcce0a	-0.030859966
111	0x3cfccbf8	0.030858979
112	0xbdbf7d05	-0.093500175
113	0xbfd5cab7	-1.6702489
114	0x3d9fa179	0.0779447
115	0x3ccabe72	0.024749015
116	0x3d82cfbf	0.06387281
117	0x3d133f2a	0.03594891
118	0xbd6ed19b	-0.058305364
119	0x3caef59f	0.021357356
120	0x3ccd8b38	0.025090799
121	0x3c925cf3	0.017866587
122	0x3bd08be1	0.006364331
123	0xbd2733c8	-0.040820867
124	0x3d2087d8	0.03919205
125	0x3d937304	0.07199672
126	0x3cb28520	0.021791995
127	0x3c173bc7	0.009230561
128	0xbb564ee0	-0.0032700822
129	0x3ca2fc65	0.019895742
130	0x3afeafba	0.0019431033
131	0xbca4363b	-0.02004539
132	0xba0c04d4	-0.00053412956
133	0xbcbabfae	-0.022796478
134	0x3b8c99dc	0.0042908024
135	0x3d8ca11c	0.06866667
136	0xbd1b5f60	-0.037932754
137	0x3daf7b64	0.08568457
138	0xbcd9d6cb	-0.02659168
139	0xbda0c513	-0.07850089
140	0xba1da64d	-0.00060138555
141	0xbcc3d23c	-0.023903958
142	0xbc5d8c6a	-0.013522247
143	0xbcbce718	-0.023059413
144	0xbb248274	-0.002510217
145	0x3d03062e	0.031988315
146	0xbdc4b30b	-0.09604462
147	0xbc6f38d4	-0.014600951
148	0x3d9bd78e	0.07609473
149	0xbd8321e5	-0.06402949
150	0xbd0d8bf2	-0.03455729
151	0x3d4622bd	0.048372973
152	0xbde8373b	-0.113386594
153	0x3d6fd105	0.058548946
154	0xbd2981d6	-0.041383587
155	0x3d45db16	0.04830464
156	0xbf2b15a8	-0.6682992
157	0xbd37bdd4	-0.04485877
158	0xbcbd1ca3	-0.023084944
159	0xbc6e6f09	-0.01455284

conv2.weight f4 [32, 32, 3]
0	0x3ccdb24b	0.02510943
1	0xbcd960c6	-0.026535403
2	0xbd7f99c6	-0.06240251
3	0xbb20cefe	-0.002453744
4	0x3c73bc82	0.014876487
5	0x3c8d1181	0.01722026
6	0xbc654be2	-0.013995143
7	0x3c6cb93d	0.014448461
8	0xbb8ce30c	-0.004299527
9	0x3bc27005	0.005933764
10	0x3db8d395	0.09024731
11	0xbcd4038a	-0.025880594
12	0xbcd10729	-0.02551611
13	0xbd005f9b	-0.031341176
14	0xbd16fb62	-0.03686083
15	0xbd955343	-0.072912715
16	0x3e710b5e	0.23539492
17	0x3e1be7c6	0.15225133
18	0x3d3b5ef7	0.045744862
19	0x3c9f0f10	0.019416362
20	0xbba85e98	-0.0051382296
21	0xbdb090e5	-0.086213864
22	0xbd1ac99d	-0.03778993
23	0xbd2938d1	-0.04131395
24	0xbce2c092	-0.027679715
25	0x3d3a8bd0	0.04554349
26	0x3ca18ad4	0.019719519
27	0x3e332840	0.17495823
28	0x3d05db34	0.03267975
29	0x3d3c30fc	0.045945153
30	0xbd17969d	-0.03700887
31	0x3dfed9a1	0.12443853
32	0x3cec9861	0.028881254
33	0x3da9ac6e	0.082848415
34	0x3e240f29	0.16021408
35	0xbeb194db	-0.3468388
36	0x3d0dc7ca	0.03461436
37	0xbd8a4a6b	-0.06752475
38	0x3bf722c4	0.007541986
39	0x3d1f5c47	0.038906362
40	0x3ce08cf1	0.027410956
41	0xbd57007f	-0.052490707
42	0xbd15a5ac	-0.03653495
43	0x3d12429d	0.03570806
44	0x3d442762	0.04788912
45	0xbc149f89	-0.009071239
46	0x3c733f35	0.014846613
47	0xbcf4cd93	-0.029883182
48	0x3d25fef0	0.04052633
49	0x3e0dd6b3	0.13851433
50	0xbae8cc12	-0.0017761013
51	0xbc9ceed3	-0.019156849
52	0x3daf0ca6	0.085473344
53	0xbd93f924	-0.07225254
54	0x3b739e13	0.0037173077
55	0x3dc55d83	0.096369766
56	0x3c1826d4	0.009286601
57	0x3c225b9e	0.009909539
58	0x3da5651b	0.08075925
59	0x3c9d181f	0.01917654
60	0x3a7af92a	0.00095738715
61	0x3cc8e95b	0.024525335
62	0xbe1f42cd	-0.15552826
63	0x3b22dc10	0.0024850406
64	0x3ca4f7a5	0.020137617
65	0xbc827c95	-0.015928546
66	0x3e186d07	0.1488534
67	0x3e500327	0.20313703
68	0xbdc4d12a	-0.096102074
69	0xbba8badd	-0.005149229
70	0x3dc1a2d7	0.09454887
71	0x3d7b0c2d	0.06129091
72	0xbbd07b0b	-0.006362324
73	0x3da0d45a	0.07853003
74	0x3cfbffd4	0.030761637
75	0xbcd2514d	-0.025673533
76	0x3d9c5f29	0.07635338
77	0x3ce93c85	0.02847124
78	0xbca60378	-0.020265326
79	0x3dadc51b	0.084848605
80	0xbca1038a	-0.019655008
81	0xbdbbf700	-0.09177971
82	0x3df03785	0.117293395
83	0x3da8e987	0.08247667
84	0xbc88310c	-0.01662495
85	0x3a3efd18	0.0007285639
86	0x3c66cddc	0.014087167
87	0xbcee2479	-0.029070126
88	0x3e1ec51f	0.15504883
89	0x3d175f38	0.036956042
90	0x3d8105d8	0.06299943
91	0x3d89c777	0.06727498
92	0x3d9196de	0.07108854
93	0xbe20fc71	-0.15721299
94	0x3e042849	0.12905993
95	0x3db89fe2	0.0901487
96	0xbd429174	-0.047501996
97	0xbd184247	-0.037172582
98	0x3d3ca32a	0.046054043
99	0xbc437d64	-0.011931751
100	0x3ae22d7d	0.0017255988
101	0xbcbbfd47	-0.02294792
102	0x3cd18edf	0.025580822
103	0x3c353051	0.011058883
104	0x3d10bfbd	0.035339106
105	0x3c80a1aa	0.015702087
106	0x3d6b9ada	0.057520725
107	0xbd013fda	-0.031555034
108	0xbd404698	-0.046942323
109	0xbd2cfc35	-0.04223271
110	0x3c03909e	0.008030085
111	0xbd159542	-0.036519296
112	0x3e5a4342	0.2131472
113	0x3db0ca45	0.0863233
114	0x3c5b3d65	0.013381337
115	0x3da36e02	0.07979967
116	0x3bd2fc64	0.0064387787
117	0xbc74218a	-0.014900574
118	0xbcc5592e	-0.024090376
119	0xbcabdf5c	-0.02098053
120	0xbc18fa88	-0.009337075
121	0x3d6d694f	0.05796176
122	0xbc9f4843	-0.019443637
123	0x3e2ec6e9	0.17068066
124	0x3d7e31f9	0.062059376
125	0x3e062657	0.13100563
126	0x3e6544f0	0.22389579
127	0x3ddc7bee	0.10765825
128	0xbb9f1c6b	-0.0048556826
129	0x3d93c2ee	0.07214914
130	0x3e1e2268	0.15442812
131	0xbe67a605	-0.22621925
132	0x3da38b0b	0.07985505
133	0x3d6f15d5	0.05837043
134	0xbc96b4fa	-0.018396843
135	0x3de1a950	0.11018622
136	0x3da58f07	0.08083921
137	0x3cfb1899	0.030651378
138	0x3aa5e45b	0.0012656556
139	0x3de59f86	0.11212067
140	0xbc0244c8	-0.007950969
141	0xbd84fb5a	-0.06493254
142	0x3d5a2089	0.053253684
143	0x3db44714	0.088026196
144	0x3db29108	0.08719069
145	0x3dbf8ff6	0.0935363
146	0xbd3f4fe6	-0.046707056
147	0x3bb2e115	0.005458961
148	0x3cf20be1	0.02954668
149	0xbd87c193	-0.06628718
150	0x3ca59dfe	0.020216938
151	0x3d2695ca	0.040670194
152	0xbd1b92ad	-0.037981678
153	0x3c2717da	0.010198558
154	0x3d879db5	0.06621877
155	0x3bf8dd77	0.00759476
156	0xbc9d0883	-0.019169098
157	0x3d6667ca	0.056251325
158	0xbcdae058	-0.026718304
159	0xbc210548	-0.009827919
160	0x3cc7f060	0.024406612
161	0x3c6cc07c	0.014450189
162	0x3de60199	0.112307735
163	0x3e3d88a6	0.18509158
164	0xbde5481d	-0.11195395
165	0xbb9d3b4a	-0.0047983276
166	0x3d185734	0.03719254
167	0x3c424232	0.0118566025
168	0x3c9df054	0.019279636
169	0x3d9d70cc	0.0768753
170	0xbca6bc0f	-0.020353345
171	0x3cb01c5a	0.021497894
172	0x3dac626b	0.08417209
173	0x3cd3bc64	0.025846668
174	0xbc8f76a1	-0.017512621
175	0x3d823f34	0.06359711
176	0xbb677458	-0.003531715
177	0xbd7d4709	-0.061835323
178	0x3d827532	0.063700095
179	0xba145a70	-0.0005659228
180	0x3c549758	0.012975536
181	0x3c80d2fe	0.015725609
182	0x3bdf2959	0.006810349
183	0x3bb29ce4	0.0054508317
184	0x3decc369	0.11560709
185	0x3d090cc4	0.03345944
186	0x3d5feb04	0.054667488
187	0x3d5ac40e	0.05340963
188	0x3ca2de0f	0.019881276
189	0xbf2aada1	-0.66671187
190	0x3e22edb6	0.15910992
191	0x3e0fd7d7	0.1404718
192	0xbd8ff7f3	-0.070297144
193	0x3db0b616	0.0862848
194	0xbdbadabd	-0.09123752
195	0xbcec9807	-0.028881086
196	0x3ab05674	0.0013453499
197	0xbce24bef	-0.027624099
198	0xbcadbb70	-0.021207541
199	0x3b98452a	0.004646917
200	0xbc490153	-0.012268382
201	0x3c5237bb	0.01283067
202	0x3d55d3aa	0.05220381
203	0xbcf97b1c	-0.030454211
204	0xbe3cab58	-0.18424737
205	0xbd5a7f0a	-0.05334381
206	0x3df3a605	0.118969
207	0xbbd66fe8	-0.006544102
208	0xbc8057c1	-0.015666844
209	0x3d4338e1	0.047661666
210	0xbd8adb7c	-0.067801446
211	0x3d14837a	0.0362582
212	0xbcf926c3	-0.03041399
213	0x3ce0340f	0.027368573
214	0xbb2833be	-0.0025665606
215	0xbc35f276	-0.0111051705
216	0x3c2af330	0.010433957
217	0x3ba23b7f	0.00495094
218	0xbcb8f00c	-0.0225754
219	0x3e51abe9	0.20475735
220	0x3d9d0db7	0.076686315
221	0x3cdd493c	0.02701246
222	0x3ba1b9e3	0.0049354895
223	0xbe0750eb	-0.13214462
224	0x3ba2eb68	0.0049719103
225	0x3dc7bbaa	0.09752591
226	0x3dd9f593	0.10642543
227	0x3cce8945	0.02521194
228	0xbaf3aaab	-0.0018590292
229	0x3c22f8dd	0.009947029
230	0x3bec230b	0.007206326
231	0xbd8e5e15	-0.069515385
232	0xbcc79fb9	-0.024368154
233	0x3b6192ca	0.0034419768
234	0xbd1b1c3b	-0.03786872
235	0xbccc512b	-0.024941048
236	0xbccfa32e	-0.025346365
237	0xbd1a7cce	-0.03771668
238	0x3d2d9938	0.04238245
239	0x3c8ff3fb	0.017572394
240	0xbcdc181f	-0.02686697
241	0x3d2d5df8	0.042325944
242	0x3c90402d	0.017608726
243	0xbc84bf29	-0.016204434
244	0x3c68bec0	0.014205635
245	0x3bc2592f	0.0059310417
246	0xbda104bb	-0.078622304
247	0xbd8724ac	-0.065987915
248	0x3bb62897	0.005559038
249	0xbcb63d70	-0.022246093
250	0xbd95d1ef	-0.07315432
251	0xbd3c5d8d	-0.045987654
252	0xbd8a3a12	-0.06749357
253	0x3d25a926	0.040444516
254	0xbdf9c7fc	-0.12196347
255	0x3c191200	0.00934267

conv3.weight f4 [64, 32, 3]
0	0x3da6b2db	0.08139583
1	0xbd0f556e	-0.03499358
2	0x3d3a5636	0.045492373
3	0x3dc220a8	0.09478885
4	0xbe0e4da8	-0.13896811
5	0xbd806e4c	-0.062710375
6	0xbdebd075	-0.115143694
7	0xbd8c3946	-0.068468615
8	0x3d708b12	0.058726378
9	0xbc3acafd	-0.011400935
10	0xbdc497ff	-0.095993035
11	0xbdbcad0a	-0.09212692
12	0x3d4ed12f	0.05049246
13	0x3dd95462	0.10611798
14	0x3dc124ad	0.094308235
15	0xbdfce95a	-0.12349196
16	0xbdd149ef	-0.1021918
17	0x3d7f6260	0.062349677
18	0xbbb454f2	-0.0055032903
19	0xbae198d5	-0.0017211685
20	0x3d92f973	0.07176485
21	0x3d772d02	0.060345657
22	0x3c37d89f	0.01122108
23	0x3e162f3d	0.14666457
24	0x3af73de8	0.0018863054
25	0x3c451d9b	0.012030984
26	0x3cfcf220	0.030877173
27	0x3dae5984	0.085131675
28	0x3e061380	0.13093376
29	0x3cd6318f	0.026146678
30	0x3cbc0991	0.02295378
31	0x3d5ce5d9	0.053930137
32	0x3decee1a	0.11568852
33	0xbc65ca77	-0.014025322
34	0x3cd42275	0.025895337
35	0x3de27769	0.11057932
36	0x3cb7929a	0.022408772
37	0xbc5c35e2	-0.013440581
38	0x3d4f6dc0	0.050641775
39	0xbca994e8	-0.020700887
40	0xbcc93abe	-0.024564143
41	0xbe34ebda	-0.17668095
42	0xbc68fa70	-0.014219865
43	0x3cb84166	0.022492122
44	0x3dc0bbcb	0.09410819
45	0x3cc36e11	0.023856195
46	0xbd7877ed	-0.060661245
47	0x3d02384c	0.03179197
48	0xbd2146a7	-0.03937402
49	0xbd07e1f6	-0.033174478
50	0x3d9180a4	0.071046144
51	0x3ba70b16	0.005097757
52	0xbbc6d352	-0.006067672
53	0x3ddeede5	0.108852185
54	0x3ccf9770	0.025340766
55	0x3d8380f2	0.06421079
56	0xbd32f32b	-0.043688934
57	0xbde3912b	-0.11111673
58	0xbe144889	-0.14480795
59	0xbae49ff0	-0.0017442685
60	0x3d79b45a	0.060963012
61	0x3db6d0e6	0.08926563
62	0x3dbf0322	0.093267694
63	0x3cc9a84c	0.024616383
64	0x3cca31c5	0.024681935
65	0x3e184ba5	0.14872606
66	0x3d29da09	0.0414677
67	0xbd476e9e	-0.048689477
68	0x3d216a5f	0.039408084
69	0xbc06e16c	-0.008232456
70	0xbe18cd34	-0.14922029
71	0x3d9c3ce8	0.076288044
72	0x3d000a2f	0.03125971
73	0x3d55158f	0.052022513
74	0x3d4c2de0	0.049848437
75	0xb8b0ab82	-8.42428e-05
76	0xbd8925be	-0.06696652
77	0xbc213c92	-0.009841101
78	0x3d5f1dbe	0.054471724
79	0xbca341bb	-0.019928804
80	0xbde8a8b1	-0.113603
81	0x3d772bee	0.06034463
82	0xbbdaba26	-0.0066750227
83	0xbcc35fef	-0.023849456
84	0xbdb22b4d	-0.08699665
85	0x3e2821d2	0.16419151
86	0x3e52e97f	0.20596884
87	0x3db67191	0.0890838
88	0x3d74d156	0.05976995
89	0x3d53c5c7	0.051702287
90	0xbd63f424	-0.055652753
91	0xbb52c1ec	-0.0032159043
92	0x3ccf2f0b	0.025290987
93	0x3dd0e61a	0.102001384
94	0x3ad1cff7	0.0016007413
95	0xbd886410	-0.066597104
96	0x3dbaa2ce	0.09113084
97	0x3c94a602	0.018145565
98	0xbdf7e2de	-0.12103818
99	0x3d2e183f	0.04250359
100	0xbd8a436c	-0.06751141
101	0xbe06b4bf	-0.13154887
102	0x3e057f60	0.13036871
103	0x3c79a4b7	0.015237025
104	0xbe221cc5	-0.15831287
105	0x3db3c589	0.08777911
106	0x3d29919b	0.041398626
107	0xbde6f4dc	-0.11277172
108	0x3d974d78	0.07387823
109	0xbc94b873	-0.018154358
110	0xbe0daeba	-0.13836184
111	0x3df63921	0.12022615
112	0x3d3ce2b1	0.046114627
113	0xbdf31da2	-0.118708864
114	0x3e4cac1f	0.19987534
115	0x3e06634c	0.13123816
116	0xbdf0c12e	-0.11755596
117	0x3d8ab9b1	0.06773699
118	0x3dc27694	0.09495273
119	0xbd976352	-0.07391991
120	0x3d887ecf	0.06664812
121	0xbcbca8b2	-0.023029659
122	0xbe09c16b	-0.1345269
123	0xba9aaac1	-0.0011800156
124	0xbdae4743	-0.08509686
125	0xbe47ac84	-0.19499403
126	0xbcdc0906	-0.026859771
127	0xbdb7de45	-0.089779414
128	0xbe2629bb	-0.16226856
129	0x3c27c67f	0.010240196
130	0xbcccf52a	-0.025019247
131	0xbd7a8033	-0.061157417
132	0xbb9e5b42	-0.004832656
133	0xbdf5c0e7	-0.11999684
134	0xbe20a448	-0.15687668
135	0x3de267c9	0.11054952
136	0x3c72fb52	0.014830427
137	0xbde2cbe3	-0.110740446
138	0x3d1dea40	0.038553476
139	0x3d45d46b	0.04829828
140	0xbdd060f4	-0.10174742
141	0x3e5cd4a8	0.21565497
142	0x3e2bca9e	0.16776511
143	0xbd489686	-0.048971675
144	0x3e1c3425	0.15254267
145	0x3e4313de	0.19050547
146	0xbc10ee64	-0.008845899
147	0x3e10b5cb	0.14131849
148	0x3d87cf09	0.06631286
149	0xbe01678e	-0.12637159
150	0x3e049be6	0.12950096
151	0x3ddd7d41	0.10814906
152	0xbe012e23	-0.12615256
153	0x3e15019e	0.14551398
154	0x3cfb91da	0.030709196
155	0xbddf77e9	-0.10911543
156	0x3befb73b	0.007315544
157	0x3c2d9a75	0.010595907
158	0xbdb28b38	-0.0871796
159	0xbc1f0652	-0.009706097
160	0x3d09e12e	0.033662014
161	0xbd860871	-0.06544579
162	0xbce3264e	-0.027728226
163	0xbde7bac9	-0.11314923
164	0xbe212aa1	-0.15738918
165	0x3d3cfa5b	0.046137195
166	0xbc738a26	-0.01486448
167	0xbdc4a3f4	-0.09601584
168	0x3d27a41f	0.040928002
169	0xbe15f6ed	-0.14644976
170	0xbdd88292	-0.10571779
171	0x3ddc496e	0.10756193
172	0x3d894b67	0.06703835
173	0xbdd6823e	-0.104740605
174	0x3e4e024a	0.2011806
175	0x3db2615e	0.087099776
176	0xbde0df4f	-0.10980093
177	0x3d436c84	0.04771091
178	0x3c5d24d6	0.013497552
179	0xbd8767e1	-0.0661161
180	0x3bc476e3	0.0059956177
181	0x3de5c44f	0.112190835
182	0xbe03a3af	-0.12855409
183	0x3b18fdf7	0.0023344734
184	0xbe1bd3fe	-0.15217587
185	0xbe3317b4	-0.17489511
186	0x3e2760d7	0.16345535
187	0x3def8f99	0.11697311
188	0xbd5089da	-0.050912715
189	0x3d7be062	0.061493285
190	0x3cf01e3b	0.02931129
191	0xbd9cf7d2	-0.076644555
192	0x3d3f8a31	0.04676265
193	0x3e338b57	0.17533623
194	0x3c3353c6	0.010945266
195	0x3dbb54a9	0.09147007
196	0x3d9226d2	0.07136311
197	0xbcfdfe65	-0.031005094
198	0x3d533934	0.051568225
199	0xbc1baaac	-0.009501141
200	0xbc4c651c	-0.012475278
201	0x3d22744f	0.0396617
202	0x3d90b569	0.07065851
203	0xbd2e66e6	-0.0425786
204	0xbcb0954a	-0.021555562
205	0x3cf95fbb	0.030441156
206	0x3d320d60	0.043469787
207	0x3d101023	0.03517164
208	0x3d1c1761	0.038108233
209	0x3bcaa40a	0.0061841058
210	0xbc91df82	-0.017806772
211	0x3daf32be	0.085546
212	0x3d2d5ec6	0.04232671
213	0x3bafb43e	0.0053620627
214	0xbc256d2c	-0.010096829
215	0x3c4d9db2	0.0125498045
216	0x3c71414d	0.014725042
217	0xbcee7ded	-0.02911278
218	0xbc78e685	-0.015191679
219	0x3d2636a3	0.04057945
220	0x3d313ff4	0.04327388
221	0x3da508b4	0.080583006
222	0x3c9ec073	0.019378876
223	0xbd17aa10	-0.03702742
224	0xbcf44c47	-0.029821528
225	0x3ccdbb5a	0.02511375
226	0xbc7f8082	-0.0155946035
227	0xbc81a1d9	-0.015824245
228	0x3dc2e535	0.09516374
229	0xbb9b4c1d	-0.004739298
230	0xbcb288ef	-0.02179381
231	0x3d45c787	0.048285987
232	0x3c9d6dd6	0.019217413
233	0xbd0bddae	-0.034146957
234	0x3ccb1e68	0.024794772
235	0x3c1bfd08	0.009520777
236	0x3c3aa348	0.011391468
237	0xbc5de272	-0.013542758
238	0x3dbac020	0.09118676
239	0x3cdf3733	0.027248
240	0xbbd6eb9d	-0.006558849
241	0x3da6af32	0.081388846
242	0x3cf0103e	0.02930462
243	0x3e17189e	0.14755484
244	0x3d3273cc	0.043567464
245	0x3ab9b678	0.001416876
246	0xbcf09b34	-0.029370882
247	0x3da2c7d8	0.079482734
248	0xbd1e3b69	-0.038630877
249	0x3d927b1e	0.07152389
250	0x3d15419f	0.036439534
251	0x3c8776eb	0.016536197
252	0xbce1144a	-0.027475495
253	0x3d0a447a	0.03375671
254	0xbc4a7ee9	-0.012359359
255	0xbc621783	-0.013799551

conv4.weight f4 [64, 64, 3]
0	0xbb85e43a	-0.0040860446
1	0xbca9e463	-0.020738786
2	0xbc5d4f74	-0.013507713
3	0x3acffb96	0.0015867825
4	0x3ca43b02	0.020047668
5	0xbc42f343	-0.011898818
6	0xbbcb8226	-0.0062105833
7	0xbd0f92ce	-0.035052113
8	0x3b43d0b0	0.0029879026
9	0xbbac39c7	-0.005255911
10	0xbae9cd8e	-0.0017837749
11	0xbb362af1	-0.0027796591
12	0xbc809fdd	-0.015701229
13	0x3d1b76b1	0.03795499
14	0xbc837344	-0.016046174
15	0xbbeba170	-0.0071908757
16	0xbcbabf33	-0.022796249
17	0xbd0dd2b4	-0.03462477
18	0xbc9c68bc	-0.01909291
19	0xbc9e76d8	-0.019343778
20	0xbc17cdca	-0.0092653725
21	0xbcebf3dd	-0.028802807
22	0x3c31bb8e	0.010847939
23	0xbb882489	-0.004154746
24	0xbcd73fa3	-0.026275462
25	0xbce252b7	-0.027627332
26	0x3c9984d8	0.018740103
27	0xbcefc1ab	-0.029267153
28	0x3b81fea3	0.0039671226
29	0xbca940c9	-0.020660775
30	0xbba043e4	-0.0048909057
31	0x3ccfb128	0.02535303
32	0xbd17467a	-0.036932446
33	0xbb8c120e	-0.004274613
34	0xbc8eeb6b	-0.01744624
35	0xbd00f13e	-0.031480066
36	0x3c9a4c80	0.018835306
37	0xbaf2d96b	-0.001852793
38	0x3d093631	0.033498947
39	0x3c8a0737	0.016849143
40	0xbc42e986	-0.011896497
41	0xbcaaffaa	-0.020873863
42	0x3c9ffb99	0.01952915
43	0xbcd2d141	-0.025734546
44	0x3b0d1264	0.0021525854
45	0xbd0e27d9	-0.03470597
46	0x3b763888	0.0037570316
47	0xbc99aa50	-0.01875797
48	0xbb22f755	-0.002486666
49	0xbceba931	-0.0287672
50	0xbc332acc	-0.010935497
51	0x3ba8ac5a	0.005147499
52	0x3d11ac4f	0.035564717
53	0x3cd024e2	0.025408212
54	0x3be49fe2	0.0069770673
55	0xbb7cd2e7	-0.0038577856
56	0xbd047048	-0.032333642
57	0xbd256013	-0.040374827
58	0x3b9bf221	0.0047590886
59	0xbcd97295	-0.026543895
60	0x3c1b13b3	0.009465146
61	0xbc861781	-0.01636863
62	0xbd2027f0	-0.039100587
63	0xb9a8b007	-0.00032174608
64	0x3d8a6157	0.06756847
65	0xbbd9af28	-0.0066431947
66	0xbcbb4d94	-0.02286414
67	0xbbdea5d1	-0.006794669
68	0xbc7c1c55	-0.015387614
69	0xbc623882	-0.013807418
70	0x3b8b5e05	0.0042531514
71	0xbcb66e2d	-0.022269333
72	0xbc9656e1	-0.018351974
73	0x3d12f7d3	0.035880875
74	0xbc3a661d	-0.011376885
75	0x3c67bab0	0.014143631
76	0xbd3dce56	-0.046339355
77	0xbccba85b	-0.024860552
78	0xbcaf527e	-0.02140164
79	0xbc55890f	-0.013033166
80	0x3ce7c1d0	0.02829066
81	0xb97a0708	-0.00023844477
82	0xbcb86fa5	-0.022514174
83	0xbd056bc9	-0.032573495
84	0xbc31018c	-0.010803591
85	0xbd5fab09	-0.05460647
86	0x3af323a3	0.0018550049
87	0xbd830455	-0.06397311
88	0x3cf656f7	0.030070765
89	0xbb95a9ef	-0.004567377
90	0xbcaa9a68	-0.02082558
91	0xbc4eaa6d	-0.012613875
92	0xbc0b71d7	-0.008511028
93	0xbbf885a3	-0.00758429
94	0x3ce9bb46	0.028531682
95	0xbd3277ef	-0.04357141
96	0x3ba92fe1	0.0051631783
97	0x3d10d7f5	0.035362203
98	0xbd0ec447	-0.034855153
99	0xbbf188e6	-0.007371056
100	0xbd03cced	-0.032177854
101	0xbc2cd3a8	-0.01054851
102	0xbc93b66b	-0.01803132
103	0xbca436dc	-0.02004569
104	0xbbeffac2	-0.007323594
105	0xbd058bf7	-0.032604184
106	0xbbbac55f	-0.005699798
107	0xbb8d6118	-0.004314553
108	0x3cdf36b9	0.027247773
109	0xbcbcadce	-0.023032095
110	0xbc8ad74c	-0.016948365
111	0xbd044a53	-0.032297444
112	0xbd199a74	-0.037500814
113	0xbc1d287a	-0.00959217
114	0x3c3cea04	0.011530403
115	0xbc253de2	-0.010085555
116	0x3c36a213	0.01114704
117	0xbd124243	-0.035707723
118	0x3c66af6c	0.01407991
119	0xbc9cf67c	-0.019160502
120	0xbcd4e4ed	-0.025988067
121	0xbcfc593c	-0.030804269
122	0xbca92e58	-0.020651981
123	0x3c3a89e7	0.011385418
124	0xbd21eafe	-0.039530747
125	0x3c430be3	0.0119046895
126	0xbcf72cac	-0.030172668
127	0xbcb3f1c4	-0.021965869
128	0xbd753dce	-0.059873395
129	0xbcc7b35f	-0.024377523
130	0xbc6fae37	-0.014628938
131	0x3b2263c2	0.0024778699
132	0xbd00aece	-0.031416707
133	0xbcd8e6f9	-0.026477324
134	0xbbf36b3a	-0.007428554
135	0xbd40a889	-0.047035728
136	0xbcddac22	-0.027059618
137	0xbbbaf977	-0.005706008
138	0xbb5198ee	-0.0031982022
139	0xbb212f95	-0.0024595011
140	0x3cac480b	0.021030447
141	0xbc8bebe0	-0.017080247
142	0xbcedb8a4	-0.029018708
143	0xbcad8a12	-0.021184001
144	0xbc5ef6c6	-0.01360864
145	0x3b961e8e	0.004581279
146	0xbcc438d8	-0.023952886
147	0xbac212ea	-0.0014806662
148	0xba17db2a	-0.0005792851
149	0xb91b9d48	-0.00014840544
150	0xbc758137	-0.0149844205
151	0xbce33475	-0.027734974
152	0xbcb3007e	-0.02185082
153	0xbd02ae9a	-0.031904794
154	0xbcccea2c	-0.025014006
155	0xbc645cb3	-0.013938117
156	0x3cab65f8	0.020922646
157	0xba5b65c2	-0.000836935
158	0xbc683441	-0.014172615
159	0x3cb5908e	0.022163656
160	0x3ccf58da	0.025310922
161	0xbb36a020	-0.0027866438
162	0xbd43fb38	-0.047847003
163	0xbd6733ac	-0.056445763
164	0xbc4126f0	-0.011789069
165	0x3c36b8bd	0.0111524435
166	0xbcc71c60	-0.024305522
167	0xbc921dfe	-0.017836567
168	0x3c224500	0.009904146
169	0xbc375702	-0.011190178
170	0xbc742da1	-0.014903457
171	0x3c8086dc	0.015689306
172	0xbc8838a8	-0.016628578
173	0xbc8d0189	-0.017212646
174	0x3c27fe8d	0.010253561
175	0xbc1bc6e1	-0.009507866
176	0xbd5b444a	-0.053531922
177	0x3bff0683	0.0077827587
178	0x3acbbae6	0.0015543371
179	0xbd18ff4f	-0.037352856
180	0xbd15c048	-0.036560327
181	0xbd0c8225	-0.034303803
182	0xbcc2ea0e	-0.023793247
183	0xbc9f52a2	-0.019448582
184	0xbc98da65	-0.018658826
185	0xbcf5cba8	-0.030004337
186	0xbb4d860e	-0.003136042
187	0x3cce54af	0.025186865
188	0xbb5735f7	-0.0032838562
189	0xbc35e11b	-0.011101033
190	0xbc2ff1a4	-0.010738764
191	0xbcb9dd11	-0.02268842
192	0xbce51e38	-0.027968511
193	0x3e1e0ed9	0.15435351
194	0xbd0fcbb3	-0.035106372
195	0xba697d56	-0.0008906921
196	0xbcd4fc92	-0.025999341
197	0x3e139099	0.14410628
198	0xbd169601	-0.03676415
199	0xbc0bb929	-0.008528032
200	0x3cea7688	0.028620973
201	0x3bc7f945	0.0061027133
202	0x3d0b5b7f	0.034022804
203	0x3d758597	0.059941854
204	0xbd1a608f	-0.03768974
205	0x3c9d8d41	0.019232394
206	0xbbd10a18	-0.006379377
207	0xbd011a25	-0.031519074
208	0x3d33d63a	0.043905474
209	0xbd57ca1c	-0.05268298
210	0xbcf352ac	-0.029702507
211	0x3ce92f25	0.028464863
212	0xbcdb453d	-0.026766414
213	0xbb057c63	-0.002036833
214	0x3d2bccef	0.041943487
215	0x3b1c0051	0.00238039
216	0xbc7c6755	-0.015405496
217	0x3c807c62	0.01568431
218	0x3d4fb88b	0.050713103
219	0xbd4ce275	-0.050020654
220	0x3bc12cc3	0.0058952286
221	0xbd8d3faa	-0.068969086
222	0xbb7adaa2	-0.0038277288
223	0x3c96f3b9	0.018426763
224	0xbdb971d8	-0.09054917
225	0xbcbd2fbf	-0.023094056
226	0x3bf6bae6	0.0075296042
227	0xbd4ccff0	-0.050002992
228	0xba2c5bc7	-0.0006574955
229	0x3d04b5ac	0.03239982
230	0xbc0c638b	-0.008568655
231	0x3c91dc4d	0.017805243
232	0x3a734c7e	0.00092811126
233	0x3c543e01	0.012954236
234	0xbb946c84	-0.0045295376
235	0x3ddb122c	0.106968254
236	0xbdab3851	-0.08360351
237	0xbc166321	-0.009178908
238	0xbcc56a8c	-0.024098657
239	0xbc7c8f9b	-0.015415098
240	0x3d0af359	0.03392348
241	0x3d46509f	0.04841673
242	0xbd1ee44c	-0.03879194
243	0xba8a67de	-0.0010559519
244	0xbcea549e	-0.028604802
245	0x3b025bf0	0.0019891225
246	0x3cef5d39	0.029219257
247	0x3d8f5798	0.06999129
248	0xbc8cf362	-0.017205898
249	0xbcc0e557	-0.023546858
250	0xbd3673ba	-0.04454396
251	0x3d08ac79	0.033367608
252	0xbcec9ded	-0.028883899
253	0xbb934c89	-0.0044952077
254	0xbc7727a3	-0.015085134
255	0x3b6e8849	0.003639715

conv5.weight f4 [64, 64, 3]
0	0xbcaac8f0	-0.020847768
1	0x3ca3accb	0.019979855
2	0x3cf844d1	0.030306252
3	0xbdc95205	-0.09830097
4	0xbe199532	-0.1499832
5	0xbcb6b8b8	-0.022304878
6	0xbb5689ff	-0.003273606
7	0x3beb15a0	0.0071742088
8	0x3cad60ad	0.021164263
9	0xbe236073	-0.15954761
10	0xbc1b3e74	-0.009475339
11	0x3d0dc449	0.03461102
12	0x3d37c7ad	0.04486816
13	0xbe66d451	-0.2254193
14	0xbc8ed3f6	-0.017435055
15	0x3d674dd3	0.056470703
16	0xbdb44155	-0.088015236
17	0x3da1ad5a	0.07894392
18	0xbd904ff7	-0.07046502
19	0xbdd8a86d	-0.10579
20	0x3d0136f8	0.031546563
21	0x3c27a8ec	0.010233145
22	0xbe349fa5	-0.17639025
23	0x3c90355c	0.017603569
24	0xbdeac11d	-0.11462615
25	0xbdc193ce	-0.0945202
26	0x3bda1190	0.0066549256
27	0xbe635441	-0.22200109
28	0xbe2af0ed	-0.16693468
29	0x3ce96fb8	0.028495654
30	0xbe33bcb4	-0.17552453
31	0xbd50523e	-0.050859682
32	0x3d957bec	0.07299027
33	0xbdade491	-0.08490861
34	0x3d374efc	0.04475306
35	0x3d8390c7	0.064240985
36	0xbe18fd2b	-0.14940326
37	0x3dd20b31	0.10256041
38	0x3d4a4750	0.049384415
39	0xbe25f4f7	-0.16206728
40	0xbd65f13f	-0.056138273
41	0x3c300a39	0.010744625
42	0xbc986273	-0.018601632
43	0xbdd5cffa	-0.10440059
44	0x3d1bfb66	0.03808155
45	0xbc8202b9	-0.015870439
46	0xbd52408f	-0.0513311
47	0x3d81dc61	0.06340862
48	0xbe0b8761	-0.13625862
49	0xba32b05e	-0.0006816442
50	0x3c5cbadc	0.013472285
51	0xbda8dec6	-0.08245616
52	0xbc7637e1	-0.015027971
53	0xbbe1825f	-0.0068819965
54	0x3daa1f07	0.08306699
55	0xbe6bbfa5	-0.23022325
56	0x3d8dc666	0.06922607
57	0xbd419726	-0.047263287
58	0xbcb6dff7	-0.022323592
59	0x3d48924f	0.048967656
60	0xbe362f1e	-0.17791411
61	0xbe3dc18e	-0.18530867
62	0xbc9e4a97	-0.019322677
63	0xbd82b80e	-0.06382762
64	0x3a8f1545	0.0010916373
65	0x3e3a0c3d	0.18168731
66	0x3d4ff0b1	0.05076665
67	0xbd64a840	-0.05582452
68	0x3cd0b430	0.025476545
69	0xbe40704c	-0.18792838
70	0xbe066da0	-0.13127756
71	0xbdd98877	-0.10621732
72	0xbe2f8120	-0.17139101
73	0xbe55c8d8	-0.20877397
74	0xbcece7ed	-0.028919185
75	0xbdc92573	-0.09821596
76	0xbd4b7048	-0.049667627
77	0xbda3deba	-0.08001466
78	0x3b7b4369	0.003833974
79	0xbcdfd700	-0.0273242
80	0xbc0fd51f	-0.008778839
81	0xbd55d6d7	-0.05220684
82	0xbdd9f8be	-0.10643147
83	0x3d17051c	0.036870107
84	0xbda680f4	-0.081300646
85	0x3d735e87	0.05941632
86	0x3dc256fc	0.09489247
87	0xbd920a64	-0.07130888
88	0xbde684fb	-0.11255833
89	0x3c910401	0.017702105
90	0x3db00953	0.085955285
91	0xbc9bc1c9	-0.019013302
92	0x3d968497	0.07349508
93	0xbd2d37f0	-0.042289674
94	0xbd215a56	-0.03939279
95	0xbd75b330	-0.05998534
96	0xbe483abe	-0.19553658
97	0xbe368bf9	-0.17826833
98	0xbc5651a1	-0.013080985
99	0xbd38e53b	-0.045140486
100	0x3cf50f86	0.029914629
101	0x3d724ec7	0.05915716
102	0xbca172ff	-0.019708155
103	0x3d24a3ec	0.04019539
104	0xbb0f0c31	-0.0021827335
105	0xbcda2056	-0.026626747
106	0xbdb33877	-0.08751004
107	0x3d97c082	0.07409765
108	0xbe1595d9	-0.14607944
109	0xbe10b122	-0.14130071
110	0xbd5195ed	-0.05116837
111	0x3c143f75	0.009048332
112	0xbc0d71b2	-0.008633064
113	0xbca74c7c	-0.020422213
114	0xbdbda687	-0.09260278
115	0xbe7bbcba	-0.24583712
116	0x3c89b39a	0.016809274
117	0xbc954704	-0.01822234
118	0xbd3df883	-0.046379577
119	0x3d5ffdd6	0.054685436
120	0xbe27b65b	-0.16378157
121	0xbcc85fff	-0.024459837
122	0x3d0475fe	0.03233909
123	0xbe3fa631	-0.1871574
124	0x3d9c7ee7	0.07641392
125	0x3d4d1418	0.05006799
126	0x3d689c2c	0.056789562
127	0xbe12ca77	-0.14335047
128	0x3cf6c1f2	0.030121777
129	0xbd710ada	-0.05884824
130	0xbd8df710	-0.06931889
131	0x3cce83e1	0.02520937
132	0xbe91d1d4	-0.284804
133	0x3d4d92ea	0.050188936
134	0x3d3457c8	0.044029027
135	0xbe13bdf6	-0.14427933
136	0xbe806595	-0.250775
137	0xbd5549ec	-0.05207245
138	0xbe87d1e4	-0.2652732
139	0xbdc1073f	-0.0942521
140	0x3bf98071	0.0076141884
141	0xbe53f960	-0.20700598
142	0xbe44f4ec	-0.19234055
143	0xbe266886	-0.1625081
144	0xbe0bd72f	-0.13656305
145	0x3c529529	0.012852945
146	0x3cd90d33	0.026495552
147	0x3ceda74b	0.029010436
148	0xbe59dad0	-0.21274877
149	0x3d1ef1cd	0.038804818
150	0xbd302987	-0.043008354
151	0xbd75a077	-0.059967484
152	0xbd87d31a	-0.06632061
153	0xbe8f1a23	-0.27949628
154	0x3c6322e6	0.013863301
155	0x3ce49474	0.02790282
156	0xbe0ddaae	-0.13852951
157	0xbe23ba83	-0.15989117
158	0xbd515fa9	-0.05111662
159	0x3cf638fc	0.03005647
160	0xbdd6d44e	-0.10489713
161	0x3def9a0f	0.11699306
162	0xbe0324f1	-0.12807061
163	0x3d93200e	0.07183848
164	0xba21e01a	-0.00061750563
165	0xbe04ea36	-0.1297997
166	0xbc7b3e0c	-0.015334617
167	0x3d3f8eb1	0.04676694
168	0xbc10978e	-0.008825196
169	0x3b8e1edd	0.0043371753
170	0x3d065dec	0.032804415
171	0xbcf4b467	-0.029871179
172	0xbe41033b	-0.18848889
173	0x3ba07872	0.0048971707
174	0xbe6c958e	-0.23103926
175	0x3c0155ad	0.007893962
176	0xbe20e848	-0.15713608
177	0xbca07641	-0.019587638
178	0xbd4cfae5	-0.05004396
179	0x3b6b93de	0.003594629
180	0xbe84012c	-0.25782144
181	0xbe05ce5d	-0.13067003
182	0xbc0e3f92	-0.0086821485
183	0xbb363834	-0.0027804496
184	0xbe2b9be7	-0.16758691
185	0x3c4e68d0	0.012598231
186	0xbe4b7d43	-0.19872002
187	0x3d428454	0.04748948
188	0x3d8b0e4f	0.067898385
189	0xbdf4f651	-0.119610436
190	0xbd57fbd6	-0.052730404
191	0xbcb5f7ff	-0.02221298
192	0xbb33297c	-0.002733796
193	0xbc90c985	-0.017674217
194	0xbc03ae8f	-0.0080372235
195	0x3d098c2c	0.033580944
196	0xbda9ccc9	-0.08291013
197	0x3c8462e4	0.016160436
198	0x3d869643	0.06571629
199	0xbd3dd1a0	-0.046342492
200	0xbd0242d3	-0.03180201
201	0x3d3c0583	0.045903694
202	0xbca3ca83	-0.019994026
203	0xbd6680e2	-0.056275256
204	0xbd994dbf	-0.07485532
205	0xbcac68c0	-0.021046042
206	0x3d8b9e12	0.06817259
207	0x3d3ddccc	0.046353146
208	0xbd9d5528	-0.07682258
209	0xbdc4f254	-0.09616533
210	0xbd1d4ec7	-0.038405206
211	0x3d35d2e5	0.044390578
212	0x3ce9a8d2	0.028522883
213	0xbd13514b	-0.0359662
214	0xbca09f27	-0.01960714
215	0xbba3241a	-0.004978669
216	0x3d9e0afa	0.07716937
217	0xbe06e5c3	-0.13173585
218	0xbd915db1	-0.07097948
219	0xbd7c9c53	-0.06167252
220	0xbd1420f8	-0.036164254
221	0x3d4c9caf	0.049954113
222	0xbbb0584f	-0.005381621
223	0x3c9d7c48	0.019224301
224	0xbc46fc15	-0.012145062
225	0xbc6a4c0e	-0.014300359
226	0x3da22b2c	0.07918391
227	0x3d2cfbf0	0.042232454
228	0x3d576732	0.05258865
229	0x3d8fd615	0.07023255
230	0xbcff6864	-0.031177707
231	0x3addccbd	0.0016921979
232	0xbc1f3529	-0.009717264
233	0x3d1abb04	0.03777601
234	0x3cc6bb91	0.02425936
235	0xbdc3384d	-0.09532223
236	0xbce946fe	-0.028476235
237	0x3de5e815	0.11225907
238	0xbd8256df	-0.063642256
239	0x3ccc2fb5	0.024925092
240	0x3d6e23b9	0.058139537
241	0x3cef7c80	0.02923417
242	0xbdacb054	-0.084320694
243	0x3de915f2	0.11381139
244	0x3c27052e	0.010194106
245	0xbdc7e1c2	-0.09759857
246	0xbbf27478	-0.007399138
247	0x3c8ad034	0.016944982
248	0x3c849378	0.0161836
249	0x3dad9bcd	0.08476982
250	0xbe08d97e	-0.13364217
251	0xbe34d9b0	-0.17661166
252	0xbdb7c8e6	-0.08973865
253	0x3c8bbd91	0.017058166
254	0xbb76bc4b	-0.0037648852
255	0x3d532bd4	0.05155547

conv6.weight f4 [64, 64, 3]
0	0x3d758731	0.05994338
1	0xbd53ed6b	-0.05174009
2	0x3c3f872e	0.011689944
3	0xbdf1f173	-0.11813631
4	0x3d2f9ff8	0.042877167
5	0x3d862438	0.06549877
6	0xbd08191e	-0.03322708
7	0x3bd979ea	0.0066368477
8	0x3cd6b9af	0.026211588
9	0xbe066cbd	-0.13127418
10	0x3d6461f4	0.055757478
11	0x3d4c7971	0.049920503
12	0xbdf69047	-0.120392375
13	0xbd94fce6	-0.07274799
14	0x3d3b0be9	0.045665655
15	0xbdcc88a4	-0.09987
16	0x3d7acf0b	0.061232608
17	0x3c0bf373	0.00854193
18	0xbdd4117b	-0.10354897
19	0xbd8470aa	-0.064668015
20	0x3cc5426c	0.024079524
21	0xbd4fd6bd	-0.0507419
22	0xbd0ea956	-0.03482946
23	0x3d3bc399	0.045840833
24	0xbea11b64	-0.3146621
25	0x3c82e24f	0.015977053
26	0x3dc4bc9e	0.096062884
27	0xbe73d15f	-0.23810337
28	0xbd19b629	-0.037527237
29	0x3b83c31b	0.004021061
30	0xbe17fa7a	-0.14841643
31	0xbbaefe26	-0.0053403554
32	0x3d386b93	0.045024466
33	0xbe6aa190	-0.22913194
34	0x3c697cb4	0.014250923
35	0x3d7de891	0.06198937
36	0xbe43dce7	-0.19127236
37	0x3c1928b1	0.0093480805
38	0xbdbd40b3	-0.09240856
39	0xbe540ab9	-0.20707215
40	0xbd4e18bd	-0.05031656
41	0x3cdedaf6	0.027204018
42	0xbe054db6	-0.13017926
43	0xbd9eb92c	-0.077501625
44	0x3d69947d	0.057026375
45	0xbe70ca9c	-0.2351479
46	0xbc876383	-0.016526943
47	0x3da61050	0.0810858
48	0x3d9e6106	0.077333495
49	0x3e0fa825	0.14028986
50	0x3be15488	0.006876532
51	0xbe22c6ca	-0.15896145
52	0xbcb43021	-0.021995606
53	0x3cf06ad0	0.029347807
54	0x3d488420	0.04895413
55	0xbc2c9bf1	-0.010535226
56	0x3c9164ad	0.017748201
57	0xbe555626	-0.20833644
58	0x3df82f49	0.12118394
59	0x3dabf4cc	0.08396301
60	0xbd9a7f8f	-0.07543861
61	0xbd1fe79d	-0.039039243
62	0x3cec2b33	0.028829193
63	0xbd83d793	-0.06437602
64	0xbd357d69	-0.044309054
65	0x3d417385	0.04722931
66	0x3d46ba9d	0.048517812
67	0x3d4d09b3	0.050058078
68	0x3d283af6	0.041071855
69	0xbe3e87de	-0.18606517
70	0x3da8816c	0.0822781
71	0x3cee954e	0.029123928
72	0xbe6432be	-0.22284982
73	0xbd8c9252	-0.06863846
74	0x3db91e85	0.09039024
75	0xbe05d5eb	-0.13069884
76	0xbd80f238	-0.062961996
77	0x3d8cea26	0.06880598
78	0xbe38e473	-0.18055896
79	0xbd1a6b8e	-0.03770023
80	0x3d85f74d	0.065413095
81	0x3a32b112	0.00068165467
82	0xbcc3d818	-0.023906752
83	0x3d693f78	0.056945294
84	0xbcd10e3d	-0.025519485
85	0x3bc7625b	0.006084723
86	0xbd5d2203	-0.053987514
87	0xbc0756ac	-0.00826041
88	0xbc8b0f3b	-0.016975036
89	0xbd6ae0be	-0.057343237
90	0xbdd28a96	-0.102803394
91	0x3da0ccec	0.07851586
92	0xbd0751ea	-0.033037104
93	0xbe2000e6	-0.15625343
94	0x3c975522	0.018473212
95	0x3da82108	0.08209425
96	0xbd11d885	-0.03560688
97	0xbd800ac5	-0.06252054
98	0x3d4097fa	0.047019936
99	0x3d04715f	0.03233468
100	0x3d2a366d	0.04155581
101	0x3d3e21e9	0.046419058
102	0xbe01b1c9	-0.12665476
103	0x3b1e6646	0.0024169846
104	0xbb21b071	-0.0024671818
105	0xbe425621	-0.18978168
106	0x3ccf2221	0.025284829
107	0xbccc2e2a	-0.024924356
108	0x3de3af96	0.11117475
109	0x3db6635d	0.08905671
110	0x3d184c25	0.037181992
111	0xbe387372	-0.18012789
112	0xbda5c20b	-0.080936514
113	0xbce05aed	-0.027387107
114	0xbe55170a	-0.2080957
115	0xbc51e52b	-0.012810986
116	0x3c161687	0.009160644
117	0x3c33ebdd	0.010981527
118	0xbd398076	-0.045288526
119	0x3c13d541	0.009023012
120	0xbdc86f03	-0.09786799
121	0xbdb4d60b	-0.08829888
122	0xbd163c67	-0.036678698
123	0xbe540735	-0.20705874
124	0xbde3dd77	-0.111262254
125	0x3cd80053	0.026367342
126	0xbe17934b	-0.14802282
127	0x3e3f44eb	0.18678634
128	0x3d950e86	0.07278161
129	0xbe7238c1	-0.23654462
130	0x3c1314ae	0.008977098
131	0x3dd25113	0.1026937
132	0xbec489a7	-0.3838627
133	0x3ca6f6a6	0.020381283
134	0x3d8bd4b0	0.06827676
135	0x3e188dff	0.14897917
136	0xbda9e98b	-0.08296498
137	0x3d32dc74	0.04366727
138	0x3dcc3f45	0.09973005
139	0xbcf04f3b	-0.029334655
140	0x3ce53f44	0.027984269
141	0xbdad1148	-0.08450562
142	0xbc6b7785	-0.014371757
143	0x3c4cb04e	0.012493206
144	0x3c0e5ed9	0.008689606
145	0xbdac3c74	-0.08409968
146	0xbdb63bf4	-0.08898154
147	0xbec01363	-0.3751479
148	0x3db201e3	0.08691766
149	0x3cbe95b0	0.023264736
150	0x3d1c01e4	0.03808774
151	0x3d8b5dd1	0.068050034
152	0x3dcadf22	0.099058405
153	0xbe458d4b	-0.1929218
154	0xbc09ecc0	-0.008418262
155	0xbd4f148c	-0.050556704
156	0xbdbc89b9	-0.09205956
157	0x3c8fc7e2	0.017551366
158	0x3d4dd1cb	0.050248902
159	0x3c20a78c	0.009805571
160	0xbd83ce73	-0.064358614
161	0x3d410dd6	0.047132336
162	0xbe3f82b5	-0.18702205
163	0xbdd49116	-0.103792354
164	0x3d5ac632	0.05341167
165	0xbd11f521	-0.035634164
166	0xbbfa6df7	-0.0076425034
167	0x3c0497af	0.008092805
168	0x3e25bc0c	0.16185015
169	0x3cd968f0	0.026539296
170	0x3c98c173	0.018646931
171	0x3c7a04db	0.015259947
172	0x3bbbc6a3	0.0057304665
173	0x3b834394	0.0040058587
174	0xbd04e991	-0.03244931
175	0xbd87a396	-0.066229984
176	0x3c27801b	0.010223414
177	0xbe299f12	-0.16564587
178	0xbdbea6f9	-0.09309191
179	0x3c195f43	0.009361091
180	0xbda305b9	-0.07960076
181	0x3b823c9b	0.00397451
182	0xbb1b092c	-0.002365659
183	0xbe680575	-0.22658332
184	0x3dca3205	0.09872822
185	0xba6db5e5	-0.0009067937
186	0xbe81c214	-0.25343382
187	0x3bf7470d	0.0075463117
188	0x3cb9e8ef	0.02269408
189	0xbdf2e7b1	-0.11860598
190	0x3b5cbae7	0.0033680738
191	0xbd73125f	-0.059343692
192	0xbc4cb17b	-0.0124934865
193	0xbd98568a	-0.07438381
194	0x3e3ec599	0.18630065
195	0xbba09629	-0.004900713
196	0xbdf713c5	-0.120643176
197	0x3ce9cae3	0.028539127
198	0x3c690a13	0.014223593
199	0xbc694a03	-0.014238837
200	0x3cfeb24c	0.031090878
201	0xbc9d43c9	-0.019197362
202	0x3c8ab323	0.016931122
203	0xbdbd90a1	-0.092561014
204	0xbc26bd1a	-0.010176921
205	0x3e0193a7	0.12653981
206	0x3d738276	0.05945059
207	0x3cb85fd1	0.022506626
208	0xbbbd046d	-0.00576835
209	0x3e33eda8	0.17571127
210	0x3d9363e8	0.0719679
211	0x3d453f4f	0.04815608
212	0x3d995aed	0.07488046
213	0xbd96a8d9	-0.07356424
214	0xbcdcc74d	-0.026950503
215	0x3d3785db	0.04480539
216	0x3bc76e01	0.0060861115
217	0x3c0a5a93	0.008444446
218	0x3e13bfce	0.14428636
219	0x3e094712	0.13406017
220	0x3cb73f02	0.022368912
221	0xbb437b33	-0.002982807
222	0xbcd4ff85	-0.026000747
223	0x3d3ba5c7	0.045812394
224	0x3da2711a	0.07931729
225	0xbacb236d	-0.0015498229
226	0xbd01fd6e	-0.03173583
227	0x3d810ffa	0.063018754
228	0x3d2e63e6	0.04257574
229	0x3e0e4e0b	0.13896959
230	0x3d803f38	0.06262058
231	0xbd526062	-0.05136145
232	0xbca6bbc7	-0.020353211
233	0x3c4c898a	0.012483964
234	0x3d15a290	0.036531985
235	0x3c2b6e05	0.010463242
236	0x3c822eb8	0.015891418
237	0x3ce8844d	0.028383398
238	0x3cc92f7d	0.024558777
239	0x3d95509f	0.07290768
240	0xbb90a26f	-0.004413895
241	0x3e3a69fa	0.1820449
242	0xbdc92248	-0.09820992
243	0x3d223161	0.039597873
244	0xbd88d4f9	-0.06681246
245	0x3bab4c84	0.005227627
246	0xbd2b9831	-0.041893188
247	0x3d1381b3	0.036012363
248	0x3d550534	0.052006915
249	0xbd48dfbe	-0.049041502
250	0xbd33e6a6	-0.043921135
251	0x3d9bf9a6	0.07615976
252	0x3cf93553	0.030420935
253	0xbe123dee	-0.14281437
254	0x3a833d29	0.0010012734
255	0x3d06e1d4	0.03293021

conv7.weight f4 [64, 64, 4]
0	0xbda1005e	-0.07861398
1	0x3c4ac3f5	0.012375821
2	0xbc2cad4a	-0.010539362
3	0xbd8290a1	-0.06375242
4	0x3cad959d	0.021189505
5	0xbb1a695a	-0.002356133
6	0x3c7366e4	0.014856074
7	0xbe17ceaa	-0.1482493
8	0x3d7f20e8	0.06228724
9	0xbc000413	-0.007813471
10	0x3c4b8517	0.012421868
11	0x3c86d945	0.016461024
12	0xbd505c5d	-0.050869334
13	0xbb41749b	-0.0029518965
14	0xbdfa5b26	-0.122244164
15	0xbd9f6b4d	-0.07784138
16	0xbda7968d	-0.08183012
17	0xbdfe214c	-0.124086946
18	0x3dc218c1	0.09477378
19	0xbd8fe12d	-0.07025371
20	0xbcf68bca	-0.030095953
21	0xbdc925d6	-0.0982167
22	0xbdb0efc2	-0.0863948
23	0xbe466fe4	-0.1937862
24	0xbe1fd919	-0.1561016
25	0x3cc6a7c5	0.02424992
26	0xbd149ece	-0.03628426
27	0xbd06ae3b	-0.032881003
28	0x3d1a6f8f	0.037704047
29	0xbde76cd2	-0.11300053
30	0xbcf4b9b0	-0.029873699
31	0xbcb03495	-0.021509448
32	0xbd318bda	-0.043346263
33	0x3ccd186b	0.025036057
34	0x3db12d43	0.08651211
35	0x3bd5daae	0.006526313
36	0xbcb2d280	-0.02182889
37	0xbd7b413c	-0.06134151
38	0xbda98291	-0.08276857
39	0xbda2c6a9	-0.07948048
40	0x3b7ded83	0.0038746304
41	0xbd1db4ec	-0.03850262
42	0xbe04ba73	-0.1296175
43	0x3db0f7d4	0.086410195
44	0x3e4c69f7	0.19962297
45	0xbd37495b	-0.04474769
46	0xbdab467f	-0.083630554
47	0xbd212b2f	-0.039347824
48	0xbe8cdf12	-0.2751394
49	0x3c61936f	0.013768061
50	0x3dc987b4	0.098403364
51	0xbcdf107c	-0.02722954
52	0xbd6df353	-0.05809338
53	0xbb657ab5	-0.0035015766
54	0xbea56b74	-0.32308543
55	0xbc61d7f7	-0.0137844
56	0x3dde47d9	0.108535476
57	0xbdc56346	-0.096380755
58	0xbdf85b69	-0.1212681
59	0xbdf182ab	-0.11792501
60	0x3cedb6e1	0.029017868
61	0x3e12203a	0.14270106
62	0xbc53a03b	-0.01291662
63	0xbdcdad0a	-0.1004277
64	0x3d21004d	0.039306927
65	0xbe0c0470	-0.13673568
66	0xbd97a916	-0.074052975
67	0xbc09bbb8	-0.008406572
68	0xbdd29148	-0.102816164
69	0xbd1a6954	-0.037698105
70	0x3c2cfb23	0.010557923
71	0x3cf2c01a	0.029632617
72	0xbdab2525	-0.08356694
73	0xbca466b7	-0.02006851
74	0xbd9307dc	-0.071792334
75	0xbce7b0d4	-0.02828256
76	0xbd80495c	-0.06263992
77	0xbc7df86b	-0.015501122
78	0x3bc0fd65	0.005889582
79	0x3dc82121	0.09771944
80	0xbca3c2d6	-0.019990366
81	0xbd54a9fa	-0.051919915
82	0xbe263cec	-0.16234177
83	0x3bc32d47	0.005956325
84	0xbb953086	-0.0045529036
85	0xbd0f0060	-0.034912467
86	0xbd58dfbb	-0.05294774
87	0xbd3c88fd	-0.04602908
88	0xbb4a1043	-0.0030832447
89	0xbd4174fa	-0.0472307
90	0xbcbab0ca	-0.022789378
91	0xb9f625b8	-0.0004694888
92	0x3d937616	0.072002575
93	0xbca61d3b	-0.02027761
94	0x3d9703d2	0.073737755
95	0x3db64ef2	0.089017764
96	0xbd795ecd	-0.060881425
97	0xbdc41187	-0.095736556
98	0xbd12a807	-0.035804775
99	0xbe0399ca	-0.12851635
100	0xbda07b03	-0.078359626
101	0x3d93938a	0.07205875
102	0x3db5abcb	0.088706575
103	0x3be11ec4	0.0068701226
104	0xbc452d3e	-0.012034712
105	0x3c9f6dc9	0.01946153
106	0x3ba0fc3a	0.0049128802
107	0xbb9e934b	-0.004839336
108	0x3d88cc02	0.066795364
109	0xbc462be9	-0.01209543
110	0xbcb82d82	-0.022482637
111	0xbe100cb0	-0.1406734
112	0x3d3cf90e	0.046135955
113	0xbd0b81ad	-0.034059215
114	0xbd4690e7	-0.048478033
115	0xbcd62cdb	-0.026144436
116	0x3e0e728b	0.13910882
117	0x3d8c2359	0.068426795
118	0xbd823aef	-0.06358897
119	0xbd9c0059	-0.07617254
120	0x3c2ba228	0.010475673
121	0xbd1976c9	-0.037466798
122	0xbd867b4a	-0.06566484
123	0xbd1579a0	-0.036492944
124	0x3c97960c	0.018504165
125	0xbcf83f44	-0.030303605
126	0xbd085cf6	-0.03329178
127	0xbd219a85	-0.039454002
128	0x3d005edf	0.031340476
129	0x39e386e1	0.00043397307
130	0xbdea1975	-0.11430637
131	0xbd93d3e1	-0.07218147
132	0xbdd6296b	-0.104571186
133	0xbce9947f	-0.028513191
134	0xbdd06b0d	-0.10176668
135	0xbcf12ff0	-0.029441804
136	0xbe066bd6	-0.13127074
137	0x3ca8a1b3	0.020584917
138	0xbd67e2d2	-0.056612797
139	0xbc735ee6	-0.0148541685
140	0xbc6cd67f	-0.014455437
141	0xbcdbe94b	-0.026844641
142	0xbd99cf6f	-0.07510268
143	0xbe561298	-0.2090553
144	0x3c501671	0.012700663
145	0xbcb74193	-0.022370135
146	0xbcef1528	-0.029184893
147	0xbe0d570c	-0.13802737
148	0xbcb030a3	-0.021507567
149	0x3de3fe35	0.111324705
150	0xbd99dab3	-0.07512417
151	0x3dfcefe6	0.123504445
152	0xbe946964	-0.28986657
153	0xbc684974	-0.014177669
154	0xbcc3c276	-0.023896437
155	0x3db8e8fd	0.09028814
156	0x3ccb7083	0.024833923
157	0xbbde4dfe	-0.0067841997
158	0x3d893c86	0.06700997
159	0x3d627c95	0.055294592
160	0x3e25dc05	0.16197212
161	0x3dd97e8e	0.106198415
162	0x3db0b73d	0.086287
163	0xbe0ceeeb	-0.13763015
164	0xbd69b3af	-0.057056125
165	0x3d293f7a	0.0413203
166	0x3d32316c	0.043504164
167	0xbd8809d1	-0.06642497
168	0xbe235613	-0.15950803
169	0xbc5a084f	-0.013307645
170	0xbd19891d	-0.037484277
171	0x3d65a616	0.056066595
172	0x3e15f740	0.146451
173	0x3d61c034	0.05511494
174	0x3dc4dbd0	0.096122384
175	0xbddfabdf	-0.10921454
176	0xbd06f24e	-0.032945924
177	0xbd9e402a	-0.07727082
178	0x3d108254	0.03528054
179	0x3a8e86e5	0.0010873942
180	0xbc0fed1a	-0.008784557
181	0x3c632360	0.0138634145
182	0x3cbf5f2d	0.023360813
183	0xbdc99e6e	-0.09844671
184	0xbda4e5c5	-0.080516376
185	0xbded3716	-0.115827724
186	0x3da7572e	0.08170925
187	0xbde48cf1	-0.11159695
188	0xbcf1cc56	-0.02951638
189	0xb94ccf40	-0.00019532163
190	0xbb61ebbf	-0.003447279
191	0xbd9cfec4	-0.0766578
192	0x3d6e98ac	0.058251068
193	0x3e07f583	0.13277249
194	0xbdc02e09	-0.093837805
195	0xbce973bf	-0.028497575
196	0xbdb312f8	-0.087438524
197	0xbdb17383	-0.0866461
198	0xbd52877a	-0.05139873
199	0xbc2aca9c	-0.010424282
200	0xbd6d5f8b	-0.057952445
201	0x3da77b69	0.081778355
202	0x3d84d13e	0.06485222
203	0x3db30c9b	0.08742639
204	0x3c819e16	0.015822452
205	0xbd780e23	-0.060560357
206	0xbdf6002c	-0.120117515
207	0xbe0b58fc	-0.13608164
208	0xbbef106e	-0.0072956597
209	0x3d877eff	0.066160195
210	0xbb0b24b9	-0.0021231605
211	0xbdb0f4d5	-0.08640448
212	0x3d4b2186	0.049592517
213	0x3d8e95e6	0.069621846
214	0x3db812cf	0.089879625
215	0x3da75c4b	0.081719
216	0xbe311365	-0.17292555
217	0x3c3e3456	0.011609158
218	0x3d1963c7	0.03744867
219	0x3c89c22f	0.016816227
220	0xbc3e25c0	-0.01160568
221	0x3deffb75	0.117178835
222	0x3d854415	0.06507126
223	0xbaf0ff88	-0.0018386701
224	0x3d0cb481	0.03435183
225	0xbc1187f0	-0.008882508
226	0xbd975119	-0.07388515
227	0xbe09a99a	-0.13443604
228	0x3d08cca9	0.033398304
229	0x3d369671	0.044577066
230	0xbd5c4ae5	-0.053782362
231	0xbdb239b9	-0.08702416
232	0xbb827b79	-0.0039820042
233	0x3d1274a2	0.03575576
234	0x3d1cf3c8	0.038318425
235	0xbd081cca	-0.03323058
236	0xbdbf7d41	-0.09350062
237	0x3e01585a	0.1263136
238	0x3d8dcf4e	0.06924306
239	0xbd50c16d	-0.050965715
240	0xbe1ffce3	-0.15623812
241	0x3df81c56	0.1211478
242	0xbe72b084	-0.23700148
243	0xbe2adf5a	-0.16686764
244	0xbdafe69b	-0.085889064
245	0x3d263b22	0.040583737
246	0x3d5a7b8d	0.053340483
247	0x3dba0db7	0.09084647
248	0xbd95259f	-0.07282566
249	0xbd900d27	-0.070337586
250	0x3d8b8472	0.06812371
251	0x3d2208dc	0.03955923
252	0xbcd3dabf	-0.025861142
253	0x3c9859ac	0.018597446
254	0xbc650099	-0.013977193
255	0xbda57653	-0.08079209
