models/trained/GAN_unet_generator_100kdata_300epoch_08_20_20.pth (torch_old, 289553 bytes, 9 tensors)

conv1.weight f4 [32, 1, 5]
-0.049882688 0.053134587 -2.2005475 -0.26572928 0.04322081 -0.011594514 -0.012457023 -0.006567739
-0.021490838 -0.00726288 -0.6404374 0.15695353 -0.0064501404 -0.101472124 0.21211006 -0.00037708975
-0.009365756 -0.030097617 -0.020272013 -0.00019167643 0.081512876 -4.4603405 -3.2552326 -4.6209874
0.09765435 -0.0113053555 0.23844664 0.103267185 0.0052143005 -0.0111014685 0.21793066 -0.042716064
-0.005489476 0.03543488 -0.4073751 -0.014049719 0.008950457 -0.06706526 0.08597574 0.108517915
-0.055311557 -0.08515668 0.19170897 -0.023758398 -0.00967249 0.081680655 -0.031642843 -0.6963603
-3.2082255 0.05499143 -0.011792331 -0.09291465 0.16833599 -0.22685608 -0.10443614 0.026229586
0.004344341 -0.04039263 -0.086684465 0.15400444 0.07351294 -0.00083389255 0.013428112 -1.5854236
0.011042817 -0.03273144 0.13290262 -1.0804204 -3.1985688 0.08241293 0.05088999 -3.7597234
-2.7351353 -3.6002386 0.06431713 -0.059540126 0.042400263 -0.11149427 0.051674966 -0.042630985
-0.08239158 -0.2911017 -1.8225832 -0.059963718 0.011863057 0.11045859 -0.04720714 -0.014846224
-0.012492953 -0.014589992 0.0334254 0.010349959 0.02023786 -0.053571373 0.069481626 -0.019113537
-0.0017139578 -0.029953102 -0.01814715 -0.009048708 -0.082458735 -0.053935893 -0.08438889 0.23667008
-0.17025194 0.012662723 0.08488732 0.029144915 0.056597397 -0.04910912 -0.06637671 -0.031117236
0.1073419 0.036427617 0.035580564 0.025323838 -0.021062689 0.05036436 0.22736292 0.046286143
0.030990211 -0.05073717 0.103835784 -0.018286545 -0.080347516 -0.0042563006 -0.006629625 -0.004045197
-0.022902824 -0.011429121 -0.056094132 0.053772036 -0.10985757 0.13260578 -0.11498532 -0.050179962
0.059123166 -0.43365106 -0.19788872 -0.5186438 0.0494076 -0.015498293 -0.875522 -3.6308374
0.030562036 -0.058285903 -0.11209191 0.23443735 -0.011535245 -0.034912053 -0.064714275 0.09904441
-0.33051413 -0.21457438 -0.18841265 -0.12002055 0.16311921 0.19752449 -0.059305195 -0.104111195
00000000: ca51 4cbd a7a3 593d c5d5 0cc0 ab0d 88be
00000010: 4e08 313d ebf6 3dbc 8b18 4cbc 3036 d7bb
00000020: 8e0d b0bc 74fd edbb b5f3 23bf 6db8 203e
00000030: b35b d3bb 9ed0 cfbd 6133 593e 21b4 c5b9
00000040: d472 19bc 478f f6bc 7e11 a6bc c0fc 48b9
00000050: 39f0 a63d 1cbb 8ec0 bb55 50c0 21df 93c0
00000060: 01ff c73d 193a 39bc 5b2b 743e bf7d d33d
00000070: b9dc aa3b efe2 35bc 3729 5f3e 0af7 2ebd
00000080: 10e1 b3bb 2a24 113d 7893 d0be cb30 66bc
00000090: f0a4 123c 8359 89bd 0c14 b03d a43e de3d
000000a0: 5f8e 62bd a066 aebd 5b4f 443e f9a0 c2bc
000000b0: 5d79 1ebc 3048 a73d ed9b 01bd ab44 32bf
000000c0: 9153 4dc0 b23e 613d 9f34 41bc 094a bebd
000000d0: 4560 2c3e f64c 68be 9de2 d5bd 6edf d63c
000000e0: f95a 8e3b be72 25bd a087 b1bd 57b3 1d3e
000000f0: f48d 963d 9599 5aba 9501 5c3c 29ef cabf
00000100: eeec 343c 6711 06bd a017 083e 374b 8abf
00000110: 5ab5 4cc0 1cc8 a83d 0672 503d 4f9f 70c0
00000120: 750c 2fc0 4f6a 66c0 b3b8 833d 59e0 73bd
00000130: e6ab 2d3d 1c57 e4bd 21a9 533d d49d 2ebd
00000140: ebbc a8bd 480b 95be 684a e9bf 849c 75bd
00000150: 445d 423c 1d38 e23d 465c 41bd 943d 73bc
00000160: 3eaf 4cbc dd0a 6fbc 12e9 083d e092 293c
00000170: dec9 a53c a86d 5bbd 624c 8e3d fe93 9cbc
00000180: e1a6 e0ba 3560 f5bc 55a9 94bc 0841 14bc
00000190: 20e0 a8bd e2eb 5cbd 15d4 acbd a459 723e
000001a0: 8656 2ebe 4f77 4f3c 67d9 ad3d 51c1 ee3c
000001b0: acd2 673d a526 49bd 83f0 87bd 93e9 febc
000001c0: 12d6 db3d 2035 153d edbc 113d f073 cf3c
000001d0: a98b acbc dc4a 4e3d d3d1 683e 8a96 3d3d
000001e0: 2fdf fd3c c7d1 4fbd dba7 d43d aacd 95bc
000001f0: 3d8d a4bd 7078 8bbb 533d d9bb 928d 84bb
00000200: b49e bbbc 3541 3bbc f6c2 65bd 1140 5c3d
00000210: 01fd e0bd cfc9 073e 6c7d ebbd 8189 4dbd
00000220: 222b 723d 8307 debe 57a3 4abe d7c5 04bf
00000230: a05f 4a3d 8dec 7dbc 3622 60bf a45f 68c0
00000240: 3c5d fa3c 33bd 6ebd 7190 e5bd 5810 703e
00000250: 53fe 3cbc f1ff 0ebd eb88 84bd ccd7 ca3d
00000260: 2639 a9be 63b9 5bbe 3fef 40be 56cd f5bd
00000270: b908 273e dc43 4a3e 01ea 72bd 4038 d5bd

conv2.weight f4 [32, 32, 3]
0.1825275 -0.44543573 -0.009907841 -0.014699409 0.027599892 0.017352613 0.086285055 -0.6468075
-0.10900738 0.032549 -0.041055106 -0.048660897 0.19439247 0.113252886 0.017627394 0.014774562
-0.005367322 0.050680857 -0.08161321 0.006380119 -0.052893847 0.15232684 -0.19325684 -0.10480255
0.021804847 0.0030494337 0.009018092 0.061891824 0.06402343 -0.096029855 -0.02523808 -0.08753669
-0.2628927 0.05912161 -0.18772945 -0.10561682 -0.03623265 -0.057315115 -0.09695555 0.18237251
-0.28695306 -0.0598564 0.12971853 0.017351873 0.024126356 0.14300096 -0.014937914 -0.031065043
0.102334216 -0.15890163 -0.018690238 -0.009427003 -0.042775247 0.00077388575 0.064292245 -0.1809406
-0.09785724 -0.0041179084 0.023624947 -0.0035118049 0.10999443 0.031994015 -0.24133654 0.03069337
0.025205655 -0.0349255 0.13505515 -0.09161065 -0.060343225 0.16779684 -0.0095976 -0.022208625
-0.04607217 0.013962171 -0.027943222 -0.011598017 0.025318937 -0.034680698 0.1131424 0.060554873
-0.20961025 0.11104407 -0.006495037 -0.13777071 0.033318326 0.04611582 -0.08626707 0.05331972
0.041078918 -0.011472568 0.062695496 -0.052601166 -0.09443637 0.036563814 0.19148864 0.042360354
-0.29533908 -0.23965435 0.05843941 -0.0039542033 0.010024421 -0.005881501 -0.23158441 -0.096693635
0.06132048 0.0026642743 -0.01654427 -0.04028908 0.045020614 0.15141359 0.04795871 -0.10498065
-0.065123074 0.1078678 0.11101766 0.05096792 0.055562526 -0.13050765 -0.024340825 0.018941341
-0.18760465 0.09766493 0.07295164 0.10714833 0.09644358 0.046816807 0.09854144 -0.015907764
0.044942908 0.007626867 -0.07564292 0.05596956 0.010047122 0.05820459 0.0076704025 -0.00059876306
-0.19274499 0.0709952 -0.0028925969 0.116032876 0.016896607 -0.103134744 -0.113522686 -0.015768781
-0.035278335 -0.22767918 0.001691169 0.058018837 0.03507162 -0.039740127 -0.011587337 -0.071308814
0.0046510766 -0.01019877 -0.01727456 0.0050974074 -0.046799812 0.12631097 0.028875902 -0.020635089
0.018322146 0.024779314 -0.20326899 0.11173312 0.030701797 -0.056289494 0.046647124 -0.052453153
0.054726653 0.079380184 -0.029324172 0.02644129 0.00019762725 0.022682099 -0.024277747 -0.10355259
0.2654538 0.10783762 0.064498916 0.043919012 0.0708476 0.08353416 0.056765877 -0.2179702
0.18178616 0.102068044 -0.09319869 -0.18637775 0.06425196 -0.20940112 -0.017931042 0.20433359
0.04796942 -0.15915398 -0.040287938 -0.01570647 -0.009351515 0.009544885 -0.065057784 -0.014130146
0.14328828 0.052144744 -0.046097323 -0.0067054206 0.1122521 0.08994625 -0.110352285 0.09059202
0.12499429 0.11062651 -0.014282295 0.06131225 0.122393206 -0.12866569 -0.112794906 0.0077942302
0.16679274 -0.13930564 -0.06639465 0.0038461774 -0.02390425 -0.17316207 -0.05600218 -0.13305436
-0.01182092 -0.032609846 -0.010572557 0.105504066 -0.027399013 -0.0061368817 -0.09667536 0.011775965
-0.116802536 -0.18377146 0.023634968 -0.00559334 -0.15316522 -0.0203336 0.020410094 -0.17027482
0.15115933 -0.07787021 -0.092368536 0.02667736 -0.010666075 0.083255835 0.026514884 0.028810063
0.065024585 -0.0019650206 0.004016138 -0.022813154 -0.19180448 -0.36017537 -0.55868345 0.052810468
00000000: 7de8 3a3e 2710 e4be 7f54 22bc cad5 70bc
00000010: 2b19 e23c 1127 8e3c 38b6 b03d 2d95 25bf
00000020: 433f dfbd 1a52 053d 6629 28bd a650 47bd
00000030: d20e 473e 21f1 e73d 5367 903c 0111 723c
00000040: 5ce0 afbb bb96 4f3d d424 a7bd 5110 d13b
00000050: 38a7 58bd 91fb 1b3e 1fe5 45be b8a2 d6bd
00000060: 14a0 b23c 02d9 473b 9fc0 133c 4882 7d3d
00000070: b71e 833d 4dab c4bd 17c0 cebc 7046 b3bd
00000080: df99 86be 8029 723d 263c 40be a24d d8bd
00000090: b068 14bd 41c3 6abd a290 c6bd dcbf 3a3e
000000a0: 83eb 92be fc2b 75bd efd4 043e 8425 8e3c
000000b0: a3a4 c53c d86e 123e 27be 74bc 1e7c febc
000000c0: 9a94 d13d 1cb7 22be 451c 99bc b773 1abc
000000d0: 1935 2fbd 98de 4a3a a7ab 833d 7e48 39be
000000e0: 6069 c8bd 85ef 86bb 1b89 c13c 4f26 66bb
000000f0: c244 e13d 280c 033d ed20 77be aa70 fb3c
00000100: 177c ce3c 0b0e 0fbd e64b 0a3e 5d9e bbbd
00000110: 752a 77bd efd2 2b3e 413f 1dbc ddee b5bc
00000120: 2cb6 3cbd 97c1 643c 2fe9 e4bc 9c05 3ebc
00000130: a969 cf3c 590d 0ebd 34b7 e73d 6308 783d
00000140: 12a4 56be 136b e33d 52d4 d4bb c413 0dbe
00000150: cc78 083d f1e3 3c3d caac b0bd c765 5a3d
00000160: 5e42 283d 70f7 3bbc 7f66 803d 5274 57bd
00000170: db67 c1bd f0c3 153d 9915 443e 0d82 2d3d
00000180: af36 97be f367 75be 2a5e 6f3d 4392 81bb
00000190: 783d 243c 9bb9 c0bb 7724 6dbe 5007 c6bd
000001a0: 2f2b 7b3d 1b9b 2e3b d987 87bc 2a06 25bd
000001b0: 8967 383d 2a0c 1b3e 5a70 443d 1800 d7bd
000001c0: 3f5f 85bd cbe9 dc3d 3a5d e33d bdc3 503d
000001d0: 8895 633d cca3 05be 6966 c7bc df2a 9b3c
000001e0: 6f1b 40be 8d04 c83d ab67 953d 9570 db3d
000001f0: 3684 c53d fbc2 3f3d 18d0 c93d 0051 82bc
00000200: 0e16 383d ccea f93b adea 9abd 5640 653d
00000210: af9c 243c f067 6e3d 0058 fb3b 4ff6 1cba
00000220: f15e 45be ee65 913d b991 3dbb a5a2 ed3d
00000230: c16a 8a3c 4f38 d3bd 957e e8bd 882d 81bc
00000240: 0480 10bd bb24 69be 37aa dd3a 29a5 6d3d
00000250: 42a7 0f3d 8bc6 22bd d0d8 3dbc 5b0a 92bd
00000260: 0f68 983b be18 27bc 6183 8dbc 2708 a73b
00000270: 29b1 3fbd aa57 013e 288d ec3c eb0a a9bc
00000280: 5318 963c fdfd ca3c bf25 50be 56d4 e43d
00000290: 5682 fb3c d08f 66bd 0e11 3f3d 1ed9 56bd
000002a0: 0e29 603d 1492 a23d 3f39 f0bc 679b d83c
000002b0: 293a 4f39 cfcf b93c 20e2 c6bc 6113 d4bd
000002c0: 8fe9 873e f8d9 dc3d 0218 843d 6ce4 333d
000002d0: 8c18 913d f513 ab3d 5683 683d 9533 5fbe
000002e0: 2726 3a3e 0d09 d13d f4de bebd cfd9 3ebe
000002f0: 8896 833d 3f6d 56be 1fe4 92bc d33c 513e
00000300: 957b 443d 43f9 22be f704 25bd dbaa 80bc
00000310: 1937 19bc 2662 1c3c 043d 85bd 2182 67bc
00000320: 2aba 123e ba95 553d 8cd0 3cbd 25b9 dbbb
00000330: 6ee4 e53d bd35 b83d 6100 e2bd 4f88 b93d
00000340: 02fd ff3d 2790 e23d 4900 6abc 8e22 7b3d
00000350: 4aa9 fa3d f0c0 03be 0401 e7bd be66 ff3b
00000360: b7cb 2a3e 23a6 0ebe ebf9 87bd 2610 7c3b
00000370: d8d2 c3bc 6651 31be 8b62 65bd 673f 08be
00000380: 88ac 41bc e791 05bd 8538 2dbc 8412 d83d
00000390: e573 e0bc e517 c9bb bbfd c5bd faef 403c
000003a0: 2b36 efbd 962e 3cbe 1f9e c13c 5648 b7bb
000003b0: 58d7 1cbe a692 a6bc 1233 a73c 865c 2ebe
000003c0: 83c9 1a3e 6b7a 9fbd b72b bdbd 7b8a da3c
000003d0: c3c0 2ebc 0982 aa3d be35 d93c 1503 ec3c
000003e0: 9c2b 853d 93c7 00bb cf99 833b a7e2 babc
000003f0: 6568 44be e868 b8be e105 0fbf ca4f 583d

conv3.weight f4 [64, 32, 3]
0.115149826 0.099070944 0.011753399 0.15238832 0.39332387 0.046377264 -0.0025347928 0.00370243
0.0078147575 0.20376877 0.38374117 0.20828812 0.02643254 0.31413084 0.16466713 -0.1342971
-0.0065937056 0.0323118 0.021537174 0.24612619 0.15668151 0.20352118 0.20447497 0.26136553
-0.11899587 -0.05297328 0.057593808 -0.12506628 0.20771006 -0.029587619 -0.09525168 0.010573717
0.046301153 -0.09616965 0.053896822 0.017414665 0.011798409 0.0043576714 0.06569297 0.048507735
0.050659753 0.07009295 -0.018719863 0.14669628 0.13292335 -0.06866983 0.122593984 0.017966118
0.20242079 0.44074178 0.2404794 -0.06924885 -0.04683311 -0.027654544 0.03151523 0.04835253
0.04619937 0.39728677 0.393592 0.03906647 0.022270562 0.06685259 0.10951505 -0.025437182
0.0044591622 -0.043702774 -0.18774877 -0.024903525 -0.07476325 0.027678942 0.056623973 0.14831713
-0.15506467 0.033569816 -0.016916024 -0.09025007 0.016844299 0.055023346 -0.010270499 -0.026468545
0.042552527 0.06084888 0.06513684 0.16047464 -0.144994 0.017257698 -0.117263846 -0.15446156
-0.0023769583 -0.15349633 0.076340705 0.009087461 0.12782107 0.18241951 0.15461794 0.16946721
-0.016578123 0.03594147 -0.1732748 0.062901385 -0.021335991 -0.024651878 -0.25418365 -0.039631184
0.05010948 -0.050357156 0.23155507 0.042171404 -0.08171393 -0.019960979 -0.006193295 -0.24136834
-0.050160956 0.064341545 -0.023441851 0.11717009 0.018297022 0.16638224 -0.0481328 -0.0029520032
-0.17322186 -0.020842064 0.12286918 -0.060724188 0.20094132 -0.06972722 -0.14784051 -0.06693833
0.031725504 -0.11132213 -0.013155631 -0.04167207 -0.104978286 -0.065728866 0.047556054 0.17034143
0.030829037 -0.100595735 -0.083810136 0.18189025 -0.18470564 0.09961879 0.08684261 0.018154517
-0.01588315 0.19909398 -0.021025598 0.08873335 0.068326816 -0.046219766 0.17694215 0.1601501
-0.12181816 -0.23695225 -0.33226293 -0.4285616 0.13383862 0.05010433 0.049680807 0.16975647
0.050347358 -0.08104508 0.041193202 0.07606951 -0.0236917 0.006277116 -0.060827766 0.07372301
-0.10610432 0.044665117 0.07508779 -0.1993419 -0.023600813 0.01401567 -0.012791965 -0.025381474
-0.00455437 0.11564612 -0.08268253 -0.025644857 -0.017800028 0.0009195103 -0.0683276 0.025664087
-0.00831285 -0.072272405 0.08608712 0.042776782 -0.049802862 0.07298766 -0.0009877534 0.05367902
-0.01626126 0.06916105 0.044476744 0.097327724 0.0744594 0.13276692 0.11147795 -0.03405496
-0.07451978 0.22203922 0.17608798 0.08208275 0.055902842 0.047150306 0.12903027 -0.017772797
-0.015638938 -0.016463123 0.020240577 0.11436626 0.1140881 0.18698293 0.19283955 0.16836582
-0.063298084 -0.073949136 0.06877556 0.03466539 -0.11135036 -0.05970997 0.058572575 0.021141032
-0.029260637 -0.054993503 -0.047207642 -0.06264844 0.1209769 0.049369887 0.06334801 0.08249161
0.06906416 0.03672579 0.028874094 0.071733676 -0.05267035 -0.0310588 -0.017566646 -0.043073297
0.25030416 0.25171134 0.14770743 -0.034813974 -0.07773438 -0.04495089 0.066527165 0.10151855
0.035904136 0.19487624 0.14492142 -0.06942051 0.10244326 0.07412337 0.045457255 -0.008544531
00000000: acd3 eb3d b5e5 ca3d 5491 403c af0b 1c3e
00000010: bf61 c93e 16f6 3d3d c41e 26bb 78a4 723b
00000020: 7809 003c c3a8 503e b979 c43e 7b49 553e
00000030: 0e89 d83c c2d5 a03e 809e 283e 2e85 09be
00000040: 0310 d8bb 6159 043d ba6e b03c 8108 7c3e
00000050: 1e71 203e db67 503e e361 513e b4d1 853e
00000060: 1bb4 f3bd 83fa 58bd 7ce7 6b3d 6011 00be
00000070: f2b1 543e bc61 f2bc 5013 c3bd 623d 2d3c
00000080: 47a6 3d3d 98f4 c4bd eac2 5c3d 33a9 8e3c
00000090: 1d4e 413c ccca 8e3b 098a 863d 0cb0 463d
000000a0: 9a80 4f3d e48c 8f3d 665a 99bc 8d37 163e
000000b0: 0f1d 083e c5a2 8cbd 8e12 fb3d ae2d 933c
000000c0: 6547 4f3e e8a8 e13e 3b40 763e 57d2 8dbd
000000d0: 13d4 3fbd c88b e2bc 1d16 013d 4d0d 463d
000000e0: 8d3b 3d3d 2c69 cb3e e484 c93e 2a04 203d
000000f0: c170 b63c 03ea 883d 6d49 e03d a361 d0bc
00000100: 2a1e 923b ae01 33bd 3741 40be 7a02 ccbc
00000110: 7a1d 99bd f3be e23c 8aee 673d 72e0 173e
00000120: 46c9 1ebe 8180 093d 7993 8abc 07d5 b8bd
00000130: 0efd 893c 2960 613d 9845 28bc 90d4 d8bc
00000140: 8f4b 2e3d ad3c 793d 7766 853d 7753 243e
00000150: 4f79 14be 0460 8d3c 0728 f0bd 2c2b 1ebe
00000160: bec6 1bbb 242e 1dbe 8458 9c3d 93e3 143c
00000170: 87e3 023e 2ecc 3a3e 2a54 1e3e d088 2d3e
00000180: d8ce 87bc 5d37 133d f36e 31be 71d2 803d
00000190: d1c8 aebc bcf2 c9bc 5c24 82be 4f54 22bd
000001a0: 993f 4d3d 4e43 4ebd c61c 6d3e ecbb 2c3d
000001b0: a259 a7bd 3585 a3bc 20f1 cabb 4329 77be
000001c0: 9375 4dbd 80c5 833d 2009 c0bc dff6 ef3d
000001d0: a3e3 953c 1b60 2a3e e626 45bd 6576 41bb
000001e0: 1261 31be fabc aabc d6a2 fb3d edb9 78bd
000001f0: 90c3 4d3e 25cd 8ebd 8163 17be f716 89bd
00000200: 9af2 013d dbfc e3bd b78a 57bc 55b0 2abd
00000210: dbfe d6bd db9c 86bd 23ca 423d fc6d 2e3e
00000220: 2d8d fc3c 2305 cebd a6a4 abbd 7041 3a3e
00000230: 7a23 3dbe f004 cc3d 8ada b13d c8b8 943c
00000240: 611d 82bc 4bdf 4b3e e03d acbc d5b9 b53d
00000250: eeee 8b3d f050 3dbd 5330 353e 63fe 233e
00000260: cd7b f9bd 9ca3 72be 5e1e aabe 6d6c dbbe
00000270: fe0c 093e 333a 4d3d 1a7e 4b3d a4d4 2d3e
00000280: 0839 4e3d f7fa a5bd 34ba 283d 55ca 9b3d
00000290: 1915 c2bc 44b0 cd3b 8926 79bd 17fc 963d
000002a0: 394d d9bd c5f2 363d a1c7 993d 4820 4cbe
000002b0: 7e56 c1bc fba1 653c 6495 51bc cfec cfbc
000002c0: d33c 95bb dfd7 ec3d 7555 a9bd 2a15 d2bc
000002d0: 5dd1 91bc 4b0b 713a 57ef 8bbd 7e3d d23c
000002e0: 9f32 08bc 8e03 94bd 724e b03d b536 2f3d
000002f0: 16fe 4bbd 8e7a 953d 8177 81ba 88de 5b3d
00000300: 5536 85bc 4fa4 8d3d 3f2d 363d c253 c73d
00000310: 2b7e 983d 0df4 073e 8d4e e43d 377d 0bbd
00000320: d49d 98bd 405e 633e 6850 343e 001b a83d
00000330: 61fa 643d ae20 413d 8320 043e 4298 91bc
00000340: 3b1d 80bc acdd 86bc 91cf a53c dc38 ea3d
00000350: 06a7 e93d 7478 3f3e bb77 453e 1768 2c3e
00000360: 6da2 81bd a572 97bd 33da 8c3d 4cfd 0d3d
00000370: a80b e4bd 7192 74bd cce9 6f3d f52f ad3c
00000380: 01b4 efbc de40 61bd cd5c 41bd d34d 80bd
00000390: bdc2 f73d 1438 4a3d 9abc 813d 5cf1 a83d
000003a0: 8371 8d3d c86d 163d 5d89 ec3c 1be9 923d
000003b0: ddbc 57bd 066f febc ede7 8fbc a06d 30bd
000003c0: de27 803e 4fe0 803e 9e40 173e 1999 0ebd
000003d0: 3433 9fbd 6d1e 38bd 653f 883d f5e8 cf3d
000003e0: 3710 133d a38d 473e 4866 143e 572c 8ebd
000003f0: c6cd d13d fecd 973d 6331 3a3d 5cfe 0bbc

conv4.weight f4 [64, 64, 3]
-0.054469623 -0.22321396 -0.062320244 0.034490075 -0.046083815 0.104817115 -0.011736181 -0.08727763
-0.13332616 -0.027679648 -0.016628504 0.13742986 -0.04600684 0.09124151 -0.033845708 -0.08978964
-0.17447731 0.08879118 0.035356283 -0.08960206 0.13360104 -0.052753117 -0.0009927459 -0.031450488
-0.06977677 -0.15555659 -0.21417181 0.008561032 0.0115321865 -0.2019121 -0.028141579 -0.014814278
-0.028610677 0.02896514 0.06995265 0.093545385 0.040374786 -0.076659314 0.13129863 -0.048477054
-0.11698157 0.110275716 -0.055585973 -0.20033191 0.20491883 -0.010224433 -0.12198574 -0.20147516
0.04785294 -0.012413076 0.19522639 0.0652922 -0.014298942 -0.3520573 0.052809827 0.029164651
-0.16016638 0.026650306 -0.11074872 0.1678847 -0.033920083 0.124948114 -0.03547285 -0.034998298
0.10145121 0.057340793 -0.017860759 -0.037243538 -0.09920025 0.06804359 0.066999674 0.084736586
-0.017783009 0.018433979 0.05811521 -0.0112224985 -0.024060369 0.18472213 -4.48743e-05 0.057517122
-0.10820961 0.09582912 0.18640542 0.022510324 0.02759514 -0.14562005 0.067280516 -0.17034978
0.00057215925 0.12809663 0.024301788 -0.121044196 0.105271615 -0.043789048 0.016114041 0.012744623
0.02395756 -0.16231462 0.03767223 -0.09658375 0.0018140676 -0.09830769 0.09682582 -0.11371309
0.048216853 0.012590866 0.029276278 0.0051826183 -0.014012015 0.13681142 -0.009386885 0.06765108
0.036409833 -0.15387192 0.00064011046 -0.025667366 0.15823716 0.04028777 0.028030094 0.031919546
-0.06195281 -0.023195278 -0.050950397 0.059314713 0.4731243 -0.017165147 -0.019806683 -0.14287536
-0.09315855 0.011859557 -0.0029982298 -0.12442937 -0.0014344847 -0.057988666 0.25873393 -0.004467773
-0.03328463 -0.1026202 0.07401662 -0.11686801 -0.23295067 -0.06526583 -0.13226391 0.020516835
0.075006954 -0.12666415 0.06405682 -0.08084078 0.09272346 0.079903536 0.12794277 0.25661734
-0.37760782 -0.052535363 0.08090889 -0.10773418 0.021671662 -0.018523136 0.12034642 -0.01833461
0.05092373 -0.04723221 0.01928119 0.006270907 -0.19737703 -0.15769704 -0.07940939 0.018052991
-0.06524236 -0.073201805 -0.049420893 -0.104111545 -0.17171153 0.047343183 0.061442014 -0.09556545
-0.009051105 -0.06152296 -0.07786432 -0.15125605 -0.07531242 -0.101256885 -0.027812714 0.109359436
-0.029677736 0.016813938 -0.08375932 -0.06463186 -0.007034413 0.0086648045 -0.13852994 -0.016148329
0.026052823 -0.17879188 0.018943215 0.08878675 -0.091329105 0.15174957 0.04546578 -0.05927114
0.022889912 -0.11946676 -0.10096572 0.077848054 0.038170245 -0.07584956 0.10336505 0.041537013
-0.20862542 0.09015477 -0.120858744 -0.049294524 -0.0017331572 -0.013853163 -0.17587772 -0.012135311
-0.09125826 -0.13654079 -0.08397755 -0.025021946 -0.02427334 0.056774277 -0.028891996 -0.22887896
0.12549087 -0.044106673 -0.05263511 0.10359308 0.02776284 -0.09364427 0.107308604 0.009062974
-0.14697954 0.09449685 -0.071517445 -0.12904258 0.15784986 -0.036499172 -0.2563847 0.03288023
-0.038520895 -0.010315672 0.060410924 0.0011694194 0.037120935 -0.011562012 -0.038887564 0.14005451
-0.021190312 -0.011761646 -0.11568279 0.01086579 -0.112760484 0.0039544147 0.05633764 -0.04485092
00000000: 8a1b 5fbd 3392 64be 8343 7fbd 7745 0d3d
00000010: 62c2 3cbd 5baa d63d 1c49 40bc 9dbe b2bd
00000020: a786 08be 6ec0 e2bc 8038 88bc 6aba 0c3e
00000030: ab71 3cbd d4dc ba3d cca1 0abd a1e3 b7bd
00000040: 2eaa 32be 26d8 b53d c0d1 103d 4981 b7bd
00000050: b6ce 083e a713 58bd 061f 82ba 3ad2 00bd
00000060: 20e7 8ebd 3a4a 1fbe db4f 5bbe 9243 0c3c
00000070: 7ff1 3c3c 0cc2 4ebe 2b89 e6bc 96b7 72bc
00000080: f060 eabc 4d48 ed3c 5643 8f3d b994 bf3d
00000090: 0860 253d 8fff 9cbd 2673 063e e08f 46bd
000000a0: 0994 efbd 3cd8 e13d 1eae 63bd cf23 4dbe
000000b0: 3ed6 513e 6184 27bc a9d3 f9bd 814f 4ebe
000000c0: 7201 443d 3760 4bbc 6de9 473e ebb7 853d
000000d0: 1c46 6abc db40 b4be 1e4f 583d b5ea ee3c
000000e0: a802 24be be51 da3c 3ad0 e2bd f7e9 2b3e
000000f0: c9ef 0abd cce4 ff3d fb4b 11bd 605a 0fbd
00000100: a7c5 cf3d 2ede 6a3d ba50 92bc ae8c 18bd
00000110: 8029 cbbd 705a 8b3d 2037 893d 608a ad3d
00000120: acad 91bc db02 973c 370a 6e3d 92de 37bc
00000130: 401a c5bc cc27 3d3e 6a37 3cb8 1397 6b3d
00000140: 009d ddbd 0f42 c43d 10e1 3e3e 9267 b83c
00000150: 340f e23c 6c1d 15be 5eca 893d 2c70 2ebe
00000160: f5fc 153a c32b 033e 8b14 c73c 05e6 f7bd
00000170: a598 d73d 255c 33bd 9801 843c d3ce 503c
00000180: a542 c43c ce35 26be 324e 1a3d b3cd c5bd
00000190: 02c6 ed3a 8b55 c9bd 9e4c c63d 69e2 e8bd
000001a0: 097f 453d eb49 4e3c ced4 ef3c f4d2 a93b
000001b0: a792 65bc 4b18 0c3e 73cb 19bc a68c 8a3d
000001c0: 7a22 153d 9a90 1dbe 16cd 273a 5e44 d2bc
000001d0: ec08 223e ca04 253d 5e9f e53c 12be 023d
000001e0: 3bc2 7dbd 0604 bebc 5db1 50bd fcf3 723d
000001f0: 593d f23e ec9d 8cbc a041 a2bc eb4d 12be
00000200: e9c9 bebd 964e 423c f37d 44bb d3d4 febd
00000210: 5205 bcba 8685 6dbd c678 843e 6566 92bb
00000220: 7755 08bd 8a2a d2bd 0796 973d 7f58 efbd
00000230: 9f8a 6ebe 17aa 85bd 3170 07be ec12 a83c
00000240: 3f9d 993d 3fb4 01be 3930 833d da8f a5bd
00000250: cce5 bd3d 77a4 a33d 6e03 033e 5963 833e
00000260: d055 c1be 522f 57bd 8fb3 a53d bda3 dcbd
00000270: c588 b13c d5bd 97bc 2f78 f63d 7732 96bc
00000280: 6795 503d 9076 41bd 96f3 9d3c 2e7c cd3b
00000290: 341d 4abe 557b 21be 64a1 a2bd dee3 933c
000002a0: c99d 85bd d4ea 95bd 906d 4abd 6f38 d5bd
000002b0: 26d5 2fbe edea 413d 9faa 7b3d d2b7 c3bd
000002c0: 164b 14bc 80ff 7bbd 5477 9fbd dee2 1abe
000002d0: 663d 9abd c55f cfbd 7dd7 e3bc d7f7 df3d
000002e0: b91e f3bc 62bd 893c 028a abbd b55d 84bd
000002f0: ef80 e6bb d3f6 0d3c cbda 0dbe 8049 84bc
00000300: bb6c d53c 3815 37be cd2e 9b3c d4d5 b53d
00000310: c10a bbbd 3d64 1b3e 533a 3a3d 4bc6 72bd
00000320: a083 bb3c fdaa f4bd 1ec7 cebd cd6e 9f3d
00000330: 6758 1c3d 0457 9bbd 0eb1 d33d b722 2a3d
00000340: e7a1 55be 10a3 b83d ca84 f7bd 0ee9 49bd
00000350: 1b2b e3ba 61f8 62bc 4a19 34be 2fd3 46bc
00000360: 9ce5 babd 59d1 0bbe 6cfc abbd d3fa ccbc
00000370: e2d8 c6bc 258c 683d e8ae ecbc 3f5f 6abe
00000380: ae80 003e 33a9 34bd ea97 57bd 9c28 d43d
00000390: e56e e33c 91c8 bfbd 9dc4 db3d de7c 143c
000003a0: ce81 16be 9187 c13d bd77 92bd bd23 04be
000003b0: 65a3 213e 2880 15bd db44 83be 6cad 063d
000003c0: 16c8 1dbd 1003 29bc 7271 773d 3447 993a
000003d0: 1f0c 183d 986e 3dbc 9148 1fbd 736a 0f3e
000003e0: 4e97 adbc ebb3 40bc 19eb ecbd 6d06 323c
000003f0: f8ee e6bd 0994 813b 4cc2 663d 99b5 37bd

conv5.weight f4 [64, 64, 3]
0.02799317 0.09544835 -0.081371605 -0.115098275 0.011667324 -0.26407206 0.046408057 -0.1909471
-0.011010546 0.00021219545 -0.04985738 -0.2098339 -0.017745642 0.0879561 -0.6068257 0.015407662
0.0064385207 0.028822383 0.030387498 0.043769356 -0.22844698 -0.0017388517 -0.08776243 -0.1950565
-0.091252655 -0.04427071 -0.12969404 0.04587726 0.042095467 -0.2416766 0.030510603 0.026516719
0.022636272 -0.014903019 -0.040581707 -0.041321162 0.027545894 -0.048530795 0.010533375 0.09368848
0.10233345 -0.32474592 0.074740686 0.08644117 -0.108266264 0.027400875 0.08512583 0.2411079
-0.12211482 -0.00069124176 -0.081786215 -0.0148046315 -0.19908984 0.18462515 -0.068102784 -0.018255638
-0.056720763 0.13272835 0.00824921 0.04731903 0.03777683 0.10577334 0.15522069 -0.013443704
0.015131286 -0.0039364425 -0.03338176 0.025552046 -0.21979026 0.018067718 0.039961185 -0.10977389
0.051125765 -0.0690639 -0.2887857 -0.01931124 -0.003407076 0.26711652 -0.0054706903 0.08259327
0.06836581 0.016767442 0.12193099 0.06509084 -0.052842043 0.010934617 0.2783305 -0.07275418
0.08250199 -0.13434502 -0.04438789 0.018038047 -0.2702813 0.042666323 0.07836805 0.04210386
0.028293915 -0.25472325 -0.39031166 0.037195645 -0.034574546 -0.34815156 -0.16172083 -0.052597705
-0.315506 0.045009263 0.031536978 0.14736205 -0.12854628 -0.061720062 -0.26893386 0.043872375
-0.14065783 0.029982964 0.013895258 -0.13880926 0.12585859 0.052942537 0.048446834 0.03185745
-0.027005324 -0.06486504 0.08707279 0.09637529 0.046095584 -0.06515431 -0.037070267 0.0100663
-0.5018402 -0.06635873 0.05877986 -0.18298855 0.009317181 0.04996081 0.16670327 -0.011546026
-0.007911266 0.2080557 -0.060575027 0.039229322 -0.47580224 -0.055244185 -0.039925132 0.197182
0.045237586 0.013198518 0.0014637468 0.026566695 0.005757829 -0.35903153 0.0851206 0.010560415
-0.18547161 0.006717629 0.013151562 -0.01693639 -0.03819205 -0.0029049604 0.15989058 -0.0017543426
0.10835366 0.03752001 0.032207474 0.038691822 0.06331706 0.07109714 0.023932999 -0.31807736
-0.04097505 -0.062213887 -0.07402933 0.0005001546 0.017962689 0.2479522 0.042072974 0.019555196
-0.11105579 0.050228953 0.06536036 -0.06222052 0.017097723 -0.03776694 0.084761485 0.021855328
0.0022846314 0.20450291 -0.0080716545 0.0012305584 0.011002564 -0.024907216 -0.06691508 -0.12638731
-0.12195787 0.036824655 0.02218888 -0.15801924 0.047882862 -0.11125819 0.12870334 0.09436564
0.07130651 -0.014117544 0.0979746 0.05609449 -0.18941799 0.044764273 -0.041725427 0.009944423
-0.0015170776 -0.0082186675 0.0012308166 -0.20589815 0.09620905 -0.11631197 0.24910823 -0.073028766
0.03472193 0.019359732 0.14939712 -0.07458041 0.09399235 0.076257415 -0.121102884 0.18968862
0.10175549 0.034500163 0.13188122 0.1256085 -0.22679254 0.08113468 0.05537791 -0.31399724
0.041211173 -0.049428243 -0.1942205 0.044744004 0.055505138 -0.12860818 -0.06537777 0.07631129
-0.06199693 -0.028276771 0.14421402 0.1275964 -0.13483182 -0.056601446 0.11581812 -0.11710196
0.13146879 0.2901574 -0.23627824 0.14729944 -0.222672 0.097580895 0.07514504 0.0037981158
00000000: ef51 e53c 6d7a c33d 28a6 a6bd a5b8 ebbd
00000010: 4e28 3f3c 7434 87be 6016 3e3d a387 43be
00000020: 9465 34bc c880 5e39 4137 4cbd b3de 56be
00000030: 4f5f 91bc 5422 b43d ee58 1bbf 6b70 7c3c
00000040: 3afa d23b eb1c ec3c 34ef f83c 7f47 333d
00000050: 01ee 69be 2eea e3ba cabc b3bd e4bc 47be
00000060: ace2 babd 3455 35bd 84ce 04be cbe9 3b3d
00000070: 4c6c 2c3d 127a 77be 5ff1 f93c 9739 d93c
00000080: b46f b93c cb2b 74bc 0139 26bd 6140 29bd
00000090: eda7 e13c 3ac8 46bd 2d94 2c3c bfdf bf3d
000000a0: 3394 d13d 1945 a6be a511 993d 1108 b13d
000000b0: b4ba ddbd cd77 e03c 7356 ae3d fde4 763e
000000c0: 5617 fabd 7334 35ba 887f a7bd 208f 72bc
000000d0: 35de 4bbe 600e 3d3e 7979 8bbd d98c 95bc
000000e0: 0854 68bd f1e9 073e b227 073c 99d1 413d
000000f0: e1bb 1a3d b19f d83d 2cf2 1e3e fb42 5cbc
00000100: 37e9 773c 46fd 80bb 50bb 08bd 8652 d13c
00000110: b310 61be c002 943c 57ae 233d 22d1 e0bd
00000120: 4069 513d 6071 8dbd b8db 93be 9b32 9ebc
00000130: 4049 5fbb 7fc3 883e 7a43 b3bb a926 a93d
00000140: 6003 8c3d e05b 893c f4b6 f93d 594e 853d
00000150: e670 58bd 1c27 333c 5681 8e3e 2500 95bd
00000160: cef6 a83d be91 09be 13d0 35bd 87c4 933c
00000170: 5062 8abe e2c2 2e3d 6e7f a03d 1975 2c3d
00000180: a4c8 e73c 166b 82be eed6 c7be 765a 183d
00000190: 0a9e 0dbd ec40 b2be 259a 25be b170 57bd
000001a0: 018a a1be a25b 383d eb2c 013d 14e6 163e
000001b0: a3a1 03be 2dce 7cbd b3b1 89be 85b3 333d
000001c0: 9b08 10be d59e f53c f0a8 633c 0424 0ebe
000001d0: 13e1 003e 46da 583d 3070 463d f57c 023d
000001e0: 453a ddbc f6d7 84bd 3853 b23d 6860 c53d
000001f0: b9ce 3c3d 9f6f 85bd fed6 17bd 1fed 243c
00000200: 9978 00bf 16e7 87bd 27c3 703d 5a61 3bbe
00000210: 17a7 183c b5a3 4c3d 43b4 2a3e 8b2b 3dbc
00000220: 419e 01bc 8e0c 553e 851d 78bd edae 203d
00000230: 5a9c f3be ba47 62bd 8988 23bd 14ea 493e
00000240: 0c4b 393d 993e 583c 31db bf3a 66a2 d93c
00000250: 2cac bc3b fbd2 b7be b653 ae3d 9705 2d3c
00000260: 45ec 3dbe 8e1f dc3b a679 573c 2fbe 8abc
00000270: 446f 1cbd 2661 3ebb 5bba 233e f8f1 e5ba
00000280: 86e8 dd3d 95ae 193d fceb 033d 517b 1e3d
00000290: 60ac 813d 619b 913d 230f c43c 09db a2be
000002a0: 74d5 27bd fdd3 7ebd b09c 97bd cf1c 033a
000002b0: 7d26 933c 2ee7 7d3e b654 2c3d 3832 a03c
000002c0: 3871 e3bd e0bc 4d3d a7db 853d f2da 7ebd
000002d0: 8610 8c3c 82b1 1abd 6e97 ad3d f209 b33c
000002e0: c1b9 153b 3669 513e f93e 04bc b04a a13a
000002f0: 1944 343c 380a ccbc c60a 89bd ad6b 01be
00000300: 0cc5 f9bd 73d5 163d 74c5 b53c cccf 21be
00000310: d220 443d 55db e3bd cfca 033e c642 c13d
00000320: 2609 923d 454d 67bc e8a6 c83d 56c3 653d
00000330: caf6 41be be5a 373d 48e8 2abd efed 223c
00000340: add8 c6ba 97a7 06bc 5a53 a13a f7d6 52be
00000350: 4009 c53d f834 eebd 3a16 7f3e 1b90 95bd
00000360: 9538 0e3d 4d98 9e3c 8ffb 183e 9dbd 98bd
00000370: 107f c03d d92c 9c3d ca04 f8bd bc3d 423e
00000380: 2f65 d03d 0b50 0d3d df0b 073e 849f 003e
00000390: 4e3c 68be f029 a63d f3d3 623d 3fc4 a0be
000003a0: 0ccd 283d 4575 4abd bde1 46be 7d45 373d
000003b0: 5b59 633d ddb1 03be c8e4 85bd 1849 9c3d
000003c0: 7ef0 7dbd b0a4 e7bc d7ac 133e a1a8 023e
000003d0: 5a11 0abe ebd6 67bd 0d32 ed3d 27d3 efbd
000003e0: c19f 063e 838f 943e ecf2 71be aad5 163e
000003f0: 2104 64be 7ed8 c73d a5e5 993d cfe9 783b

conv6.weight f4 [64, 64, 3]
-0.11659521 -0.008140945 0.010856366 -0.060684226 0.0047921925 0.029255774 -0.22861837 -0.08807076
0.036674377 0.008736835 -0.029145047 -0.018814782 -0.12101168 -0.094069496 0.053968944 -0.008573941
-0.09601742 -0.07700258 0.031246616 0.03888482 -0.014422991 -0.0919536 0.104293495 0.048107862
-0.033300836 0.06892385 0.00018660237 -0.062050216 -0.07716614 0.09936314 -0.0056714397 -0.09288551
-0.022587439 0.018712545 0.11752777 -0.046899408 -0.3351395 -0.20135339 0.06460384 -0.04058238
-0.047874637 -0.022858813 -0.21019208 0.048034783 -0.040198375 -0.20905866 -0.18320514 0.008124088
-0.24193168 -0.027240809 0.08517159 -0.092496075 0.15574205 -0.008019814 -0.24849702 -0.22869715
0.042087544 -0.22987539 -0.09471345 0.07618428 -0.1291802 -0.019760016 0.101481184 -0.04100248
0.009843762 0.012469057 0.12289484 0.096211605 -0.027169004 -0.1492976 -0.06294632 0.033607833
-0.061530963 0.018381448 0.011067911 0.07344926 -0.11397808 -0.09183025 0.09676921 -0.07612868
0.06751165 0.027289627 0.040882185 0.059982527 -0.084168546 -0.18156272 0.0129842665 -0.0951389
0.048136212 -0.12372055 0.08522305 -0.10425416 -0.012728166 -0.035487317 -0.25855067 -0.09695603
-0.011883316 -0.0050879167 -0.05195562 0.046201438 -0.09545219 0.087956615 0.025585448 -0.03036506
0.0072793257 0.06170548 -0.30575496 -0.051891055 0.1294888 0.06372696 0.07707428 -0.10234572
-0.08873923 0.099274024 0.10209119 -0.10520894 0.042393215 0.062240254 0.0028355224 0.04378963
0.09132811 -0.18091221 -0.007918232 0.00021787305 0.057688292 -0.24716939 0.045695774 -0.13816862
0.012515668 -0.0026470164 0.0091854995 -0.049076393 0.16829892 0.027418481 0.05580611 -0.05788435
0.060673878 0.0346383 -0.1338231 -0.10781693 0.12873106 -0.042313423 -0.04600835 -0.076328434
-0.08399986 0.04679404 -0.006781346 0.022105958 -0.0063815825 -0.011704534 -0.071118034 -0.07426642
-0.04308305 -0.33479735 -0.092828594 0.022949962 -0.113124706 0.10303758 0.061712377 0.053027637
-0.11415687 0.07324088 -0.021627307 -0.11231142 -0.08740301 -0.021796206 -0.11238981 0.021025978
-0.0124223875 -0.042377617 0.026310105 -0.2182979 -0.049313646 0.008057756 -0.022194346 0.08059068
-0.04446519 -0.0021419215 0.06058454 0.04828796 -0.2764848 0.03604189 0.02707732 -0.12156515
-0.10953725 -0.035355054 0.1237939 0.07591904 -0.11510189 -0.11383402 0.18596695 -0.09662731
-0.089418426 0.058173936 0.032303132 0.057212062 -0.09715405 -0.0278398 0.036938556 0.18445605
0.11178992 0.030103639 -0.01599702 -0.0045288033 -0.24706972 0.09512258 -0.026895016 0.026983
-0.05612732 -0.054816134 -0.050134204 0.13220592 0.040606868 0.05583172 -0.1278491 -0.08735049
0.07046428 -0.24038477 0.023963135 -0.052745745 -0.14637923 0.01175661 0.24463694 -0.0972216
-0.018249368 -0.079596475 0.12765846 -0.0053383615 0.27186045 0.055382013 -0.0053686528 0.0365652
-0.21894144 0.10853341 0.10213389 -0.22304887 -0.19715156 -0.0062002726 -0.0058416766 0.03844522
-0.31767413 -0.0038664883 0.054267272 -0.17125201 -0.10382237 0.054463502 -0.72272146 0.055723086
0.063868724 -0.028361509 -0.29930773 -0.061577763 0.03567584 0.14264448 0.049210526 0.012599846
00000000: 78c9 eebd 9961 05bc e6de 313c 0690 78bd
00000010: d307 9d3b cea9 ef3c ef1a 6abe 715e b4bd
00000020: df37 163d f124 0f3c 98c1 eebc 7521 9abc
00000030: f9d4 f7bd 82a7 c0bd 8a0e 5d3d b779 0cbc
00000040: c8a4 c4bd 87b3 9dbd e7f8 ff3c b045 1f3d
00000050: 694e 6cbc 2b52 bcbd d497 d53d c00c 453d
00000060: 7566 08bd f327 8d3d b1aa 4339 5e28 7ebd
00000070: 4809 9ebd e77e cb3d 7cd7 b9bb c23a bebd
00000080: 4b09 b9bc 0d4b 993c 66b2 f03d 9819 40bd
00000090: 6897 abbe 952f 4ebe 054f 843d b639 26bd
000000a0: 3218 44bd 6842 bbbc 983c 57be 1fc0 443d
000000b0: 0da7 24bd 7913 56be 219a 3bbe e51a 053c
000000c0: f0bc 77be 1e28 dfbc 716e ae3d 956e bdbd
000000d0: d87a 1f3e 8a65 03bc 0176 7ebe 962f 6abe
000000e0: fd63 2c3d 7464 6bbe 20f9 c1bd 8106 9c3d
000000f0: d047 04be c2df a1bc 5ed5 cf3d 37f2 27bd
00000100: bb47 213c 044b 4c3c 4ab0 fb3d 970a c53d
00000110: 8891 debc 78e1 18be 00ea 80bd 5ea8 093d
00000120: e407 7cbd b194 963c 2f56 353c 916c 963d
00000130: 576d e9bd 8011 bcbd f02e c63d 5ae9 9bbd
00000140: 8c43 8a3d 7f8e df3c 1474 273d 3db0 753d
00000150: 8f60 acbd 94eb 39be f6bb 543c 2fd8 c2bd
00000160: 7a2a 453d 3361 fdbd 6c89 ae3d 3483 d5bd
00000170: cc89 50bc 265b 11bd c160 84be e290 c6bd
00000180: 3db2 42bc 8ab8 a6bb 6bcf 54bd b83d 3d3d
00000190: 707c c3bd 9922 b43d 9398 d13c 25c0 f8bc
000001a0: 6987 ee3b e3be 7c3d ea8b 9cbe b78b 54bd
000001b0: b698 043e 4883 823d 1fd9 9d3d a29a d1bd
000001c0: eabc b5bd 2e50 cb3d 3015 d13d c977 d7bd
000001d0: 82a4 2d3d a3ef 7e3d 2cd4 393b c15c 333d
000001e0: 3b0a bb3d 0d41 39be 79bb 01bc da74 6439
000001f0: 8f4a 6c3d f919 7dbe 7e2b 3b3d 137c 0dbe
00000200: 840e 4d3c 9179 2dbb c77e 163c 5404 49bd
00000210: 8d56 2c3e b99c e03c f394 643d 2418 6dbd
00000220: 2c85 783d e4e0 0d3d ec08 09be 1fcf dcbd
00000230: 13d2 033e d750 2dbd 4073 3cbd 1552 9cbd
00000240: 1e08 acbd 1bab 3f3d 0e36 debb 8e17 b53c
00000250: 981c d1bb 60c4 3fbc 55a6 91bd fe18 98bd
00000260: da77 30bd 8f6a abbe eb1c bebd 8f01 bc3c
00000270: edad e7bd 5e05 d33d 1ec6 7c3d 8233 593d
00000280: 14cb e9bd 51ff 953d c02b b1bc 8803 e6bd
00000290: 5900 b3bd f58d b2bc a12c e6bd ac3e ac3c
000002a0: 4587 4bbc 2794 2dbd 4a88 d73c 7c89 5fbe
000002b0: 1bfd 49bd ae04 043c ebd0 b5bc ba0c a53d
000002c0: 2221 36bd 7b5f 0cbb 7f27 783d 99c9 453d
000002d0: 6a8f 8dbe a9a0 133d 41d1 dd3c 26f7 f8bd
000002e0: 1155 e0bd 76d0 10bd a887 fd3d 717b 9b3d
000002f0: 8aba ebbd d021 e9bd 1f6e 3e3e 8ae4 c5bd
00000300: 0221 b7bd cb47 6e3d 4a50 043d 3257 6a3d
00000310: b4f8 c6bd 4b10 e4bc e24c 173d 0ce2 3c3e
00000320: 1df2 e43d e89b f63c 2f0c 83bc 5b66 94bb
00000330: d8ff 7cbe a1cf c23d f052 dcbc 740b dd3c
00000340: c3e5 65bd e286 60bd 8659 4dbd fd60 073e
00000350: 6353 263d cdaf 643d e0ea 02be d0e4 b2bd
00000360: 944f 903d 6d27 76be 564e c43c ec0b 58bd
00000370: 70e4 15be cc9e 403c 1b82 7a3e 1e1c c7bd
00000380: b37f 95bc 7a03 a3bd e6b8 023e 6ced aebb
00000390: 4b31 8b3e 40d8 623d 86eb afbb 64c5 153d
000003a0: 2f32 60be c446 de3d 932b d13d ec66 64be
000003b0: 19e2 49be a82b cbbb 896b bfbb bc78 1d3d
000003c0: 2fa6 a2be e964 7dbb 5c47 5e3d b05c 2fbe
000003d0: d3a0 d4bd 1f15 5f3d 4604 39bf e43d 643d
000003e0: 9bcd 823d 6556 e8bc dd3e 99be f738 7cbd
000003f0: d420 123d 6511 123e fa90 493d 966f 4e3c

conv7.weight f4 [64, 64, 4]
-0.031496823 0.05197635 -0.08077539 -0.046134308 -0.04766075 0.12540446 -0.04854835 -0.028066343
0.007977944 -0.038929887 0.042590383 -0.1177735 0.10547454 -0.1041548 -0.08990265 -0.08142875
-0.037841037 -0.09330711 -0.11978812 -0.10851253 0.043253515 -0.01343745 0.033954125 -0.040340375
-0.15768556 -0.11260937 -0.05086918 -0.16098905 0.0074092355 0.09312497 -0.03338744 -0.046090223
0.09507639 -0.00927625 0.031929336 -0.036984373 -0.12911685 -0.12840131 0.17948253 -0.08482045
-0.10635727 0.11951526 -0.1072926 -0.032334186 0.07076962 0.10914847 0.008356534 0.004788059
-0.10761544 0.13528728 -0.14658558 0.0032908537 -0.001883783 0.11586151 -0.21325335 0.007827639
-0.053856097 0.043802522 -0.05455318 -0.2529247 0.023002317 0.008783914 -0.107288 -0.033724997
-0.06943881 -0.033443354 0.004958263 -0.11670396 0.07123753 -0.11878742 -0.06619932 -0.08740665
-0.19416532 0.014392672 -0.31946465 0.085938275 -0.047034007 0.01007963 -0.077171616 -0.15830763
0.10001444 0.033357088 -0.0756748 0.09072098 0.04229781 -0.062331703 0.02987151 0.0062167915
-0.0738875 -0.20616375 -0.06814737 -0.18509889 -0.05985973 0.022571974 0.17956531 0.06537608
0.014181645 -0.2087624 -0.033283815 0.079818435 -0.00077080535 0.018950835 0.029980052 0.03469315
-0.020778669 -0.1545516 -0.14613475 0.00017225684 0.090536356 0.0069232825 -0.08370679 -0.21452627
0.049140178 -0.09504751 0.010779114 0.026227012 -0.066924855 0.0029365388 -0.052335296 -0.008030434
-0.16795826 -0.16488619 0.049994607 -0.30646577 0.02441949 0.034020398 0.012463306 0.082553685
-0.14456388 -0.18449081 -0.1546494 0.15634833 -0.0092733335 0.07738334 0.002808578 0.08649617
-0.07486264 0.16274963 0.015855268 0.03991671 -0.014043225 0.035450824 0.03543605 0.033065636
-0.027575254 -0.007185046 0.07644442 0.07037575 -0.060770657 -0.07850954 -0.020875955 0.036676235
0.07723977 -0.051740084 0.047255218 0.042177264 0.01978637 0.031041527 -0.02888413 -0.029275557
0.06347736 -0.057921194 -0.098422684 -0.052969407 0.019724991 0.1770091 0.06912051 -0.21615797
-0.07958955 -0.15651238 -0.09849664 0.019386608 -0.06754713 -0.05947552 -0.117662534 -0.066419415
-0.09912642 -0.08129994 0.027136361 -0.0735386 0.032730237 0.08607858 -0.02830616 -0.054000475
-0.0005716005 0.0028423783 0.026037982 0.014567805 -0.04891949 -0.19266549 -0.26239723 0.06446337
0.03211894 0.14870873 0.13514121 0.1763156 -0.06435233 0.22244017 -0.205385 -0.0020254757
-0.07182716 0.11215674 -0.0082081035 0.006442885 -0.010452802 0.19128007 -0.09804998 -0.101922855
0.009454946 -0.13092637 0.00063287874 0.01890609 0.03872541 -0.2668007 -0.061636303 0.048196968
-0.09399587 -0.0331029 -0.13431281 -0.050303094 0.049962703 -0.012341618 -0.036643673 0.20111805
-0.088226795 -0.0800683 -0.047519285 0.21874297 -0.017688956 -0.18303241 0.03317009 -0.014148624
0.13392967 0.048735015 0.037720203 -0.0721693 0.09500286 -0.09785799 0.07807084 -0.13587603
0.048432183 0.0451623 0.001813948 -0.06690871 0.0032791446 -0.042866025 -0.03191656 -0.004874486
0.045770653 -0.05962748 0.002743094 0.0132440245 0.041904107 0.22932495 -0.11456359 -0.021977656
00000000: d002 01bd 27e5 543d 916d a5bd 54f7 3cbd
00000010: eb37 43bd 076a 003e a2da 46bd 63eb e5bc
00000020: ecb5 023c f274 1fbd 4173 2e3d 3c33 f1bd
00000030: 0903 d83d 1d4f d5bd e11e b8bd 1ec4 a6bd
00000040: 34ff 1abd cc17 bfbd 7953 f5bd d13b debd
00000050: 992a 313d c028 5cbc 7b13 0b3d f33b 25bd
00000060: 5378 21be be9f e6bd 345c 50bd 50da 24be
00000070: 2cc9 f23b 4eb8 be3d 45c1 08bd 1ac9 3cbd
00000080: 69b7 c23d 6afb 17bc 56c8 023d ed7c 17bd
00000090: 3537 04be a27b 03be 45ca 373e 58b6 adbd
000000a0: d7d1 d9bd 6bc4 f43d 39bc dbbd da70 04bd
000000b0: aaef 903d 3c89 df3d d8e9 083c 26e5 9c3b
000000c0: 7c65 dcbd c088 0a3e 881a 16be 5dab 573b
000000d0: 45e9 f6ba cd48 ed3d 165f 5abe 7f3f 003c
000000e0: 3698 5cbd 466a 333d 2873 5fbd 597f 81be
000000f0: 5b6f bc3c 68ea 0f3c d0b9 dbbd 3923 0abd
00000100: ef35 8ebd e6fb 08bd ed78 a23b 7c02 efbd
00000110: fbe4 913d d246 f3bd 8293 87bd 4202 b3bd
00000120: 46d3 46be 3ecf 6b3c df90 a3be 6800 b03d
00000130: bba6 40bd 0825 253c 270c 9ebd 651b 22be
00000140: 5fd4 cc3d 71a1 083d 64fb 9abd eccb b93d
00000150: 7840 2d3d 874f 7fbd 19b5 f43c 3ab6 cb3b
00000160: 5452 97bd 971c 53be d990 8bbd 908a 3dbe
00000170: 7a2f 75bd dce8 b83c f8df 373e e5e3 853d
00000180: 215a 683c d0c5 55be 9c54 08bd d977 a33d
00000190: df0f 4aba c83e 9b3c ba98 f53c 681a 0e3d
000001a0: 0738 aabc c642 1ebe 59a4 15be d89f 3439
000001b0: 206b b93d b4dc e23b 776e abbd c6ac 5bbe
000001c0: 3647 493d 45a8 c2bd e29a 303c 08da d63c
000001d0: e60f 89bd f272 403b 895d 56bd 1592 03bc
000001e0: 40fd 2bbe edd7 28be 25c7 4c3d 15e9 9cbe
000001f0: 620b c83c f958 0b3d e532 4c3c e811 a93d
00000200: 8e08 14be 29eb 3cbe 6a5c 1ebe c719 203e
00000210: 2eef 17bc 287b 9e3d 1f10 383b e724 b13d
00000220: 9551 99bd d7a7 263e e8e2 813c b47f 233d
00000230: 8e15 66bc e234 113d 6425 113d d56f 073d
00000240: 80e5 e1bc 8970 ebbb e48e 9c3d 2921 903d
00000250: a7ea 78bd 9cc9 a0bd 0d04 abbc d239 163d
00000260: e22f 9e3d 69ed 53bd b08e 413d 11c2 2c3d
00000270: 0717 a23c cd4a fe3c 699e ecbc 4bd3 efbc
00000280: 6b00 823d c63e 6dbd d591 c9bd 73f6 58bd
00000290: 4e96 a13c e041 353e 0e8f 8d3d 8458 5dbe
000002a0: d9ff a2bd c844 20be 9bb8 c9bd aad0 9e3c
000002b0: 2656 8abd 9a9c 73bd 0ef9 f0bd e706 88bd
000002c0: cb02 cbbd 9580 a6bd 134d de3c 689b 96bd
000002d0: 2410 063d f749 b03d 52e2 e7bc 9a2f 5dbd
000002e0: 76d7 15ba 3247 3a3b 9b4d d53c cead 6e3c
000002f0: ce5f 48bd 1a4a 45be ee58 86be 5f05 843d
00000300: 268f 033d 1a47 183e 7562 0a3e 148c 343e
00000310: 28cb 83bd 5bc7 633e 7250 52be d8bd 04bb
00000320: 1e1a 93bd 6fb2 e53d 487b 06bc d61e d33b
00000330: 3b42 2bbc ecde 433e 6ece c8bd eebc d0bd
00000340: ebe8 1a3c 9011 06be c6e7 253a f2e0 9a3c
00000350: 899e 1e3d 1a9a 88be 5976 7cbd 2f6a 453d
00000360: e880 c0bd e896 07bd 4c89 09be 9e0a 4ebd
00000370: b1a5 4c3d 7f34 4abc ad17 16bd e4f1 4d3e
00000380: 40b0 b4bd d9fa a3bd 95a3 42bd 28fe 5f3e
00000390: 6ee8 90bc d96c 3bbe 5cdd 073d a1cf 67bc
000003a0: dc24 093e 5e9e 473d 8080 1a3d 7fcd 93bd
000003b0: dc90 c23d c569 c8bd 9be3 9f3d 1623 0bbe
000003c0: d360 463d 1bfc 383d ffc1 ed3a 6f07 89bd
000003d0: ebe6 563b 4994 2fbd f0ba 02bd 27ba 9fbb
000003e0: 027a 3b3d f23b 74bd 7bc5 333b 77fd 583c
000003f0: a4a3 2b3d 29d4 6a3e 51a0 eabd 7c0a b4bc

conv8.weight f4 [32, 96, 3]
-0.04237074 -0.05403534 -0.021249974 -0.018303389 -0.010778891 -0.00065782154 0.028384188 -0.04350321
-0.004426938 -0.035932943 -0.0016534268 0.048066415 -1.2200247 -1.8578556 -2.5334363 0.0007490331
-0.031324785 -0.014557184 -0.05653122 -0.05070089 -0.0033341085 -0.0221232 -0.00227425 0.00609039
0.06783769 0.005281167 -0.06700965 -0.09938182 -0.2055807 0.047204226 -0.110144936 -0.05936586
-0.009154376 -0.039631538 -0.180504 -0.0013428017 -0.05500154 -0.118039146 -0.044112254 -0.0029447828
-0.005409511 0.033352263 -0.13943028 -0.031048864 0.007214506 -0.06710158 -0.0012560027 0.052715898
0.013745634 0.032014314 0.03149854 -0.013971587 -0.013193129 0.007860172 -0.08073652 -0.008973953
-0.110971615 -0.5560826 -1.5666378 -1.6606183 -0.06950039 -0.25449872 -0.074682035 -0.0070307404
0.018539207 -0.012731197 0.011864027 0.050238986 0.034538835 -0.35889453 -0.91278386 -1.3555405
-0.13694055 0.029723383 -0.031560477 -0.17535351 -0.35945922 -0.5329175 0.02724274 -0.02950546
-0.012246843 0.0022649716 -0.0018612783 -0.0044076648 -0.0017833944 -0.004518938 -0.04980803 -0.014980885
0.0024765225 -0.0029462434 -0.035572328 -0.024036719 -0.031965744 -0.09668095 -0.35798788 -0.66663635
0.024413696 -0.021308634 -0.01528888 -0.0994985 -0.040305704 0.0035035955 -0.00010098722 -0.19430903
0.01679518 -0.24147852 -0.11926268 -0.32263696 -0.111696534 -0.012916298 -0.011187557 0.002407201
-0.03798381 -0.015320416 -0.012263498 -0.05665883 -0.09477641 -0.03217853 -0.015927112 0.012377996
-0.026792048 -0.03560106 -0.076975696 -0.010714737 -0.006068153 -0.043354783 -0.020121567 -0.089461856
-0.03924579 -0.02514708 -0.0639115 -0.09555574 0.0116412565 -0.061986145 -0.60200423 -0.0064791534
-0.00915163 -0.005201337 -0.012065222 -0.13963588 -0.13874365 -0.038587194 -0.02323274 -0.0034785825
-0.01602666 -0.010741581 -0.003228024 0.017708842 -0.036846377 -0.002767151 -0.03261541 -0.04934039
-0.0063523846 -0.08528572 -0.08907554 -0.0721188 -0.061897464 -0.30459088 -0.14287084 -0.12525272
0.0016309944 -0.0057780873 0.016747622 -0.051438246 0.012688424 0.008849185 -0.16472368 0.014543625
-0.10112544 -0.20905875 -0.05127894 -0.054257233 0.0071100867 0.0019217029 0.007591047 -0.087715276
0.007809066 0.0077776783 0.0010319556 0.0088038985 -0.017062657 0.0072611035 -0.00084632647 -0.010971246
-0.033648048 -0.012693818 -0.0062099746 -0.03199221 -0.0016889123 -0.82019013 -1.0476803 0.0035403823
0.057860047 -0.26871374 -0.5203978 0.3042909 -0.023324361 -0.15087298 0.008797943 -0.09796382
-0.17699444 0.24467595 -0.012963419 -0.34655038 0.09634429 0.070780404 0.014861228 -0.063546374
-0.40231603 0.024443904 -0.0610008 0.24304686 0.092368595 0.17999843 -0.0043390216 -0.1111581
0.009470251 -0.10672826 -0.007981758 0.024060676 -0.10367306 -0.21924318 0.046767708 -0.30697358
-0.16728278 0.030866895 -0.14835377 -0.093339376 0.0015665992 -0.24454807 0.006887459 0.054748368
-0.034515716 -0.008084833 -0.042538512 -0.09223345 -0.06511969 -0.10015193 -0.1276757 -0.028523514
0.0745388 0.023308229 -0.05297283 0.06850698 0.024927314 -0.18673228 0.15036069 -0.09663988
-0.110856675 0.099598296 -0.068507925 -0.038746968 0.0055842446 0.0006619767 -0.052311987 -0.008871233
00000000: f18c 2dbd 2954 5dbd 6d14 aebc fdf0 95bc
00000010: f299 30bc a871 2cba f585 e83c 6c30 32bd
00000020: d90f 91bb 6c2e 13bd ccb7 d8ba 4ae1 443d
00000030: c529 9cbf 36ce edbf d223 22c0 c35a 443a
00000040: 6b4e 00bd 4181 6ebc 488d 67bd bdab 4fbd
00000050: 0f81 5abb b73b b5bc 950b 15bb e591 c73b
00000060: 7dee 8a3d a40d ad3b 5b3c 89bd b288 cbbd
00000070: bf83 52be 3859 413d ab93 e1bd 9e29 73bd
00000080: 3cfc 15bc ae54 22bd 0ad6 38be f300 b0ba
00000090: 4b49 61bd 82be f1bd 0daf 34bd 42fd 40bb
000000a0: 4442 b1bb 629c 083d d0c6 0ebe 305a febc
000000b0: aa67 ec3b 8e6c 89bd 75a0 a4ba a0ec 573d
000000c0: 5e35 613c 7121 033d 9d04 013d 15e9 64bc
000000d0: fe27 58bc f3c7 003c 3059 a5bd 7d07 13bc
000000e0: 1645 e3bd 6e5b 0ebf 9687 c8bf 248f d4bf
000000f0: 3856 8ebd a84d 82be e5f2 98bd 2062 e6bb
00000100: 89df 973c 8396 50bc 5661 423c 65c7 4d3d
00000110: 9878 0d3d 06c1 b7be 34ac 69bf 5a82 adbf
00000120: 253a 0cbe 747e f33c 8f45 01bd df8f 33be
00000130: 0a0b b8be 486d 08bf 2b2c df3c 6fb5 f1bc
00000140: fca6 48bc eb6f 143b 23f6 f3ba 2c6e 90bb
00000150: c9c0 e9ba 9913 94bb 8103 4cbd 6372 75bc
00000160: 274d 223b c315 41bb 4ab4 11bd a7e8 c4bc
00000170: 83ee 02bd a900 c6bd 304a b7be aea8 2abf
00000180: 3bff c73c 728f aebc 367e 7abc dfc5 cbbd
00000190: 9817 25bd 949c 653b 1ac9 d3b8 f2f8 46be
000001a0: 0c96 893c 2546 77be fe3f f4bd ac30 a5be
000001b0: 27c1 e4bd e19e 53bc 044c 37bc 22c2 1d3b
000001c0: e994 1bbd 7b02 7bbc d7ec 48bc 1713 68bd
000001d0: 221a c2bd a2cd 03bd 9379 82bc 14cd 4a3c
000001e0: ff7a dbbc 6bd2 11bd 6fa5 9dbd dd8c 2fbc
000001f0: 5bd7 c6bb c994 31bd fcd5 a4bc c737 b7bd
00000200: 32c0 20bd 4001 cebc 08e4 82bd bab2 c3bd
00000210: f8ba 3e3c 2fe5 7dbd f31c 1abf 144f d4bb
00000220: b8f0 15bc fa6f aabb 35ad 45bc b5fc 0ebe
00000230: d112 0ebe 9b0d 1ebd 9652 bebc eef8 63bb
00000240: 584a 83bc 75fd 2fbc 428d 53bb 2212 913c
00000250: 3aec 16bd 1759 35bb bc97 05bd 2619 4abd
00000260: aa27 d0bb 48aa aebd 3d6d b6bd 05b3 93bd
00000270: 3288 7dbd 56f3 9bbe bc4c 12be 4042 00be
00000280: 17c7 d53a 1c56 bdbb 4f32 893c e9b0 52bd
00000290: 1ce3 4f3c 2cfc 103c 53ad 28be 6248 6e3c
000002a0: db1a cfbd 7f13 56be de09 52bd d53c 5ebd
000002b0: bbfb e83b a6e1 fb3a 51be f83b 11a4 b3bd
000002c0: 32e3 ff3b e5db fe3b af42 873a 3a3e 103c
000002d0: fcc6 8bbc 8dee ed3b 02dc 5dba bec0 33bc
000002e0: 89d2 09bd bbf9 4fbc 0b7d cbbb 430a 03bd
000002f0: 7e5e ddba fbf7 51bf 631a 86bf c205 683b
00000300: a8fe 6c3d d994 89be ca38 05bf 04cc 9b3e
00000310: bb12 bfbc 727e 1abe 3f25 103c 41a1 c8bd
00000320: 083e 35be 558c 7a3e 8564 54bc 0d6f b1be
00000330: 2850 c53d 51f5 903d 827c 733c 9a24 82bd
00000340: 5efc cdbe 953e c83c fadb 79bd 47e1 783e
00000350: bf2b bd3d 8251 383e 5a2e 8ebb dca6 e3bd
00000360: 1d29 1b3c 5994 dabd ebc5 02bc e51a c53c
00000370: 8b52 d4bd 4981 60be 7f8f 3f3d a42b 9dbe
00000380: 2d4c 2bbe 92dc fc3c 0dea 17be b728 bfbd
00000390: 5956 cd3a cf6a 7abe 32b0 e13b d33f 603d
000003a0: 5a60 0dbd 3f76 04bc dd3c 2ebd e4e4 bcbd
000003b0: 795d 85bd 741c cdbd 6bbd 02be 25aa e9bc
000003c0: cca7 983d e6f0 be3c 0afa 58bd 634d 8c3d
000003d0: 5e34 cc3c bf36 3fbe 27f8 193e 21eb c5bd
000003e0: d308 e3bd 31fa cb3d e24d 8cbd 24b5 1ebd
000003f0: 0afc b63b 8188 2d3a 1845 56bd a658 11bc
