models/trained/unet1d_partialconv_10kdata_30epoch_10minsep_08_14_20.pth (torch_old, 289553 bytes, 9 tensors)

conv1.weight f4 [32, 1, 5]
0	0xbb3ec0d5	-0.0029106636
1	0x3e4803b8	0.19532669
2	0xbe75cb37	-0.24003302
3	0xbf05010f	-0.5195474
4	0xbeff113b	-0.49817833
5	0x3ba609f4	0.0050671045
6	0xbe0fb2a8	-0.14032996
7	0x3e406085	0.1878682
8	0xbe17d57d	-0.14827533
9	0xbc41d5de	-0.011830775
10	0xbe0a65c2	-0.1351538
11	0xbdb40870	-0.08790672
12	0xbedabfd6	-0.42724484
13	0xbe97a51c	-0.29618156
14	0xbe3cc6b6	-0.18435177
15	0xbba88803	-0.005143167
16	0x3e2961f4	0.16541272
17	0x3e8770a1	0.26453117
18	0xbe9bd051	-0.3043237
19	0xbdd7d947	-0.10539489
20	0x3defcceb	0.11709007
21	0x3ea6eea4	0.32603943
22	0xbdd6b001	-0.10482789
23	0x3ea29e5b	0.3176144
24	0xbdfa0c30	-0.12209356
25	0xbbe08ef6	-0.00685298
26	0x3eb17814	0.34661925
27	0xbeb46c06	-0.35238665
28	0xbf176f6b	-0.59154385
29	0xbee84a4b	-0.4536918
30	0xbe5a4b16	-0.21317706
31	0x3ec930fd	0.39295188
32	0xbe6028e4	-0.21890599
33	0xbef0fa09	-0.47065762
34	0xbefa1a9e	-0.48848432
35	0xbee8b053	-0.45447025
36	0xbe8dd14e	-0.2769875
37	0x3ec4c207	0.3842928
38	0x3e67b056	0.2262586
39	0x3e45f913	0.19333296
40	0xbb3715a3	-0.002793648
41	0xbf35ba72	-0.7098762
42	0xbbf889f3	-0.007584804
43	0xbf004e31	-0.5011931
44	0xbecbb43a	-0.3978594
45	0xbe94f8a7	-0.29095957
46	0x3e832f01	0.256218
47	0x3e9401ca	0.28907615
48	0xbe3529cd	-0.17691727
49	0xbd4c3bfa	-0.049861886
50	0x3e5cd317	0.215649
51	0x3ecc4741	0.39898112
52	0x3e044d33	0.12920074
53	0xbce7dc18	-0.028303191
54	0x3e668a56	0.22513708
55	0xbf93ebd7	-1.1556348
56	0x3d8e9ede	0.06963895
57	0xbf8b4937	-1.0881718
58	0xbf869450	-1.0514011
59	0xbf78f3ac	-0.97246814
60	0x3e174ab0	0.14774585
61	0x3e0100fb	0.1259803
62	0xbea7b7f1	-0.32757524
63	0x3d5ac332	0.05340881
64	0x3e51aba3	0.2047563
65	0xbe040ec2	-0.12896255
66	0xbc64e945	-0.013971631
67	0x3d2c1318	0.042010397
68	0x3ddf077f	0.10890102
69	0x3ec6d71f	0.38836
70	0xbeeb46e9	-0.45952538
71	0xbe7fd147	-0.24982177
72	0x3ddc9d90	0.1077224
73	0x3eac793e	0.3368625
74	0x3eb53784	0.35393918
75	0x3eb99028	0.36242795
76	0xbad61369	-0.0016332689
77	0xbef65d96	-0.48118275
78	0x3d8e503f	0.069488995
79	0xbe5a741b	-0.21333353
80	0xbede15b2	-0.43375927
81	0x3ed4b427	0.41543695
82	0x3e91da63	0.28486928
83	0xbf0ef372	-0.5584022
84	0x3c4f6210	0.012657657
85	0xbdb70274	-0.08936015
86	0xbd1927df	-0.03739154
87	0xbd9782ea	-0.07398017
88	0x3ea6bfec	0.325683
89	0xbe91743d	-0.28408995
90	0x3d7f7f2e	0.062377147
91	0x3dc69e04	0.09698108
92	0x3e67b41b	0.22627299
93	0x3e03e4e8	0.1288029
94	0xbeeff9a8	-0.4687016
95	0xbebb2b24	-0.3655635
96	0x3e1884ea	0.14894453
97	0x3ea4ec32	0.32211453
98	0xbfa67d2e	-1.3006952
99	0xbf871fa7	-1.0556535
100	0x3eda3ffc	0.4262694
101	0x3e9cc141	0.3061619
102	0xbe2d1db5	-0.16905864
103	0xbdbbc06c	-0.09167561
104	0xbeda841a	-0.4267891
105	0xbd3935f8	-0.045217484
106	0xbeccd074	-0.40002787
107	0xbecd3872	-0.40082127
108	0xbd1b5bb0	-0.037929237
109	0xbb266f22	-0.002539583
110	0xbe6da8b2	-0.23208883
111	0x3e8204ab	0.25394186
112	0xbea62884	-0.32452786
113	0x3eb425a1	0.3518496
114	0x3e784cec	0.24248093
115	0xbf004d4d	-0.5011795
116	0xbf11e7fc	-0.56994605
117	0x3dedb133	0.11606064
118	0x3d85fd63	0.0654247
119	0x3d8af87e	0.067856774
120	0x3e0a9ad3	0.13535623
121	0x3c92b72b	0.017909607
122	0xbe87e664	-0.26542962
123	0x3ea55092	0.32288033
124	0xbe94cc8f	-0.29062316
125	0xbe87b6cc	-0.2650665
126	0xbde54684	-0.111950904
127	0xbe5f126c	-0.21784371
128	0xbe20347e	-0.15645024
129	0xbebbabe9	-0.36654595
130	0xbe012b54	-0.12614185
131	0x3dc8f8fb	0.09813114
132	0xbe952597	-0.2913024
133	0x3b95a105	0.004566314
134	0x3eb1443f	0.3462238
135	0xbe1b0618	-0.15139043
136	0xbd81703d	-0.06320236
137	0xbdb1b0d1	-0.08676303
138	0x3d76007c	0.060059056
139	0x3e8c8517	0.2744529
140	0x3eb3490e	0.35016674
141	0x3e796e50	0.24358487
142	0x3ecb0c40	0.39657784
143	0xbdddec47	-0.10836082
144	0xbf037812	-0.5135509
145	0xbe9a9f8e	-0.30199856
146	0x3ea33382	0.31875235
147	0xbc9395a1	-0.018015685
148	0xbdc3d441	-0.095619686
149	0xbdbf8b22	-0.09352709
150	0xbe11233c	-0.14173597
151	0xbe95c69f	-0.29253098
152	0xbd8a5588	-0.06754595
153	0x3e90f5e0	0.28312588
154	0x3e8733af	0.2640662
155	0xbf6d0f8c	-0.9260185
156	0x3e14199a	0.14462891
157	0xbf4044b2	-0.7510482
158	0xbefdc538	-0.49564528
159	0xbf151a5d	-0.5824335

conv2.weight f4 [32, 32, 3]
0	0xbc7e6217	-0.015526316
1	0xbd3a6536	-0.04550668
2	0xbe801034	-0.25012362
3	0xbdd47887	-0.10374551
4	0x3c81af88	0.01583077
5	0xbc426345	-0.011864488
6	0xbd3de86e	-0.04636424
7	0x3d1d7a4c	0.03844671
8	0xbdbc220e	-0.09186183
9	0xbc395f72	-0.01131426
10	0x3dc8d480	0.09806156
11	0xbd74658f	-0.059667166
12	0x3dcd942a	0.10038026
13	0x3d8cff0d	0.068845846
14	0xbdacb950	-0.08433783
15	0x3d2c1b7b	0.042018395
16	0xbd2f779b	-0.042838674
17	0xbe128098	-0.14306867
18	0x3d9a8fe9	0.0754698
19	0xbdba30b8	-0.090913236
20	0xbdecb981	-0.115588196
21	0xbec2da5a	-0.38057214
22	0xbe21422f	-0.15747903
23	0xbd815458	-0.063149154
24	0xbbd00220	-0.0063479096
25	0x3cae07ca	0.021243948
26	0xbda748d7	-0.0816819
27	0xbceca89c	-0.028888993
28	0xbde5c399	-0.11218948
29	0xbd044fd0	-0.032302678
30	0x3db35e7c	0.08758256
31	0x3de468f0	0.11152828
32	0xbd8983da	-0.06714602
33	0xbe20a3a8	-0.1568743
34	0x3e051920	0.12997866
35	0xbd7453df	-0.0596503
36	0xbdae1b2e	-0.08501278
37	0x3d58ff6e	0.05297797
38	0xbd747240	-0.05967927
39	0x3c68ac27	0.014201201
40	0x3c88e763	0.016711896
41	0x3d460ec0	0.04835391
42	0xbe518228	-0.20459807
43	0xbe38855e	-0.18019626
44	0xbdeb5ac8	-0.114919245
45	0x3cf432b4	0.029809333
46	0xbd3f5080	-0.04670763
47	0x3ca329c3	0.019917374
48	0x3c8a5a62	0.016888801
49	0xbc3ffaf6	-0.011717549
50	0xbdb63afb	-0.088979684
51	0xbdeb036a	-0.114752606
52	0xbe53554e	-0.2063801
53	0xbd7f650d	-0.06235223
54	0x3a591f2f	0.000828254
55	0x3d863605	0.06553272
56	0xbd2fbc9b	-0.042904478
57	0xbd1f52c7	-0.038897302
58	0x3a6082d2	0.00085644156
59	0xbeb7a623	-0.3586894
60	0xbcda130b	-0.026620409
61	0x3e1432b0	0.14472461
62	0x3db03f53	0.08605828
63	0xbe1feab9	-0.15616883
64	0xbd940826	-0.07228117
65	0x3d52aa18	0.051431745
66	0xbccc8f28	-0.024970606
67	0xbc925451	-0.01786247
68	0xbd44cc89	-0.048046622
69	0x3d1abb12	0.03777606
70	0x3da419b4	0.08012715
71	0x3df1b021	0.11801172
72	0xbd0c4692	-0.03424699
73	0x3d9f06d2	0.07764973
74	0x3c9dc124	0.019257136
75	0xbd8425b8	-0.06452507
76	0x3d3b7ed8	0.045775265
77	0xbd93c1f4	-0.07214728
78	0xbe84555b	-0.2584637
79	0x3d720b91	0.05909306
80	0x3da66266	0.08124237
81	0xbca17312	-0.01970819
82	0xbd4a46e4	-0.049384013
83	0x3c8d92fd	0.017282004
84	0x3d505b11	0.050868098
85	0xbd1d8395	-0.038455565
86	0x3de87b29	0.11351616
87	0xbdbd897c	-0.09254739
88	0x3c3eb013	0.011638659
89	0xbe923afe	-0.28560632
90	0xbf5041cc	-0.813504
91	0xbdbf3176	-0.09335606
92	0x3d9dd070	0.07705772
93	0xbdcc7341	-0.099829204
94	0x3e610e21	0.21978046
95	0x3d8fbf8a	0.07018955
96	0xbde68048	-0.112549365
97	0x3cd09e13	0.025466
98	0x3bf3eb76	0.0074438406
99	0xbdc2bf33	-0.095091246
100	0xbdc52d75	-0.09627811
101	0x3d8656cd	0.06559525
102	0x3d5d62e4	0.054049388
103	0x3da06e08	0.07833487
104	0x3d17a294	0.03702028
105	0xbeb3d042	-0.35119826
106	0xbe228925	-0.15872629
107	0x3d7943cb	0.060855668
108	0x3d063857	0.032768574
109	0xbca62856	-0.020282906
110	0xbdb4656f	-0.088084094
111	0xbcda4ba5	-0.026647398
112	0xbe49edd3	-0.19719629
113	0xbb9d3c8c	-0.0047984775
114	0xbd9b6f62	-0.07589604
115	0xbe09aaef	-0.13444112
116	0x3dea9059	0.114533134
117	0xbde964bd	-0.113961674
118	0xbdb0fbaa	-0.08641751
119	0x3cfea1f5	0.031083087
120	0x3cd29b80	0.025708914
121	0xbdcddfc3	-0.10052445
122	0xbe0bdc48	-0.1365825
123	0xbe1e63c7	-0.1546775
124	0xbda82b9c	-0.08211443
125	0x3e180a59	0.14847697
126	0xbdcaa1ab	-0.09894117
127	0xbd305bd8	-0.04305634
128	0xbd6c8cd6	-0.0577515
129	0xbb94ba60	-0.004538819
130	0xbd7e9bd1	-0.062160317
131	0x3c3f8e8c	0.011691701
132	0xbb883f4b	-0.0041579357
133	0xbd7cbda7	-0.061704304
134	0xbd3be916	-0.045876585
135	0xbde484e2	-0.11158158
136	0x3d1e8683	0.0387025
137	0xbdb04530	-0.086069465
138	0x3c0d8c1e	0.008639364
139	0xbd9ffba8	-0.078116715
140	0xbd7531bb	-0.05986188
141	0x3d50a805	0.050941486
142	0xbe340d50	-0.17583203
143	0xbccde8de	-0.025135454
144	0xbdc8d1c4	-0.098056346
145	0xbde769eb	-0.11299499
146	0x3d861f22	0.06548907
147	0x3ebadd94	0.36497176
148	0x3e083e7e	0.13305089
149	0x3db1b4d6	0.0867707
150	0xbe441716	-0.19149432
151	0xbd864344	-0.06555799
152	0x3d42453c	0.04742931
153	0xbd2bae54	-0.0419143
154	0x3d5fd548	0.05464676
155	0x3e76280a	0.24038711
156	0xbe2c940c	-0.1685335
157	0xbe02b5c2	-0.12764648
158	0xbc002b7a	-0.007822866
159	0xbc177cf3	-0.009246099
160	0x3b9f49fe	0.0048611155
161	0x3c806b81	0.015676262
162	0xbe067cb4	-0.13133508
163	0x3bb857b0	0.0056256875
164	0x3d95da5f	0.073170416
165	0xbd0db17b	-0.034593087
166	0x3a99ac6e	0.0011724362
167	0x3c367c13	0.01113798
168	0x3defb4cb	0.117044054
169	0xbd208082	-0.039185055
170	0xbe0f2946	-0.13980588
171	0xbdb3be50	-0.087765336
172	0x3dd08604	0.101818115
173	0x3d84af88	0.064787924
174	0xbdcb30f7	-0.09921449
175	0x3c46224c	0.012093138
176	0x3da37843	0.079819225
177	0x3d9d56cc	0.07682571
178	0x3d92600e	0.07147227
179	0x3d8e7731	0.06956328
180	0xbdea6d67	-0.11446648
181	0xbde0e5d9	-0.1098134
182	0x3da8b528	0.08237678
183	0xbdc9a6d8	-0.09846276
184	0xbda2362f	-0.07920491
185	0x3e5bbfb6	0.2145985
186	0x3c9d94a3	0.019235915
187	0x3c9dcde5	0.019263217
188	0xbd9bde5b	-0.0761077
189	0x3d770622	0.060308583
190	0xbcb247a7	-0.021762682
191	0x3e2ec271	0.17066361
192	0xbbdc8a55	-0.0067303577
193	0x3dac8ecf	0.08425676
194	0x3b4ab901	0.0030933025
195	0x3d0635dd	0.03276621
196	0xbc83de4c	-0.01609721
197	0x3d6804b5	0.056645114
198	0xbd91ff20	-0.07128739
199	0x3cbcd5f0	0.023051232
200	0xbd8d6c61	-0.06905437
201	0xbdc5c9bc	-0.096576184
202	0xbd80f7cb	-0.06297263
203	0x3da37fe7	0.0798338
204	0x3d817999	0.06322021
205	0x3e149dae	0.14513275
206	0x3dfb182b	0.12260469
207	0xbddccfc8	-0.10781819
208	0xbd600c21	-0.054699067
209	0xbd440297	-0.047854032
210	0xbd846693	-0.06464877
211	0x3ddc79d0	0.107654214
212	0xbdaa258c	-0.08307943
213	0xbd645b44	-0.0557511
214	0xbdd31a6c	-0.10307774
215	0xbdb6586e	-0.089035854
216	0x3d2f7619	0.042837236
217	0x3d932fb0	0.0718683
218	0x3d931aa8	0.07182819
219	0x3dac85e0	0.08423972
220	0x3dea0c74	0.114281565
221	0xbd28694d	-0.041116048
222	0x3d632409	0.055454288
223	0x3e0f09ff	0.13968657
224	0x3d89d203	0.0672951
225	0xbc2bac1f	-0.010478049
226	0xbe061a58	-0.13095987
227	0xbadb0167	-0.0016708792
228	0xbd34fc5d	-0.044185985
229	0x3d922466	0.07135849
230	0x3cbff7d8	0.02343361
231	0x3c7eb76d	0.015546662
232	0xbcd7efad	-0.026359404
233	0xbd5cac73	-0.053875398
234	0xbd801253	-0.06253495
235	0x3d95d858	0.07316655
236	0x3d37be66	0.044859312
237	0xbd00126b	-0.031267565
238	0xbd5d4dbc	-0.05402921
239	0x3dc0ee0c	0.09420404
240	0x3da875d1	0.08225597
241	0x3ca9eb0b	0.02074196
242	0xbcf6520c	-0.03006842
243	0x3e8d09e6	0.27546614
244	0x3d8a7989	0.06761462
245	0xbdc38dee	-0.09548555
246	0x3db0f07c	0.08639619
247	0x3dc96e9b	0.098355494
248	0xbcf9ea72	-0.0305073
249	0x3ddd2302	0.10797693
250	0xbe0c4924	-0.13699776
251	0xbe11b05c	-0.14227432
252	0x3d845d47	0.06463104
253	0x3c6b95a7	0.014378942
254	0xbd30b6b2	-0.04314298
255	0xbc6afbfd	-0.014342305

conv3.weight f4 [64, 32, 3]
0	0x3b261131	0.0025339837
1	0xbc951392	-0.018197808
2	0x3c901f82	0.01759315
3	0xbd5af2d7	-0.053454246
4	0xbd06ffb4	-0.0329587
5	0x3dd6ab4f	0.10481893
6	0x3dc43d44	0.09581998
7	0x3b1dc115	0.0024071385
8	0xba963889	-0.0011460941
9	0xbe9043eb	-0.28176817
10	0xbe92d2c9	-0.2867644
11	0xbe21f5e9	-0.15816464
12	0x3d6f091d	0.0583583
13	0xbe2b1154	-0.16705829
14	0xbe12954b	-0.14314763
15	0x3ded7b25	0.115957536
16	0xbd8e7138	-0.069551885
17	0x3c908b1e	0.017644461
18	0x3e186e06	0.1488572
19	0x3d263cbb	0.04058526
20	0xbde213b4	-0.11038914
21	0xbe2eac1c	-0.17057842
22	0xbdd71d58	-0.10503644
23	0xbb2a229c	-0.002596057
24	0xbe3b0fbd	-0.18267722
25	0xbe9c736b	-0.30556807
26	0xbe25863e	-0.1616449
27	0xbd9d6ae1	-0.07686401
28	0x3c066670	0.008203134
29	0xbcd4edee	-0.02599236
30	0xbe0cf689	-0.1376592
31	0xbdacd89c	-0.084397525
32	0x3dd907e0	0.10597205
33	0x3d73e29f	0.059542295
34	0xbdc144e4	-0.09436968
35	0xbd38fbe7	-0.045162108
36	0xbda8058d	-0.08204184
37	0x3c0786f7	0.008271924
38	0xbd72b9ab	-0.059259098
39	0xba1fad4a	-0.0006091191
40	0xbb09d3ec	-0.0021030856
41	0xbe310f5c	-0.17291015
42	0xbe029f6f	-0.12756132
43	0xbe6f804b	-0.23388784
44	0xbdcc81b5	-0.09985677
45	0x3c25739a	0.010098362
46	0xbd193ad1	-0.037409607
47	0xbb995123	-0.0046788617
48	0xbb0231ba	-0.0019866065
49	0x3db2269b	0.0869877
50	0xbd61ba9d	-0.05510961
51	0xbb869adc	-0.004107816
52	0xbe238c60	-0.15971518
53	0xbde766b2	-0.112988845
54	0x3e09233b	0.13392346
55	0x3c941b4a	0.018079419
56	0x3d1ab5bf	0.037770983
57	0xbdeb4aa0	-0.11488843
58	0x3d082047	0.033233907
59	0x3dd8265f	0.10554194
60	0x3af2f41e	0.0018535887
61	0xbd22eff1	-0.039779607
62	0x3dda6daa	0.10665448
63	0xbc56b80e	-0.0131054055
64	0xbe359883	-0.1773396
65	0xbdf8ae4d	-0.1214262
66	0xbe5cd8ee	-0.21567127
67	0x3d2b1b6e	0.041774206
68	0xbe4641a0	-0.19360971
69	0x3d276448	0.04086712
70	0xbdb9967f	-0.09061908
71	0xbd511ead	-0.051054645
72	0x3cac7bef	0.02105519
73	0x3d82d291	0.063878186
74	0xbdaba1be	-0.08380459
75	0x3e2dd1c5	0.16974552
76	0x3e978772	0.29595524
77	0x3dcbc007	0.09948736
78	0xbda5d6f2	-0.08097638
79	0x3d0d98ec	0.034569666
80	0x3cedab58	0.029012367
81	0xbdd4971d	-0.10380385
82	0xbdd1af66	-0.10238533
83	0xbed129b2	-0.40852123
84	0xbd161352	-0.03663952
85	0xbcf89ab6	-0.03034721
86	0xbbf187c6	-0.007370922
87	0xbe0d00b8	-0.13769805
88	0xbdb1e61b	-0.08686467
89	0xbe8f4f3b	-0.27990136
90	0x3e15dbd4	0.14634639
91	0x3e081e46	0.13292798
92	0x3d98451c	0.074350566
93	0xbcef05bd	-0.02917754
94	0x3d662db4	0.05619593
95	0xbd7f69a8	-0.06235662
96	0xbda52c2d	-0.080650665
97	0xbdaa8a84	-0.08327201
98	0x3cf52d25	0.029928753
99	0x3d8fef34	0.07028046
100	0x3b1f0525	0.002426454
101	0xbdc8cead	-0.09805045
102	0xbdcd38d0	-0.10020602
103	0xbd06b772	-0.03288979
104	0x3d04e0b9	0.032440875
105	0xbd8a0b6c	-0.0674046
106	0x3c81e257	0.015854998
107	0xbdba6877	-0.09101956
108	0x3daa286b	0.0830849
109	0xbcc5a56c	-0.02412673
110	0xbce87ed9	-0.028380798
111	0xbdaba146	-0.0838037
112	0xbdc93812	-0.09825148
113	0x3d201667	0.039083865
114	0x3c8bae30	0.017050833
115	0x3d593776	0.053031407
116	0xbdb263af	-0.087104194
117	0xbb3ea7a4	-0.002909162
118	0xbcb8dae9	-0.022565322
119	0x3d6cf649	0.057852063
120	0xbd985e06	-0.074398085
121	0x3cb0e52b	0.02159365
122	0x3d746366	0.059665106
123	0x3d44c25a	0.04803691
124	0xbd1d3f73	-0.038390588
125	0x3ca6a60c	0.02034285
126	0xbddc3614	-0.10752502
127	0x3ce7f9b7	0.028317316
128	0xbdc71bce	-0.097221
129	0xbda51ec4	-0.08062509
130	0xbdbd7314	-0.09250465
131	0xbda8a6cc	-0.08234939
132	0xbd88726d	-0.0666245
133	0xbb3c366e	-0.0028718966
134	0xbcc6bfe9	-0.024261432
135	0xbd7db91a	-0.061944105
136	0xbccc4fb7	-0.024940355
137	0xbdbbb5b3	-0.09165516
138	0x3d2a6071	0.04159588
139	0xbdb0571f	-0.08610367
140	0xbda8e8d2	-0.08247532
141	0xbd7c508b	-0.06160025
142	0x3cc5cdcf	0.024145989
143	0x3bfea6e0	0.007771358
144	0xbc018881	-0.00790608
145	0x3db910f2	0.09036435
146	0xbd495dc7	-0.0491617
147	0xbc9bdff1	-0.019027682
148	0x3caf91b6	0.021431785
149	0x3d9cb128	0.076509774
150	0x3d9c1bfa	0.076225236
151	0x3a576505	0.0008216652
152	0xbd497f5a	-0.049193718
153	0x3d057c6e	0.03258937
154	0x3d7f142b	0.062275093
155	0xbb05fb26	-0.0020443886
156	0x3c8ba0dd	0.017044479
157	0x3dc5eccc	0.09664306
158	0xbddde6ba	-0.10835023
159	0xbd531968	-0.0515379
160	0xbdae7de2	-0.08520104
161	0xbaa0bfc9	-0.0012264188
162	0x3d8039e3	0.06261041
163	0xbcac3b10	-0.021024257
164	0x3c084dfe	0.008319376
165	0x3cdacb82	0.026708368
166	0xbbbd029b	-0.005768133
167	0x3d92c7f7	0.071670465
168	0x3c0e5496	0.008687159
169	0xbdd8dd49	-0.10589082
170	0xbdab1076	-0.08352749
171	0xbdb81343	-0.08988049
172	0x3cfbcceb	0.030737361
173	0x3d4a92e4	0.049456492
174	0xbc7cd516	-0.015431663
175	0x3d96e841	0.07368518
176	0xbd869a9e	-0.0657246
177	0x3c416a38	0.01180511
178	0x3da7a489	0.081856795
179	0x3d1fc392	0.03900487
180	0xbba582ef	-0.005051009
181	0x3d96ae7d	0.073575
182	0xbdee10fd	-0.11624334
183	0x3ce1faf0	0.027585477
184	0x3d7103ab	0.05884139
185	0xbde8d8b5	-0.113694586
186	0xbdc1b31b	-0.0945799
187	0x3d34e24a	0.04416112
188	0xbd145603	-0.03621484
189	0xbd52f6ac	-0.051504776
190	0x3ca64da4	0.020300694
191	0xbd97a19c	-0.074038714
192	0x3d9ed480	0.07755375
193	0x3c3fa6cd	0.011697483
194	0xbd7de10b	-0.061982196
195	0x3ddfacd9	0.1092164
196	0xbd86cff5	-0.065826334
197	0x3ce61463	0.028085893
198	0xbb8c003c	-0.004272489
199	0x3e3fa271	0.1871431
200	0x3c4a23dc	0.012337651
201	0x3d3e5b60	0.04647386
202	0xbe9176fa	-0.28411084
203	0xbe9f4d1a	-0.3111351
204	0x3e5046d9	0.20339526
205	0xbc520938	-0.012819581
206	0xbe2d8e5e	-0.1694884
207	0xbe03e61b	-0.12880747
208	0x3cc449bf	0.023960946
209	0x3e32e503	0.17470174
210	0x3c809e1d	0.015700394
211	0x3daf6468	0.08564073
212	0x3d69c9a9	0.057077084
213	0x3d5c9014	0.05384834
214	0x3c625eff	0.013816594
215	0xbe09e9d6	-0.13468108
216	0xbe0f720d	-0.1400835
217	0x3dbfed76	0.09371464
218	0xbe958485	-0.29202667
219	0xbd9f817c	-0.07788369
220	0xbcd5bc01	-0.026090624
221	0x3c0efd4a	0.008727381
222	0x3e652439	0.22377099
223	0xbcd6cdc8	-0.026221171
224	0xbda853f0	-0.08219135
225	0x3cda4ec9	0.026648896
226	0x3c959a2d	0.018261993
227	0xbcc880f9	-0.024475561
228	0xbb77d874	-0.0037818225
229	0x3d465b23	0.04842676
230	0xbc1dffc0	-0.009643495
231	0xbe077b97	-0.1323074
232	0xbd4a18a9	-0.049339924
233	0x3eb10674	0.34575236
234	0xbdaada95	-0.083424725
235	0xbd8ac76c	-0.06776318
236	0xbe487ca5	-0.19578798
237	0x3ce6efc2	0.028190497
238	0xbdb9f680	-0.09080219
239	0xbc8517f6	-0.016246777
240	0x3bd71082	0.006563247
241	0x3bc980ea	0.006149401
242	0xbc0564af	-0.008141681
243	0xbdc1dd70	-0.09466064
244	0x3bbe7853	0.0058126836
245	0xbe63b029	-0.22235169
246	0x3d094d25	0.033520836
247	0x3e4a3694	0.19747382
248	0x3e1ed5ce	0.15511248
249	0xbd822690	-0.063550115
250	0xbac62abb	-0.0015118936
251	0xbe50f6ce	-0.20406649
252	0x3d4ad317	0.049517717
253	0xbd4aa8c2	-0.049477346
254	0x3e86d6e9	0.26335838
255	0xbe2f69a1	-0.17130138

conv4.weight f4 [64, 64, 3]
0	0xbd70e9fa	-0.058816887
1	0xbd426bd3	-0.04746611
2	0xbda5d7ab	-0.08097776
3	0xbce88dda	-0.028387953
4	0xbdab5f21	-0.08367754
5	0xbe214af3	-0.15751247
6	0xbd0dcc6c	-0.03461878
7	0xbe1a44ec	-0.15065354
8	0xbdbd8e86	-0.092557
9	0xbc97a584	-0.018511541
10	0xbd5e93b3	-0.054340076
11	0xbcb4a6c4	-0.022052176
12	0xbd2cc857	-0.042183246
13	0x3bc6a1b4	0.006061757
14	0x3d74a093	0.059723448
15	0xbd2cb95b	-0.042168956
16	0x3d148a2a	0.036264576
17	0x39bfbeff	0.00036572662
18	0xbd3c3f6d	-0.045958925
19	0xbe2d6b2b	-0.16935413
20	0xbdc83b45	-0.0977693
21	0xbdd171f8	-0.10226816
22	0xbd099c77	-0.033596482
23	0x3d19c905	0.037545223
24	0x3bab0ee0	0.005220279
25	0xbc8c960f	-0.017161397
26	0x3b54209d	0.0032368072
27	0x3d2c15e3	0.04201306
28	0xbb86d5ba	-0.0041148337
29	0xbbdd317d	-0.006750284
30	0xbbe495fd	-0.006975888
31	0x3c0a5eb9	0.008445435
32	0xbc198cf7	-0.009371988
33	0xbb4b6e17	-0.003104096
34	0xbda35dbc	-0.07976863
35	0xbd0af23d	-0.033922423
36	0xbdb1c152	-0.08679451
37	0xbdcf941e	-0.10135673
38	0xbe3de96e	-0.18546078
39	0xbd11cd9a	-0.035596468
40	0x3d1a2fc5	0.037643213
41	0x3d3ccbe8	0.046092898
42	0xbdbcf21a	-0.09225865
43	0xbd0549fe	-0.032541268
44	0x3cf169a8	0.029469326
45	0x3ca3561f	0.019938527
46	0x3d47ebf2	0.048809
47	0xbd3c3c71	-0.04595608
48	0xbdd8f1aa	-0.10592969
49	0xbc5437fd	-0.012952802
50	0xbbab2631	-0.0052230586
51	0xbd52b3fd	-0.05144118
52	0xbd8dbef5	-0.06921188
53	0x37948b40	1.7707818e-05
54	0x3d7ad9bd	0.061242808
55	0x3cb598fd	0.022167677
56	0xbd3601f9	-0.044435475
57	0x3b8fc414	0.004387388
58	0xbe2010dd	-0.15631433
59	0xbd06505e	-0.032791488
60	0xbcd049c2	-0.025425795
61	0xbe17035e	-0.14747378
62	0x3c622c11	0.013804452
63	0xbc882f30	-0.016624063
64	0x3cd9e88b	0.026600143
65	0xbc48ca7b	-0.012255306
66	0xbd96f202	-0.07370378
67	0xbd1ee9f4	-0.038797334
68	0xbdff501c	-0.124664515
69	0xbde2e2b4	-0.110783964
70	0xbdc1214b	-0.09430178
71	0xbd27f792	-0.041007586
72	0xbd98c27b	-0.07458969
73	0xbd8f3531	-0.06992567
74	0xbd654bdf	-0.05598056
75	0xbcf07a6f	-0.029355256
76	0xbdab6c3d	-0.08370254
77	0xbc8233cf	-0.015893845
78	0x3cdd4fbe	0.027015563
79	0xbb2285dc	-0.0024799025
80	0xbd936c42	-0.07198383
81	0xbd40898f	-0.047006186
82	0xbd285bc6	-0.041103147
83	0xbd0a41fe	-0.03375434
84	0xbe312ebf	-0.17302988
85	0xbce3bc34	-0.027799703
86	0xbdfb2f6c	-0.122649044
87	0xbca0ca97	-0.019627852
88	0xbd7d352e	-0.061818294
89	0xbc0a2dba	-0.008433754
90	0x3d26defd	0.040740002
91	0x3d2b77df	0.041862365
92	0xbd1acb42	-0.037791498
93	0x3d03f48c	0.03221564
94	0xbcd2ac62	-0.025716964
95	0xbc99a4fc	-0.018755428
96	0x3c34f6f1	0.011045204
97	0x3cdbb74f	0.026820807
98	0x3d5f632a	0.05453793
99	0xbbce2f06	-0.0062922267
100	0x3d9fea21	0.078083284
101	0xbcf4dc9e	-0.029890355
102	0xbe07ce3e	-0.13262269
103	0xbd4c862b	-0.04993264
104	0xbdd486ed	-0.103772976
105	0xbe023381	-0.1271496
106	0x3cd7dfa0	0.02635175
107	0xbcad7640	-0.02117455
108	0xbdedd111	-0.11612142
109	0xbdb90a57	-0.09035175
110	0xbdf3f044	-0.119110614
111	0x3dbf41bb	0.09338709
112	0x3c44ab92	0.012003796
113	0xbc5b5687	-0.013387329
114	0xbd5cd3a6	-0.05391278
115	0xbce7bbd8	-0.028287813
116	0xbd9a8643	-0.0754514
117	0x3cf127e5	0.029437969
118	0x3bdd9277	0.0067618447
119	0xbdaa81b1	-0.08325518
120	0xbd125b67	-0.0357317
121	0x3b9b5b8d	0.0047411383
122	0x3cdab149	0.026695864
123	0x3c12d0fa	0.008960957
124	0xbc86e8e5	-0.016468475
125	0xbcdeb61f	-0.027186451
126	0x3d3658b6	0.044518195
127	0xbcc1af9c	-0.023643307
128	0xbd0fc05e	-0.035095565
129	0x3d02fa93	0.031977247
130	0xbc1f5c0a	-0.009726534
131	0xbce8d487	-0.028421653
132	0x3cdfa9e5	0.027302692
133	0xbd669723	-0.05629648
134	0xbdc7ca50	-0.09755385
135	0x3c0266d3	0.0079590855
136	0xbd4fe4d2	-0.05075533
137	0xbc92575a	-0.017863918
138	0xbcb05037	-0.021522624
139	0xbd08d4ea	-0.033406176
140	0xbd81dfd0	-0.06341517
141	0xbd3bf5c6	-0.045888685
142	0xbd803570	-0.062601924
143	0xbd285295	-0.04109438
144	0xbdae2714	-0.08503547
145	0xbca39bc4	-0.019971736
146	0xbe15529f	-0.14582299
147	0x3c24dd98	0.010062598
148	0xbde01e63	-0.10943296
149	0xbdb3a207	-0.08771139
150	0x3cbac518	0.02279906
151	0xbcbf8118	-0.023376986
152	0x3d6b7598	0.057485193
153	0xbdb11aec	-0.08647713
154	0x3d1ff140	0.039048433
155	0x3c888e46	0.016669404
156	0x3da66840	0.08125353
157	0xbd612050	-0.054962456
158	0xbc4e9399	-0.012608432
159	0xbd025f26	-0.031829022
160	0xbd66d944	-0.056359544
161	0xbd42c20d	-0.047548342
162	0xbd8fca2f	-0.07020985
163	0xbd744c4e	-0.059643082
164	0xbdc19b53	-0.09453454
165	0xbd55cc8c	-0.052197024
166	0xbdc259a4	-0.09489754
167	0x3bbe7abb	0.0058129705
168	0xbdcb41bf	-0.099246494
169	0x3d5ec6a6	0.054388665
170	0xbd87e89e	-0.06636165
171	0xbe347211	-0.17621638
172	0x3ce30822	0.027713839
173	0x3bee3cea	0.007270445
174	0xbca7604c	-0.02043166
175	0x3d2c495d	0.042062152
176	0xbdcd1c7c	-0.100151986
177	0x3d0430e5	0.032273192
178	0xbd8e5518	-0.06949824
179	0xbd2e01a4	-0.042482033
180	0xbd7f406a	-0.06231729
181	0xbd5e547e	-0.054279797
182	0xbc210c38	-0.009829573
183	0xbc8932df	-0.01674789
184	0x3c807f27	0.015685631
185	0x3ccd0ae6	0.02502961
186	0x3d29ac96	0.041424356
187	0x3d32da92	0.043665476
188	0xbcc96538	-0.024584398
189	0x3d499dc2	0.049222715
190	0xbcb82f1d	-0.022483403
191	0x3cd3ffd9	0.025878834
192	0x3df357dc	0.11881992
193	0xbdd52341	-0.10407115
194	0x3dcc1bfb	0.09966274
195	0x3dad2031	0.08453406
196	0xbdcb1eb4	-0.099179655
197	0xbe3754a8	-0.17903388
198	0xbd13fcae	-0.036129646
199	0xbe06e5e0	-0.13173628
200	0x3d5861ad	0.052827526
201	0xbd097674	-0.03356023
202	0x3d84380a	0.06456001
203	0xbca53076	-0.02016471
204	0xbd75b378	-0.059985608
205	0x3d7e5cad	0.0621001
206	0x3d838d32	0.06423415
207	0xbdca9f38	-0.0989365
208	0xbe1be742	-0.15224937
209	0x3bd3784f	0.006453551
210	0x3b24715a	0.0025091977
211	0xbdd49c4c	-0.10381374
212	0xbdf3f290	-0.119114995
213	0xbd97583a	-0.07389875
214	0xbe545626	-0.20735988
215	0xbdd592b6	-0.104283735
216	0x3c3b72ea	0.011440972
217	0x3d4913a2	0.04909099
218	0x3e3158cf	0.17319034
219	0xbc896f61	-0.016776742
220	0xbdf83dc8	-0.12121159
221	0xbc3a73ef	-0.01138018
222	0x3e088e7b	0.13335602
223	0x3dac35eb	0.084087215
224	0x3ea0c587	0.314007
225	0xbc91087e	-0.017704245
226	0xbdfa4265	-0.12219695
227	0x3de1c144	0.110231906
228	0x3d737121	0.05943406
229	0xbda0cc5a	-0.07851477
230	0x3de50c44	0.1118398
231	0xbd4a6541	-0.04941297
232	0xbd5456c5	-0.051840562
233	0x3ea29185	0.31751648
234	0xbb6e17c3	-0.003633008
235	0xbc668e82	-0.014072062
236	0x3cd5a266	0.026078414
237	0x3c706f37	0.014674953
238	0x3d953a5b	0.07286521
239	0xbd858faf	-0.06521546
240	0xbe29618c	-0.16541117
241	0xbe2a5cad	-0.16636916
242	0x3e261775	0.16219886
243	0x3d5bf096	0.053696238
244	0xbd9cd05e	-0.076569304
245	0x3cbd74e1	0.023127021
246	0xbb951cb0	-0.004550539
247	0xbeb722d4	-0.3576876
248	0x3c259caf	0.010108157
249	0xbd6796b3	-0.056540202
250	0x3a050289	0.0005073925
251	0x3d14c8d0	0.036324322
252	0x3d3e6ec2	0.046492346
253	0xbd39bbe1	-0.04534519
254	0x3d2d76c8	0.042349607
255	0x3d942028	0.07232696

conv5.weight f4 [64, 64, 3]
0	0xbdaef3eb	-0.085426174
1	0x3d591e03	0.053007137
2	0xbd48ed10	-0.049054205
3	0xbd84c080	-0.06482029
4	0xbdc08295	-0.093999065
5	0xbd3fe92f	-0.04685324
6	0xbc8c60a8	-0.017135933
7	0x3cf52ee0	0.029929578
8	0xbc59bbbd	-0.013289389
9	0xbdbc30c6	-0.0918899
10	0x3c49a686	0.012307769
11	0xbd00b66e	-0.03142398
12	0x3d176f05	0.03697111
13	0x3c0fdb41	0.008780302
14	0x3dacc80d	0.08436594
15	0xbcd6c2bd	-0.026215905
16	0x3b74c687	0.0037349777
17	0xbc9a9c11	-0.018873246
18	0xbde620b1	-0.11236704
19	0xbcce2472	-0.025163863
20	0xbdcf1cd5	-0.10112921
21	0xbd395b22	-0.045252927
22	0xbd153ad8	-0.03643307
23	0x3c255216	0.010090372
24	0xbda3db55	-0.08000819
25	0xbd9c9399	-0.076453395
26	0x3cadf22c	0.02123364
27	0x3c11a616	0.008889696
28	0x3d073a4f	0.03301459
29	0x3d8f2d31	0.069910415
30	0xbc2cf42d	-0.010556263
31	0x3d689767	0.056785014
32	0x3b7270e9	0.003699357
33	0x3cf027a1	0.029315772
34	0xbd84e1a7	-0.06488352
35	0xbd0c71c5	-0.034288187
36	0xbb937b14	-0.004500756
37	0x3ccced9a	0.025015641
38	0x3b9e5ee6	0.00483309
39	0xbc89f4aa	-0.016840298
40	0x3c6cfccb	0.014464567
41	0x3d7b67ae	0.061378174
42	0xbc319f3f	-0.01084119
43	0xbb530323	-0.0032197915
44	0xbd922be9	-0.071372814
45	0xbd5ee6c8	-0.05441931
46	0xbd160dba	-0.036634184
47	0x3db575ed	0.08860383
48	0xbc8ce5f6	-0.017199498
49	0xbd9c884a	-0.076431826
50	0xbcdf10bd	-0.027229661
51	0x3d4dc888	0.05024007
52	0xbdc63bba	-0.09679361
53	0xbd003a4f	-0.031305607
54	0xbda71c0d	-0.08159647
55	0x3d871ba6	0.065970704
56	0xbc4e44dd	-0.0125896605
57	0xbd7cfbd5	-0.061763603
58	0x3b089eb2	0.0020846543
59	0x3df30f9e	0.11868213
60	0x3c2f54be	0.010701356
61	0x3c80059d	0.015627677
62	0x3c199515	0.009373923
63	0xbdc16d98	-0.094447315
64	0xbdc7aac6	-0.09749369
65	0xbc274be6	-0.010210967
66	0xbd8f1e99	-0.06988258
67	0xbd175640	-0.03694749
68	0x3d451a2b	0.04812066
69	0xbdf71908	-0.12065321
70	0xbd716116	-0.05893048
71	0x3bb09431	0.0053887595
72	0xbe075461	-0.13215782
73	0xbdf93cb8	-0.12169784
74	0xbca051dd	-0.019570285
75	0x3d92c3c8	0.071662486
76	0xbd95339d	-0.07285235
77	0x3d4c797a	0.049920537
78	0xbdca5cc5	-0.09880976
79	0xbd59a053	-0.053131413
80	0xbd69df4f	-0.05709773
81	0xbccd102e	-0.02503213
82	0xbd840321	-0.06445909
83	0xbc57b823	-0.01316646
84	0xbc493397	-0.012280366
85	0xbbd18c2c	-0.0063948836
86	0xbc37f8b4	-0.011228729
87	0xbd788a0a	-0.06067852
88	0x3c936f45	0.017997393
89	0x3923b95f	0.00015613947
90	0xbe62fdf8	-0.22167194
91	0x3d6b52ea	0.05745212
92	0xbe0b4abd	-0.13602729
93	0xbcb1ba7e	-0.021695372
94	0xbda26321	-0.079290636
95	0x3ce60e71	0.028083058
96	0x3ab4df30	0.0013799425
97	0xbc0109f3	-0.007875907
98	0x3db91f22	0.09039141
99	0x3dd140ef	0.10217463
100	0xbdb4295b	-0.087969504
101	0x3cf84f66	0.030311298
102	0xbe301e57	-0.17199074
103	0xbc932c91	-0.017965587
104	0x3dbd02e7	0.09229069
105	0x3bbf28b8	0.0058337115
106	0xbcb3c6ac	-0.02194532
107	0xbe147c87	-0.14500628
108	0x3a6c76a3	0.0009020364
109	0xbe085345	-0.13313015
110	0x3d4f8ac1	0.050669435
111	0x3c8a7f00	0.016906261
112	0xbcdf5bae	-0.027265396
113	0xbc182090	-0.009285107
114	0xbc0f496c	-0.0087455325
115	0xbdee292b	-0.11628946
116	0x3dbfab90	0.09358895
117	0xbd8ed99e	-0.06975101
118	0xbdbd5a1b	-0.09245702
119	0x3d3b60ed	0.045746733
120	0xbdad62c2	-0.08466102
121	0xbd68240c	-0.056675002
122	0xbc22060e	-0.009889139
123	0xbc73b97b	-0.014875765
124	0xbd96008a	-0.073243216
125	0xbcb92598	-0.022600934
126	0x3d09044c	0.033451363
127	0xbdcafe52	-0.09911789
128	0x3d52fdd7	0.05151161
129	0xbd31f299	-0.04344425
130	0xbd041ce7	-0.032254126
131	0x3d210d52	0.039319344
132	0xbd4d01a0	-0.050050378
133	0xbd17d6b0	-0.037069976
134	0x3d919842	0.07109119
135	0x3d3c303b	0.045944434
136	0xbddaef52	-0.10690178
137	0xbd0c8930	-0.03431052
138	0xbca276cf	-0.019832043
139	0xbd1c8323	-0.038211
140	0x3bef544b	0.0073037497
141	0xbc4c5a9a	-0.012472773
142	0x3c8e351a	0.017359305
143	0x3d97b572	0.07407655
144	0xbdab391b	-0.083605014
145	0x3d6d98a0	0.058006883
146	0x3ac7b9c0	0.0015237853
147	0xbe2fb840	-0.1716013
148	0xbd846ae9	-0.06465704
149	0xbd3210e2	-0.043473132
150	0xbe561ece	-0.20910189
151	0xbd89c8bc	-0.0672774
152	0xbd9b9de6	-0.07598476
153	0xbdf314db	-0.11869212
154	0xbcf48105	-0.029846678
155	0xbc608c46	-0.013705319
156	0x3bb1f7bb	0.005431143
157	0xbd926365	-0.07147864
158	0xbcd7f0ff	-0.026360033
159	0xbdc70574	-0.09717837
160	0xbd5823e0	-0.052768588
161	0x3d6cda32	0.057825275
162	0xbd0fddbb	-0.035123568
163	0x3cb695ef	0.02228829
164	0x3b70febb	0.0036772925
165	0x3cff813b	0.031189552
166	0xbd4cdec6	-0.05001714
167	0x3e0e6835	0.1390694
168	0xbb3200e2	-0.002716117
169	0x3c89a1f5	0.01680086
170	0x3e1f556d	0.15559931
171	0xbe125efb	-0.14294045
172	0xbd84328c	-0.064549536
173	0xbe8bbe80	-0.27293777
174	0xbdfba7f0	-0.12287891
175	0x3d212f6f	0.039351877
176	0xbdc27d37	-0.09496539
177	0xbd365b68	-0.044520766
178	0x3c7b8ae0	0.015352935
179	0xbc2e04d1	-0.0106212655
180	0xbdaf79df	-0.08568167
181	0xbc5dd843	-0.01354033
182	0x3d3f569e	0.046713464
183	0xbc1bab0e	-0.009501232
184	0xbd2c72fd	-0.04210185
185	0xbcaf93f3	-0.021432852
186	0x3d8f8861	0.07008434
187	0x3c1e256b	0.009652476
188	0xbd5b66c4	-0.0535648
189	0x3d6bba34	0.057550624
190	0x3d6b8f98	0.05750999
191	0x3d2c84d7	0.042118873
192	0x3d892fcf	0.06698572
193	0xbd81d1c5	-0.063388385
194	0x3d0617dc	0.032737598
195	0x3dd7c959	0.10536451
196	0xbd966db9	-0.07345147
197	0xbca724c4	-0.020403273
198	0xbdf40267	-0.11914521
199	0xbd113b7b	-0.035457116
200	0xbdd32d2e	-0.10311352
201	0xbdbd47cb	-0.09242209
202	0xbc98419c	-0.018585972
203	0xbd9d0f8b	-0.0766898
204	0xbe53851e	-0.20656249
205	0xbcf42ef8	-0.029807553
206	0x3ccaaf72	0.024741862
207	0xbd907411	-0.07053388
208	0xbcb1a3ea	-0.021684606
209	0x3ce9c990	0.028538495
210	0xbdf2d159	-0.11856336
211	0x3dc2ec9f	0.09517788
212	0xbcb584b8	-0.022158012
213	0xbd5f7133	-0.054551315
214	0x3e089ecb	0.13341825
215	0xbd8b8159	-0.068117805
216	0x3e0642d4	0.1311143
217	0xbe396b14	-0.18107253
218	0xbdef4d96	-0.1168472
219	0x3d7296b5	0.059225757
220	0x3bde18a4	0.0067778397
221	0xbcc26521	-0.023729863
222	0x3dfc0d41	0.123072155
223	0x3ae5d8f1	0.0017535967
224	0xbd8c2722	-0.068434015
225	0x3d2bf266	0.041979216
226	0xbbb9bb0b	-0.005668049
227	0xbc418648	-0.0118118
228	0xbc3b91ee	-0.011448367
229	0x3d0a2061	0.033722285
230	0x3d837786	0.06419282
231	0x3dd8577c	0.10563561
232	0x3e169d99	0.14708556
233	0x3cb256f9	0.021769987
234	0x3dd2a5ac	0.10285506
235	0x3d31c7fd	0.043403614
236	0xbd462118	-0.048371404
237	0xbec1d2e9	-0.37856224
238	0xbe5eb203	-0.21747594
239	0xbdaddb2c	-0.08489069
240	0x3d7908b2	0.060799308
241	0xbe0e189b	-0.13876574
242	0xbe52a50e	-0.20570776
243	0xbd8dc4cf	-0.06922304
244	0x3df7969d	0.12089274
245	0xbe005a00	-0.12534332
246	0xbd659ecc	-0.056059644
247	0x3d619864	0.05507697
248	0xbd4ff73e	-0.050772898
249	0x3dcc2830	0.09968603
250	0x3b624168	0.0034523848
251	0xbdae6a8a	-0.085164145
252	0x3c9dfe1c	0.019286208
253	0xbd8927ff	-0.06697082
254	0xbd52ae51	-0.051435772
255	0xbdad5054	-0.08462587

conv6.weight f4 [64, 64, 3]
0	0x3de517dc	0.111861914
1	0xbdb9fc62	-0.09081341
2	0x3d77efdf	0.060531493
3	0xbda210f2	-0.07913388
4	0x3c2a605d	0.010398951
5	0x3b00d28b	0.0019656743
6	0x3b84fdb4	0.004058564
7	0xbdca0ee2	-0.0986612
8	0x3d58968f	0.05287796
9	0xbe137b09	-0.14402403
10	0xbd2feb44	-0.042948976
11	0xbce61f40	-0.028091073
12	0xbd25fdb9	-0.040525172
13	0x3b821300	0.00396955
14	0xbd1f0109	-0.038819347
15	0x3d7e8487	0.062138107
16	0xbe221ce6	-0.15831336
17	0x3d376c4d	0.044781018
18	0xbd572230	-0.052522838
19	0xbdc3f49c	-0.0956814
20	0x3d3277ec	0.043571398
21	0xbc6f0805	-0.014589314
22	0xbe5d3594	-0.2160247
23	0x3db6c7bf	0.08924817
24	0xbac8c9d0	-0.0015318934
25	0x3c3fc644	0.011704985
26	0x3d30ad92	0.04313428
27	0xbd8380fa	-0.06421085
28	0xbdc2e9e8	-0.0951727
29	0x3d457200	0.048204422
30	0xbdc5c045	-0.09655813
31	0xbd054e3f	-0.032545324
32	0xbd9358f1	-0.071946986
33	0xbcf13075	-0.029442051
34	0xbd3ce2ff	-0.046114918
35	0x3d1becf8	0.038067788
36	0x3e0bb9a0	0.13645029
37	0x3c94d786	0.018169176
38	0xbe146e69	-0.14495243
39	0x3c41c1e9	0.011826017
40	0xbe2a1d2c	-0.1661269
41	0x3e2da2f2	0.1695669
42	0x3df53850	0.119736314
43	0x3d05ef29	0.032698784
44	0x3ceec2b5	0.029145578
45	0xbc0bb237	-0.008526376
46	0xbda2c29e	-0.079472765
47	0x3d82d6d7	0.06388634
48	0x3c718874	0.014742006
49	0xbd2b5435	-0.041828353
50	0xbd49dc9a	-0.049282648
51	0xbcf62f5b	-0.030051878
52	0xbe06ede9	-0.13176693
53	0x3d0d3ec7	0.034483697
54	0xbe32b7d2	-0.17452934
55	0x3cfb7055	0.030693213
56	0xbdeb1564	-0.11478689
57	0xbd611f94	-0.054961756
58	0x3d13d03d	0.036087263
59	0xbd0893ac	-0.033343956
60	0xbd073ff0	-0.03301996
61	0xbc16466f	-0.009172066
62	0x3cb95435	0.02262316
63	0x3de2faf7	0.11083024
64	0xbe8210c3	-0.25403413
65	0x3d28e93f	0.041238066
66	0x3c9e5897	0.019329352
67	0xbdf688ba	-0.12037797
68	0xbd77c59e	-0.060491197
69	0xbc98c001	-0.018646242
70	0xbd7e00a7	-0.06201234
71	0xbdd555a4	-0.10416725
72	0xbdee43f8	-0.11634058
73	0x3cd3317b	0.02578043
74	0xbd64709f	-0.055771466
75	0x3cc4017e	0.023926493
76	0xbdb6db9d	-0.08928607
77	0xbbaae97a	-0.005215821
78	0xbd09827e	-0.033571713
79	0xbd968991	-0.073504575
80	0x3d21142d	0.03932588
81	0xbcacfae7	-0.021115733
82	0xb937be41	-0.00017523115
83	0xbb6b7cba	-0.0035932497
84	0x3da4cd98	0.080470264
85	0xbdef8f86	-0.11697297
86	0x3cd762c9	0.026292222
87	0x3ca6ac06	0.020345699
88	0x3c6fb0be	0.014629541
89	0x3b12dc8c	0.0022409288
90	0x3e2ece81	0.17070962
91	0xbe5a0481	-0.2129078
92	0x3d60130c	0.054705665
93	0x3dc191db	0.09451648
94	0xbe5b2bec	-0.21403474
95	0xbc59dd2c	-0.01329736
96	0x3d44e2c2	0.048067816
97	0xbd826cff	-0.063684456
98	0xbd0e19be	-0.03469252
99	0x3e1f7dc8	0.15575325
100	0xbe0bf766	-0.13668594
101	0x3da1be84	0.07897666
102	0x3d186bd8	0.037212223
103	0xbd33deec	-0.043913767
104	0x3d860b39	0.06545109
105	0x3dc09383	0.09403136
106	0x3d3e2fbb	0.046432238
107	0xbca32e7c	-0.019919626
108	0x3ccca4ef	0.02498099
109	0xbdce5276	-0.10074322
110	0x3d3142f1	0.04327673
111	0xbc38f9f2	-0.01129006
112	0xbdc6cacf	-0.097066514
113	0xbda1373c	-0.07871863
114	0x3d512e91	0.0510698
115	0x3d1d0a41	0.038339857
116	0xbb2602bc	-0.002533122
117	0xbd1f92ee	-0.038958482
118	0xbd9a2294	-0.075261265
119	0x3c23f105	0.010006194
120	0xbcfe45ab	-0.03103908
121	0xbd245186	-0.04011681
122	0xbcc78917	-0.024357362
123	0xbcc426c8	-0.023944274
124	0x3d38b494	0.045094088
125	0xbd12234b	-0.03567819
126	0xbd9b87a2	-0.07594229
127	0x3d9b2fe1	0.075774916
128	0x3db6c3a9	0.08924038
129	0xbd0e8127	-0.034791138
130	0xbda3466b	-0.079724155
131	0xbb25ec03	-0.0025317676
132	0x3e5b60c0	0.21423626
133	0x3d719c8a	0.058987178
134	0x3d01eefc	0.031722054
135	0x3db38cd9	0.08767099
136	0xbc717937	-0.0147383725
137	0xbd578a10	-0.0526219
138	0x3c8c7be7	0.017148925
139	0x3bc66b22	0.0060552517
140	0xbdc9f543	-0.09861233
141	0xbe57c0a2	-0.21069577
142	0xbd595686	-0.05306103
143	0x3ca95986	0.02067257
144	0x3e0877d3	0.1332696
145	0xbc2d1251	-0.010563449
146	0xbb704817	-0.0036664063
147	0x3de4d447	0.11173301
148	0xbd99e063	-0.075135015
149	0x3d8801f0	0.066409945
150	0xbcca966b	-0.024729928
151	0xbd83e5a2	-0.06440283
152	0xbd49224f	-0.049104985
153	0xbe63a473	-0.22230701
154	0xbdac1f8d	-0.08404455
155	0xbdb86ec6	-0.09005503
156	0xbdc9631a	-0.09833355
157	0x3d22669a	0.03964863
158	0xbdb00f47	-0.08596664
159	0x3d45b744	0.04827048
160	0xbdb83da0	-0.08996129
161	0xbc39feda	-0.011352265
162	0xbe5d9a19	-0.21640815
163	0x3dd0d5a2	0.10196997
164	0x3ddbe9fc	0.10737988
165	0x3cf75ccd	0.030195618
166	0x3d685aef	0.056727346
167	0xbd60d52c	-0.054890797
168	0x3d86d3e0	0.06583381
169	0xbc99c285	-0.018769512
170	0xbcd62dd0	-0.026144892
171	0xbacc2efd	-0.0015577968
172	0xbd3c2875	-0.04593702
173	0xbd3c1c0e	-0.045925193
174	0x3d6bf7dc	0.057609424
175	0x3c622e06	0.013804918
176	0xbdd76b58	-0.10518521
177	0x3d86f04a	0.065888
178	0x3d63956a	0.055562414
179	0xbd65e1b2	-0.056123443
180	0xbd2d27d1	-0.0422743
181	0xbd50f12a	-0.051011242
182	0x3d927f95	0.071532406
183	0x3e67c64b	0.22634237
184	0x3a247aac	0.0006274383
185	0x3ddf848f	0.109139554
186	0xbd5df231	-0.05418605
187	0xbcc1c324	-0.02365262
188	0x3d3fe46c	0.0468487
189	0xbd0c2f70	-0.034224927
190	0xbd2ce64c	-0.042211816
191	0xbd562afa	-0.05228708
192	0x3c0d27d3	0.008615452
193	0xbc336dd0	-0.010951474
194	0x3e1df757	0.15426384
195	0xbe29bb5e	-0.16575381
196	0xbe5ed96f	-0.21762632
197	0xbb7b4950	-0.0038343258
198	0xbd91af55	-0.0711352
199	0xbc4996fc	-0.012304064
200	0x3dbceca3	0.09224822
201	0x3d3b6fd6	0.045760952
202	0x3c78843c	0.015168246
203	0xbcb4565c	-0.022013836
204	0x3ca8c6c8	0.020602599
205	0x3d1e0603	0.038579952
206	0x3d5ecda8	0.054395348
207	0xbd13eebe	-0.036116354
208	0x3df9ca7c	0.12196824
209	0x3e5447d2	0.20730522
210	0x38588758	5.162446e-05
211	0x3d3bf7ae	0.045890503
212	0x3c9c4186	0.019074213
213	0xbe72a1bd	-0.23694511
214	0x3d4d16aa	0.050070442
215	0x3e504b39	0.20341195
216	0x3d0b9af1	0.03408331
217	0xbdf1553d	-0.11783836
218	0x3d1c06b7	0.03809234
219	0x3db7887a	0.08961578
220	0xbe47feb1	-0.19530751
221	0x3d531357	0.051532116
222	0xbce38550	-0.02777353
223	0x3bc11f8e	0.005893654
224	0x3ad4f9f9	0.0016248814
225	0x3d189fc2	0.037261732
226	0xbce46896	-0.027881902
227	0xbd7749fd	-0.060373295
228	0xbec17951	-0.3778787
229	0xbd3b4568	-0.045720488
230	0xbdec9d19	-0.115534015
231	0xbf29e0c8	-0.66358614
232	0x3d2056cf	0.039145287
233	0x3d7e08f4	0.062020257
234	0xbee02131	-0.43775323
235	0xbd35925a	-0.044329025
236	0xbdc0b1e9	-0.09408934
237	0xbd80866c	-0.06275639
238	0xbd6405a1	-0.05566943
239	0x3d8ec805	0.069717444
240	0x3d492297	0.049105253
241	0xbdb6399c	-0.08897707
242	0xbdd3c287	-0.103398375
243	0xbd9736e4	-0.073835164
244	0x3d48595e	0.048913352
245	0xbda64d9f	-0.08120274
246	0xbebe5146	-0.37171382
247	0xbaa6e23b	-0.0012732217
248	0xbd81d074	-0.063385874
249	0xbea2fa13	-0.31831416
250	0xbd335170	-0.043778837
251	0xbdc2e2a6	-0.09515886
252	0xbd7bff84	-0.061522976
253	0xbd9ddc00	-0.07707977
254	0xbc3ed399	-0.0116471285
255	0xbdc336c9	-0.09531934

conv7.weight f4 [64, 64, 4]
0	0xbe25c6de	-0.16189143
1	0xbdcf490a	-0.10121353
2	0x3afb0d53	0.0019153751
3	0xbdae170f	-0.08500492
4	0xbdb17de0	-0.08666587
5	0xbde029ed	-0.10945497
6	0xbe26f1c9	-0.16303171
7	0xbd5733ed	-0.052539755
8	0xbc802ba8	-0.015645817
9	0x3cbce7fa	0.023059834
10	0x3dfe6ebd	0.124234654
11	0xbcbfdd94	-0.023421086
12	0xbe38c5ac	-0.18044156
13	0x3d1ee3e3	0.03879155
14	0xbda135d2	-0.078715935
15	0x3dc9f758	0.0986163
16	0x3e0b019c	0.13574833
17	0x3d3d560e	0.046224646
18	0xbd7446d2	-0.059637852
19	0xbd8cf4b4	-0.06882611
20	0x3dd80f26	0.10549764
21	0xbc8ce5db	-0.017199447
22	0xbc026b87	-0.007960207
23	0x3c3ab0f6	0.01139473
24	0xbc94f305	-0.018182287
25	0x3c9755e0	0.018473566
26	0xbda60858	-0.0810706
27	0x3cdb8f0e	0.026801612
28	0xbadfd6a9	-0.0017077524
29	0x3d79ce9a	0.060988046
30	0xbd6291ef	-0.055314954
31	0x3de0f760	0.10984683
32	0xbbb70cff	-0.005586266
33	0x3c9786e8	0.018496946
34	0xbdc61246	-0.09671454
35	0xbd2afdf6	-0.041746102
36	0xbd5514af	-0.05202168
37	0xbd412a38	-0.047159404
38	0xbdd26203	-0.102726005
39	0xbe874486	-0.26419467
40	0xbcc31a9b	-0.023816397
41	0x3da00a6a	0.07814486
42	0xbd738710	-0.059454978
43	0xbdee7461	-0.11643291
44	0xbdea121f	-0.114292376
45	0xbe6fb9fe	-0.23410794
46	0x3c7b5168	0.015339233
47	0xbe0708bc	-0.13186926
48	0xbad2cc55	-0.0016082624
49	0xbbbb497a	-0.005715546
50	0x3c8d4923	0.017246788
51	0xbd8cf1f9	-0.0688209
52	0x3d7324ef	0.059361394
53	0xbe104b0a	-0.14091125
54	0xbdd35298	-0.10318488
55	0xbd89673d	-0.06709144
56	0x3d66da00	0.056360245
57	0x3d90cab2	0.07069911
58	0x3cec120c	0.0288172
59	0x3c7f761e	0.015592126
60	0x3db859d7	0.090015106
61	0xbded6d9a	-0.115931705
62	0xbce12084	-0.027481325
63	0x3d9a70e7	0.07541066
64	0x3db21c0d	0.086967565
65	0xbd0f36f8	-0.03496453
66	0xbd984da6	-0.07436685
67	0xbcdfe36d	-0.027330125
68	0xbd7e46ec	-0.062079355
69	0x3c0978c0	0.008390605
70	0xbd214663	-0.039373767
71	0x3cb55bc2	0.02213848
72	0x3d3aabf3	0.04557414
73	0xbe0aebbf	-0.13566492
74	0xbd5057c6	-0.050864957
75	0xbd7bbff5	-0.06146236
76	0xbd00269e	-0.03128683
77	0x3c3210b5	0.010868241
78	0xbd99d6be	-0.07511662
79	0xbcad5489	-0.021158474
80	0xbda80ac8	-0.08205181
81	0x3e2187e7	0.15774499
82	0x3d93e718	0.07221812
83	0xbd6d7bdc	-0.05797945
84	0x3b0f9633	0.0021909594
85	0xbe1015e4	-0.1407085
86	0xbcbd7309	-0.023126142
87	0xbd96347e	-0.07334231
88	0x3d3a6393	0.045505118
89	0x3d90141b	0.07035085
90	0x3c0a3039	0.008434349
91	0x3ddff439	0.10935254
92	0x3d56b6de	0.05242049
93	0xbc27a82f	-0.010232969
94	0xbdef923e	-0.11697815
95	0x3df20847	0.11817985
96	0x3df93dd2	0.121699944
97	0xbe2cc984	-0.16873747
98	0xbca1fe13	-0.019774472
99	0xbd83cf39	-0.06436009
100	0x3b96b346	0.004599008
101	0x3c29aee5	0.0103566395
102	0x3d307483	0.043079864
103	0x3d6dd7cf	0.05806714
104	0x3c223f0f	0.00990273
105	0xbbc7beda	-0.0060957493
106	0xbd8e3b87	-0.06944948
107	0xbd208998	-0.03919372
108	0x3e0e95e9	0.13924374
109	0xbd5c2fec	-0.05375664
110	0x3dab2c2b	0.08358034
111	0x3c4a1763	0.012334677
112	0xbd123dcf	-0.035703477
113	0x3d80e0bc	0.06292865
114	0xbdee207b	-0.11627289
115	0xbc4a1d4f	-0.012336089
116	0x3c8872a4	0.016656227
117	0x3a09742a	0.0005243445
118	0xbcf5fcf2	-0.03002784
119	0xbb6221ac	-0.0034504933
120	0x3d8a320e	0.067478284
121	0xbd9538f4	-0.072862536
122	0xbc9fa4c3	-0.019487744
123	0xbdc4449d	-0.095833994
124	0x3d9fef0b	0.07809266
125	0xbcf7f80c	-0.030269645
126	0xbd9465d6	-0.07245986
127	0xbe12652c	-0.14296407
128	0xbe0e89fe	-0.13919827
129	0xbdd14c85	-0.10219673
130	0x3d6136b8	0.054983824
131	0x3ddc4153	0.10754647
132	0xbd03021c	-0.031984434
133	0x3a938b26	0.001125668
134	0xbd2f586e	-0.042808942
135	0x3bf561f3	0.007488483
136	0x3e2dfbd8	0.16990602
137	0xbd242000	-0.04006958
138	0x3e3ae317	0.1825069
139	0xbda36e5f	-0.07980036
140	0xbd05fe01	-0.03271294
141	0x3cc1c308	0.023652568
142	0xbbe5cd99	-0.0070130345
143	0xbe09f03e	-0.13470551
144	0x3da343f6	0.07971947
145	0xbcbbc294	-0.02291993
146	0xbd0ec2f7	-0.0348539
147	0x3b675450	0.0035298057
148	0x3d5261d4	0.051362827
149	0xbcebdcc3	-0.02879179
150	0x3cc00796	0.023441117
151	0xbd025dc2	-0.031827696
152	0x3bb6f583	0.0055834665
153	0x3b64c008	0.0034904499
154	0xbd40eb30	-0.047099292
155	0x3c1ce78a	0.009576688
156	0xbd089022	-0.03334058
157	0x3cde6e93	0.027152335
158	0xbdfa5aa9	-0.12224323
159	0xbd03518a	-0.032060184
160	0xbd7d5039	-0.061844084
161	0x3d30c4ad	0.043156315
162	0xbd8afdb6	-0.06786673
163	0x3d9b00ea	0.07568534
164	0x3d5a352f	0.053273376
165	0x3db0b74f	0.08628713
166	0xbc8b15c6	-0.016978156
167	0x3def95b3	0.11698475
168	0x3cc3d396	0.023904603
169	0x3d8786a1	0.06617475
170	0x3b5039ee	0.003177281
171	0x3d5c7349	0.053820882
172	0x3c352fe3	0.01105878
173	0x3e5b1a8b	0.21396844
174	0xbd0e2ba9	-0.034709606
175	0x3c8b10ce	0.016975787
176	0xbdefce31	-0.1170925
177	0x3d24e224	0.040254727
178	0xbd82147f	-0.063515656
179	0xbaf682c3	-0.001880728
180	0xbe5ce10b	-0.21570222
181	0xbd75b876	-0.05999037
182	0xbdef3a45	-0.11681036
183	0xbe83684b	-0.25665507
184	0x3c9de1d9	0.019272732
185	0xbd9ee857	-0.07759159
186	0xbd0833e3	-0.033252608
187	0xbd9c2e94	-0.076260716
188	0xbe3e3bb4	-0.18577462
189	0xbcfaf42c	-0.030634008
190	0xbe457789	-0.1928388
191	0xbd818c67	-0.06325608
192	0x3c74462a	0.014909307
193	0x3cf9fff4	0.030517556
194	0xbe243a36	-0.1603783
195	0xbcaabbad	-0.020841444
196	0xbcb220ad	-0.021744097
197	0xbd06a550	-0.032872498
198	0x3df010c1	0.117219456
199	0xbc7470e2	-0.0149194915
200	0xbd8ecb34	-0.06972352
201	0x3d8cd0d2	0.06875767
202	0xbdafd2b3	-0.085851096
203	0x3ca516d3	0.020152485
204	0xbcd0bd86	-0.025480997
205	0xbc056dc0	-0.008143842
206	0xbd25d836	-0.040489398
207	0x3d9fdce8	0.078058064
208	0xbe6fdc20	-0.23423815
209	0xbe8be31a	-0.27321702
210	0x3e18f67b	0.14937775
211	0xbe5d6a0c	-0.21622485
212	0x3e3f8dae	0.1870639
213	0xbaee09b9	-0.0018160857
214	0x3cfb888b	0.030704757
215	0x3d5c4c10	0.053783476
216	0xbc3aea75	-0.011408438
217	0xbdd3e559	-0.10346479
218	0xbc6d539d	-0.014485267
219	0x3c290a8c	0.010317456
220	0xba4472b4	-0.0007493899
221	0x3d26eaca	0.040751256
222	0xbd9c18d9	-0.07621927
223	0xbdc58362	-0.096442
224	0xbe10df07	-0.14147578
225	0xbdb30b1e	-0.08742355
226	0xbd3464e1	-0.044041518
227	0xbc8de6e9	-0.01732202
228	0x3e4153fe	0.18879697
229	0xbd9d239b	-0.07672807
230	0xbd5d0ca4	-0.053967133
231	0x3b2cb64a	0.002635377
232	0xbdd36513	-0.10322013
233	0xbd0c2ea3	-0.034224164
234	0xbd7bf1c0	-0.061509848
235	0x3d37d78c	0.044883296
236	0xbe045861	-0.12924339
237	0xbdc0c57a	-0.09412666
238	0xbba3aaed	-0.004994741
239	0x3e5442c9	0.20728602
240	0xbdf826b6	-0.121167585
241	0x3dbfeb43	0.093710445
242	0x3ba1e5d0	0.004940726
243	0x3d9a6515	0.07538811
244	0x3dcd73e1	0.10031868
245	0xbd5f9775	-0.0545878
246	0xbb1341fe	-0.0022469754
247	0x3d50876d	0.050910402
248	0xbe75087a	-0.23929015
249	0x3db9e8b0	0.09077585
250	0xbe0a6900	-0.13516617
251	0xbcda7bc6	-0.026670348
252	0xbdfbd1e9	-0.122958966
253	0xbd976165	-0.073916234
254	0xbe0a7f8f	-0.13525222
255	0xbdd0942a	-0.1018451
