models/trained/unet1d_partialconv_10kdata_30epoch_3minsep_08_14_20.pth (torch_old, 289557 bytes, 9 tensors)

conv1.weight f4 [32, 1, 5]
000000 64 63 a5 be 20 ae 19 bb 85 1b b7 c0 73 8b 10 c0
       -0.32302392 -0.0023449734 -5.7221093 -2.2585113
000010 0d a9 ee bf f0 f2 2c be 7a 06 a7 be 6b df bf ba
       -1.864534 -0.16889548 -0.3262213 -0.0014638727
000020 b9 26 7e bd 13 48 86 be c2 65 0a be 70 08 b4 bd
       -0.062048648 -0.26226863 -0.1351538 -0.08790672
000030 d6 bf da be 1c a5 97 be b6 c6 3c be c7 46 a7 be
       -0.42724484 -0.29618156 -0.18435177 -0.32671186
000040 2c 80 c3 bd 89 b3 15 bb 3f 1b 98 bd f4 dc 0b be
       -0.09545931 -0.0022842607 -0.07427072 -0.13658506
000050 3c af 42 be be 29 76 bd f0 a3 7d be e5 00 b3 ba
       -0.19012159 -0.060098402 -0.24769568 -0.0013656883
000060 13 3c 65 be c0 41 88 be a1 72 85 bb d8 ba 93 bf
       -0.22386198 -0.26612663 -0.0040725027 -1.1541395
000070 b4 4e 62 bf 84 4b fb be d0 2c 91 be 2c 80 82 3e
       -0.8840134 -0.4908105 -0.28354502 0.25488412
000080 b8 2a 93 bf 7c 07 af bf 33 aa a9 bf a0 42 cc be
       -1.1497412 -1.3674159 -1.3255066 -0.3989458
000090 14 c8 34 be 63 ae e6 3e e9 cb 13 3e 4c bc 12 bb
       -0.17654449 0.45054922 0.14433254 -0.0022390066
0000a0 c2 98 a1 3b f3 eb 4d bf dd 5a 44 3f 6f c0 ba be
       0.00493154 -0.80438155 0.76701146 -0.3647494
0000b0 95 d3 bf be 77 dc c0 be 30 03 df bb af 80 d9 bb
       -0.37466112 -0.376682 -0.0068058 -0.0066376547
0000c0 4c 9e 80 be b5 8f 47 be 1e be f4 bc 42 de a1 3e
       -0.2512077 -0.19488414 -0.029875811 0.31614882
0000d0 3f 9b de 3c 72 b4 1b bd ad b0 80 bc 76 95 01 bf
       0.027173636 -0.038013883 -0.015709246 -0.50618684
0000e0 cc fd cd 3e 50 d3 d2 be 3a 3c 08 bb 30 01 6e bc
       0.40232694 -0.41176844 -0.002078785 -0.01452665
0000f0 a7 39 f8 bd 4a a7 00 be 18 d8 61 be 2e 8d 21 bd
       -0.12120371 -0.12563816 -0.2205509 -0.03944128
000100 a7 9b 7b bb df d5 42 bc ff b6 8e b9 e5 5c ba bb
       -0.0038392337 -0.011891811 -0.00027220693 -0.0056873434
000110 db 3d f2 bc a5 fa 90 ba de 80 e2 be 20 b0 7e be
       -0.02957051 -0.0011061026 -0.44238943 -0.24871874
000120 f7 6c 5c 3e da f0 09 3f 46 f2 c7 3c 31 ea 03 3f
       0.21525942 0.53883135 0.024407517 0.5152922
000130 53 5a 1c 3e a2 e7 1b bf 61 98 8d bc 78 48 60 bc
       0.15268831 -0.6090032 -0.017284574 -0.013689153
000140 36 05 0b bf e5 30 0e 3f 74 f6 38 3d 9c 18 bb be
       -0.54304826 0.5554336 0.04515691 -0.36542213
000150 5a ec 4a be 71 98 a9 be 63 4d 0b bc 7a a6 a3 bd
       -0.19816723 -0.33124116 -0.008502337 -0.07990737
000160 6c c9 e7 3e a3 3f e3 be 28 cf ab be c1 88 b1 ba
       0.4527086 -0.44384488 -0.33556485 -0.0013544784
000170 52 f5 8d 3e ef 99 84 3d af 8f cb be 57 6d 8e be
       0.27726227 0.06474673 -0.3975806 -0.27817795
000180 ef 68 81 3d 00 8a f5 3d cd 6d e6 bf c4 4e 07 bf
       0.063188426 0.11989212 -1.8002259 -0.5285456
000190 3b d8 fc 3c fb 3a 9b be d9 69 d1 be 6b f6 1b be
       0.030864825 -0.30318436 -0.40901068 -0.1523072
0001a0 b9 35 07 be fb 2a 52 bd bb 31 c9 be 1a 9e d2 be
       -0.13204087 -0.05131052 -0.39295754 -0.41136247
0001b0 52 c8 60 bd 63 31 84 ba 83 8f b0 be 90 44 bb bd
       -0.05487854 -0.0010085519 -0.3448449 -0.09143937
0001c0 1c da a5 be eb 31 08 bb 15 1c 3f be 2b f5 60 be
       -0.32392967 -0.0020781707 -0.18663056 -0.21968524
0001d0 7b 54 ab bd c3 fc af b9 9c 10 b3 bd 18 62 9f bc
       -0.08365723 -0.00033566923 -0.08743402 -0.019455954
0001e0 55 04 2a bd 26 f6 23 be 17 6e 51 be 8e 93 e3 3e
       -0.041508038 -0.16011867 -0.20452152 0.44448513
0001f0 0b 1b d6 be cc b6 87 be 84 46 e5 bd 6c 12 5f be
       -0.41817507 -0.2650665 -0.111950904 -0.21784371
000200 7e 34 20 be e9 ab bb be 35 ee b3 bd ee 50 9f 3d
       -0.15645024 -0.36654595 -0.08785669 0.07779108
000210 0a 87 c0 be e9 51 dc 3b 51 32 c9 3e 7b 0e d1 be
       -0.37603027 0.0067236316 0.392962 -0.4083136
000220 8f 67 1e be 26 31 66 bc b7 1f 16 be 9c 21 0a ba
       -0.15469192 -0.014049804 -0.14660536 -0.00052692904
000230 c8 80 8e bd be f9 02 3d fe d8 9e 3e 4e aa ff bc
       -0.06958157 0.031976454 0.31024927 -0.031209137
000240 99 28 8d be 7e e5 1b bf 8c 7c 22 3f fd a1 38 bc
       -0.27570036 -0.6089705 0.63471293 -0.01126909
000250 81 1e 6d be f2 05 bb be aa 6b 6f bc 09 cd 35 be
       -0.23156168 -0.36527973 -0.014613071 -0.17753996
000260 be 82 03 be bb e9 30 bd fb 45 03 bb 61 3a fa be
       -0.12842843 -0.043191653 -0.0020030725 -0.48872665
000270 4a 72 fe 3e f6 58 7e bf 49 fa 0d bf 4b 5d 13 bf
       0.4969657 -0.99354494 -0.5546003 -0.5756423

conv2.weight f4 [32, 32, 3]
000000 a4 b9 0c be 8f 2b 13 be d7 0e 1f be 3a 3e 51 be
       -0.13742691 -0.14372085 -0.15533005 -0.20433894
000010 3b 1f 85 bd b5 d6 2b 3d 6e e8 3d bd 4c 7a 1d 3d
       -0.06500097 0.041952807 -0.04636424 0.03844671
000020 0e 22 bc bd 18 c7 68 bd c7 09 4a bd ef 8f e6 be
       -0.09186183 -0.056830496 -0.04932573 -0.45031688
000030 5f 1c 57 bd 5d a3 6e bd c8 92 20 be d1 b6 56 bd
       -0.05251729 -0.058261264 -0.15680993 -0.05242044
000040 3d fe 48 bd f5 15 10 be ec 4a 59 bd b0 ae 3b be
       -0.049070586 -0.14070876 -0.053049967 -0.18328357
000050 5f 2d 69 bd 25 b6 6a bd a3 ce d3 3d 2d 08 62 3d
       -0.056928035 -0.057302613 0.10342147 0.05518358
000060 a8 cb 05 be 41 92 ff bc 64 f0 02 be 8c 9d 1d bd
       -0.1306597 -0.031197669 -0.12787014 -0.038480327
000070 65 37 18 bf bf 0d c1 bc d9 dd 20 bd 2f 34 a8 bc
       -0.59459525 -0.023566125 -0.03927407 -0.020532696
000080 5e d0 23 be 6c 8c 9e be 7d 09 58 be bb 20 66 bd
       -0.15997455 -0.30966508 -0.2109737 -0.056183558
000090 2e 9c 07 be 8d 0f 07 bd 04 2b d0 bd a8 a7 b5 bd
       -0.13243172 -0.032973815 -0.101644546 -0.088698685
0000a0 63 24 06 be 1e fc 22 3d 96 b6 a9 bd 33 f9 31 be
       -0.13099818 0.03979122 -0.08286779 -0.17380218
0000b0 49 e3 0a be 61 89 ad bb 48 73 cf bd 29 fa 01 3d
       -0.13563265 -0.005295918 -0.1012941 0.031732712
0000c0 a8 bb 83 3d 40 30 16 bf 30 45 d6 bc 87 e1 67 bd
       0.06432277 -0.58667374 -0.026156038 -0.056611564
0000d0 88 62 ac 3d 30 d6 16 3e 6d 9c a8 bd e8 20 ef bd
       0.08417231 0.14730144 -0.08232961 -0.11676198
0000e0 ff 91 99 be 40 b9 27 bc df 42 c2 be b2 d2 06 be
       -0.299942 -0.010237038 -0.37941644 -0.13166311
0000f0 24 95 c8 bd 8b df 90 3c 1f 1a 24 bd 6c a0 5b bd
       -0.09794071 0.017684719 -0.040063974 -0.053619787
000100 2d 4a d2 bd 5d 50 5a 3d 07 88 a6 be fb ca 18 be
       -0.10268054 0.053299297 -0.32525656 -0.14921181
000110 de b7 ba bd 0d 01 a4 bd 86 79 a5 bc 8b c0 90 3d
       -0.09117101 -0.08008013 -0.020199548 0.07067975
000120 10 43 d8 3b 0e 8c 86 3d 13 79 08 3c b8 25 84 bd
       0.0065997913 0.06569682 0.008329648 -0.06452507
000130 d8 7e 3b 3d f4 c1 93 bd 1e b4 ce bb b1 7e 1b be
       0.045775265 -0.07214728 -0.0063080927 -0.15185048
000140 3d 7a 43 ba 85 2c 98 3b 44 c2 20 bd 3a c2 22 bc
       -0.00074568746 0.004643979 -0.039247766 -0.0099340025
000150 16 0c dd bd e6 4f 58 be 9b 9e 54 bd 07 9c c6 bc
       -0.10793321 -0.21124229 -0.05190907 -0.024244322
000160 34 f6 e9 be a4 35 53 bd b6 25 23 be 73 9e a9 bc
       -0.4569565 -0.051564828 -0.15932354 -0.020705437
000170 3f 77 ea 3c 48 b0 cf bc 4a 72 12 bf 10 06 31 be
       0.028621314 -0.025352612 -0.5720564 -0.17287469
000180 58 85 64 be ca e1 56 3d 91 78 ce 3e 0a cf b3 be
       -0.22316492 0.052461423 0.4032636 -0.35118896
000190 81 58 87 be 74 db ba bd e4 62 5d 3d 08 6e a0 3d
       -0.2643471 -0.091238886 0.054049388 0.07833487
0001a0 94 a2 17 3d 88 56 c4 bc 18 99 91 3c e8 05 f8 bd
       0.03702028 -0.023967043 0.017773196 -0.121105015
0001b0 7e c7 de bc af 75 46 bd 32 4d c2 3d b5 c3 95 bc
       -0.027194735 -0.048452076 0.0948738 -0.018281797
0001c0 9c 4a b5 bd b6 02 24 3e 19 ec 67 3d ea 35 72 be
       -0.08852121 0.16016659 0.056621645 -0.23653379
0001d0 af 91 09 3f e4 c1 12 be 79 af 92 be 86 79 4a be
       0.5373792 -0.14331776 -0.286495 -0.1977292
0001e0 b5 38 5c be bf 01 5c bf a1 ba 2c 3e a9 50 2e bf
       -0.21506007 -0.85940164 0.16868068 -0.6809183
0001f0 8c 68 9c 3d 18 0d a4 3d 5a 26 8b be ac aa b9 bd
       0.07637128 0.0801031 -0.27177697 -0.09065756
000200 45 dc 3e 3e 27 a4 eb bd ba 67 7b 3e 84 03 16 bf
       0.18638714 -0.11505919 0.24551287 -0.58599114
000210 bd 8d 0a be c5 7e 54 be 57 5c 3e 3d 19 74 b6 bd
       -0.13530631 -0.20751484 0.04647478 -0.089088626
000220 36 69 0d be 0a f5 eb 3d 58 1b 53 3e 75 cc 7b 3d
       -0.13809666 0.11521347 0.206159 0.061474282
000230 8e 87 8b be b6 b3 fb bd 18 98 18 c0 61 6a 6c 3e
       -0.27251858 -0.122901365 -2.384283 0.23087455
000240 4f e7 b8 bf c9 a1 77 3d 78 2b 5e 3e 5d 25 29 be
       -1.444559 0.060457025 0.2169627 -0.16518159
000250 e2 28 3b 3e b7 e8 67 3e 1c 9e 8a bd 8e 9d 86 3c
       0.18277314 0.22647367 -0.06768438 0.01643255
000260 2e 91 2c 3e b7 1d 4a 3d 01 01 98 3e 6d 80 fd 3d
       0.16852257 0.049344745 0.29688266 0.12378011
000270 6e 43 1d be c9 54 09 bf 31 44 4a 3e e0 e9 fb 3b
       -0.15357754 -0.53644997 0.19752575 0.007687792
000280 4e 58 30 3c 89 0a a2 3c 92 6a d8 be 87 64 54 bc
       0.010763241 0.019780414 -0.42268807 -0.012963421
000290 4e 23 00 3e bf 4a f8 3a 4c 64 83 3d 45 00 e1 bb
       0.12513468 0.0018943175 0.064156145 -0.006866487
0002a0 af b4 14 3d 86 94 29 3d 3e a8 08 3e 50 be b3 bd
       0.036305126 0.04140141 0.1334543 -0.087765336
0002b0 04 86 d0 3d 88 af 84 3d f9 fb b5 be dd 73 be bd
       0.101818115 0.064787924 -0.35543802 -0.09299443
0002c0 af 98 76 be cc 93 62 be 1a 5c ad bd 91 aa d0 3d
       -0.24081682 -0.22126693 -0.084648326 0.10188783
0002d0 d9 f0 a1 be c6 bc 87 bd 27 1d a9 3e bd 11 33 bf
       -0.31629065 -0.066278026 0.33030054 -0.6994894
0002e0 cd df fd be a9 3c 1b 3f 74 ba 3e be 2e 61 bf be
       -0.4958481 0.60639435 -0.18625814 -0.3737883
0002f0 dd 91 14 bf b8 22 65 be 84 85 a4 be 1e f2 56 3f
       -0.5803507 -0.22376525 -0.32133114 0.8396319
000300 3a 40 19 bf 0c a8 16 3e cb 19 0c be d9 21 17 3e
       -0.59863627 0.14712542 -0.13681714 0.14759006
000310 3c 8d 0e 3e 9a 29 10 3f 20 ff 91 bd f0 d5 bc 3c
       0.13921064 0.5631348 -0.07128739 0.023051232
000320 61 6c 8d bd f8 36 25 3c 1a 12 fc bc cc 83 ad 3e
       -0.06905437 0.010083906 -0.03077035 0.33889616
000330 15 25 b7 bd 56 6e 18 3c 2e ad 17 bd 71 c6 14 bf
       -0.0894262 0.00930365 -0.03703039 -0.581153
000340 b4 74 63 bd cc af 9b 3d 90 c6 be bf bd 84 9c 3d
       -0.05553122 0.0760189 -1.4904346 0.07642505
000350 34 b6 3c 3e 41 72 eb 3d d4 23 6c bd 44 06 99 be
       0.1842888 0.114964016 -0.057651356 -0.29887593
000360 e6 73 ce bd 28 e5 aa 3d 02 0b 5c be 64 4a d5 bc
       -0.100806996 0.08344489 -0.21488574 -0.026036449
000370 9b d5 f7 3a cc f3 c9 bd 63 47 5f 3e 9e 57 99 3e
       0.0018908264 -0.09860954 0.21804576 0.2994966
000380 71 40 59 3e e1 4e c8 bd 7b c4 2a bd 2b 3a b9 3f
       0.21215989 -0.0978067 -0.041691285 1.4470876
000390 00 80 5c be 65 32 2d 3d 28 ba 52 bd ba 64 4a 3e
       -0.21533203 0.042284388 -0.051447064 0.19764987
0003a0 85 01 61 3e 16 0c a3 be f8 a1 0e bd 7c e3 e6 3d
       0.21973236 -0.31845158 -0.034822434 0.11273858
0003b0 28 a3 d0 bb 85 3e 52 3c 5f 6f 6e bd ed 04 80 3e
       -0.006367106 0.012832289 -0.05821168 0.25003758
0003c0 f8 ab a0 3d f3 ef 8b bb db 06 b9 be 74 8e f4 bd
       0.078453004 -0.0042705475 -0.36138043 -0.11941233
0003d0 9b 0b 65 be cf 7d 19 bf 5d a0 46 3c 80 bc 96 bd
       -0.22367708 -0.59957594 0.0121231945 -0.07360172
0003e0 94 77 1b be 6c 38 0b 3e e1 b6 18 be bb 99 1d bf
       -0.15182334 0.13595742 -0.14913513 -0.615627
0003f0 33 1b 53 be 53 4b b3 be b6 ea db 3a df f0 8f bc
       -0.20615844 -0.35018405 0.0016778323 -0.017570911

conv3.weight f4 [64, 32, 3]
000000 ab 6c 97 3d 38 54 ce 3c d1 e2 fa 3d 9f 33 82 bf
       0.07393774 0.025186643 0.12250293 -1.0172004
000010 fd 23 cf b9 21 dd 1c 3b 4a 22 9e 3e b0 70 01 be
       -0.0003950893 0.0023935514 0.30885535 -0.12640643
000020 c5 a8 1e 3d 36 3a d0 3c 13 de be 3c d6 fd ef 3b
       0.03873517 0.025418382 0.023299253 0.007323961
000030 6d 03 04 3f f1 72 2e bf ee 2c 71 3e 71 68 8c bf
       0.5156773 -0.68144137 0.23552296 -1.0969373
000040 03 ea 74 bf 62 19 3f bf bc 7c bc 3e 4b 6a b1 be
       -0.95669574 -0.74648106 0.36813915 -0.34651408
000050 20 0d a6 3d 39 cc 94 be 42 4a eb 3d f1 bf 35 3e
       0.08107972 -0.2906206 0.11488773 0.17749001
000060 55 9e bc be fd 29 03 bf b2 58 21 be b0 3b 24 3d
       -0.36839548 -0.51235944 -0.15756491 0.040095985
000070 da e0 87 3d 07 2b d4 3c df b5 d6 bc f0 12 35 be
       0.06634684 0.025899423 -0.02620977 -0.17683005
000080 0c 70 0a be 3d be 01 3e 60 c3 e1 bd 48 2a 07 be
       -0.13519305 0.12670226 -0.11023593 -0.13199723
000090 29 67 1f bf ec 6d d0 3b 72 a5 a5 bd 5c 36 07 3c
       -0.62266785 0.00636076 -0.08088197 0.008252706
0000a0 ff 24 ed bc f9 12 97 bd cf 5d bf be fd 8c b2 be
       -0.028948305 -0.073766656 -0.37376258 -0.3487319
0000b0 83 6e c0 3d c4 0b 8d 3c 46 ab 49 bd 75 6f a3 bb
       0.093960784 0.017217524 -0.049235605 -0.004987652
0000c0 08 25 60 3e 2d 66 62 3e db 43 cc be 8d 40 a7 3c
       0.21889126 0.2210929 -0.3989552 0.020416522
0000d0 85 4d 3f be d0 41 0c be 25 7f 16 3f 13 8c 3e 3d
       -0.18681915 -0.1369698 0.5878776 0.046520304
0000e0 e5 59 b4 be 1b e9 26 bf fe d6 a5 be b0 ee ba 3e
       -0.35224834 -0.6519944 -0.3239059 0.3651023
0000f0 4a f7 08 3e f9 a2 09 bf 7a 35 31 3b d2 72 a8 3b
       0.13375583 -0.537643 0.002703993 0.005140641
000100 28 df d9 bd df db 9f 3d fd 29 65 bd 8b 50 b8 bc
       -0.10638267 0.07805609 -0.055948246 -0.022499343
000110 74 30 d1 bd 7f 53 f1 bd da 71 10 bd e4 6f 14 3e
       -0.1021432 -0.11783504 -0.035264827 0.14495808
000120 da 36 c9 bc 00 de 48 be a7 68 81 bf de cf 2a 3e
       -0.024562288 -0.19615936 -1.0110062 0.16680858
000130 2f b5 e4 3b c0 95 ca 3d 0a 71 ed b8 c3 3b dd 3d
       0.0069796066 0.09891844 -0.00011322096 0.10802414
000140 84 35 7c be c4 f2 a0 3e 67 3a 46 be ae 4e d9 3d
       -0.2462979 0.31435215 -0.19358216 0.1061071
000150 5d b2 a0 3d ff e8 09 3d c0 5b 95 3d 94 7f 11 be
       0.0784652 0.033669468 0.072928905 -0.14208823
000160 6f 69 92 be 0f c0 68 bb 48 20 03 bd 50 f1 89 3c
       -0.28596064 -0.0035514866 -0.032013208 0.0168387
000170 de dc f6 3d 7c ce a7 bc fb b4 5a 3d 7a 6e 94 bd
       0.12053846 -0.020484202 0.053395253 -0.07247634
000180 95 37 d9 bd 03 7d bd bd d9 b1 5b 3c c6 ee f6 3b
       -0.106063046 -0.0925236 0.013409101 0.007535788
000190 50 92 26 be 72 e0 d4 3d 96 43 e1 be 09 be d7 bd
       -0.16266751 0.10394372 -0.43996876 -0.10534293
0001a0 84 a5 de be ca 6e 40 bd 73 d9 1d 3e 1b e0 72 bd
       -0.43485653 -0.046980657 0.15414982 -0.059295755
0001b0 2a 63 b5 bd 9b c5 21 3e 57 56 5f be 8c 57 08 be
       -0.08856805 0.15798037 -0.2181028 -0.13314646
0001c0 c0 e5 7e 3d df 91 7e be 68 13 06 be 59 d7 63 be
       0.062230825 -0.24860333 -0.1309334 -0.22250117
0001d0 b2 5a 11 bf 9c b6 0c be b2 35 48 be da 91 1b 3a
       -0.56779015 -0.13741535 -0.19551733 0.00059345143
0001e0 a2 1c 4e be fc 35 94 bd 88 b2 13 3e a8 39 2e 3b
       -0.2012811 -0.07236859 0.14423573 0.0026584659
0001f0 ab 7c 91 bd af fd 07 3e b6 9a 72 3e 0b fe 05 3e
       -0.07103857 0.13280366 0.2369183 0.13085191
000200 03 bb 88 be c7 fd f7 bd 69 06 18 be 0e e4 04 be
       -0.2670518 -0.12108951 -0.14846195 -0.12977621
000210 01 3c 4c be 46 e8 3e be cc 0a db be 0c f1 a2 bd
       -0.19944765 -0.18643293 -0.42781675 -0.07956132
000220 aa fb 75 3c 0f c2 9e bd b4 6a a4 3d 91 d9 a2 be
       0.015013615 -0.077518575 0.080281645 -0.31806615
000230 27 f9 51 be b1 3c 78 bd 97 d3 3d 3c 80 43 86 ba
       -0.205052 -0.060604755 0.0115860915 -0.0010243505
000240 17 19 b6 bd 93 a4 58 3e 7f 70 fd bd 71 51 5a bd
       -0.08891504 0.2115653 -0.123749726 -0.053300325
000250 23 03 fe 3c c1 05 0f 3d 47 b1 39 bf e6 31 72 be
       0.031007355 0.034917597 -0.7253613 -0.23651847
000260 57 59 2a be cc 6d 1e bf 2e d7 5c be 8d f8 88 bc
       -0.16635643 -0.61886287 -0.2156646 -0.01672008
000270 f5 be 98 3c 81 00 48 bc 69 f4 a0 bd ab ed c3 3d
       0.018645743 -0.012207151 -0.078591175 0.09566816
000280 b8 c4 02 be 63 41 2a bd 41 15 a8 bd e4 fd 91 bd
       -0.12770355 -0.041566264 -0.08207179 -0.07128504
000290 5d de 15 be 56 c6 5e 3e 66 1b 0a 3e 64 dc b5 bd
       -0.14635606 0.21755347 0.13487014 -0.08879927
0002a0 9b a0 5a be a5 99 e4 bd 6d ef 4d be b6 ac b0 be
       -0.21350329 -0.11162118 -0.20110865 -0.34506768
0002b0 43 ea b9 be e3 ba f2 3d 20 16 a9 3d 06 11 29 3e
       -0.3631154 0.11852052 0.08256173 0.165104
0002c0 e3 86 d3 bd b2 28 1e bd 91 8c 1b 3a 30 38 b4 bb
       -0.10328462 -0.03861303 0.0005933727 -0.005499862
0002d0 c3 9e 63 be 58 8a cf 3c 4c 49 d8 bd 75 cc b7 bb
       -0.22228532 0.025334522 -0.10560855 -0.00560909
0002e0 c7 11 a5 3d 7c 3e 28 be e2 13 cc bb ae 72 f3 bc
       0.080600314 -0.16430086 -0.006227956 -0.02971777
0002f0 29 ce 92 3e 39 30 ac bd c4 ce a3 ba f2 c1 c5 bd
       0.28672913 -0.08407635 -0.0012497534 -0.09656133
000300 b3 53 73 3e 56 65 54 3b e8 2d bb be e7 5f 18 be
       0.23762397 0.0032409034 -0.3655846 -0.14880334
000310 61 3a a1 bb 98 cf 8c 3c 76 04 81 be bb 92 2c 3e
       -0.0049202894 0.017188832 -0.25198716 0.16852848
000320 4c 0b a4 3d 87 a9 86 3e f6 69 1c bf 8b 9c ab be
       0.08009967 0.26301214 -0.61099184 -0.3351787
000330 d2 06 85 be 76 6e 87 3e 74 8c cf bd 91 21 9a be
       -0.25981766 0.26451463 -0.10134211 -0.30103734
000340 c4 c8 82 be d5 d1 d7 3d 3d 6e e2 bd 3c 04 0a be
       -0.25543797 0.10538069 -0.110561825 -0.13478178
000350 29 50 89 bc 8c 16 1a be a5 55 b3 be fd 53 8d bd
       -0.016761856 -0.15047663 -0.3502628 -0.06900785
000360 2b 72 73 be 09 d7 3f 3d d0 45 0d 3e 20 3c a3 bd
       -0.2377402 0.046835933 0.13796163 -0.07970452
000370 34 c7 3c be 54 9c 73 bd 23 24 43 be 76 d4 36 be
       -0.18435365 -0.059475258 -0.19056754 -0.17854485
000380 25 b9 67 bd c1 e6 90 bc 0b fd 0e be e4 24 95 bd
       -0.056573052 -0.017688157 -0.13963716 -0.07282427
000390 5d 78 d6 be e9 e0 ba be 0f ac de be 2e fb 94 be
       -0.41888705 -0.36499718 -0.43490645 -0.29097885
0003a0 c8 d4 11 bd e7 19 65 bc 75 a5 97 be be fe 17 3e
       -0.035603315 -0.013983226 -0.2961842 0.1484327
0003b0 71 f5 7f 3e 44 f8 b9 3c db c1 82 bd 5c 99 a9 bc
       0.24995972 0.02270139 -0.06384631 -0.02070301
0003c0 f8 16 72 3e ab 3e ac be 03 0b 83 3e 02 07 88 be
       0.23641574 -0.33641562 0.2559434 -0.26567847
0003d0 ac 2e eb 3c 09 97 c8 be 5c 94 b7 be 01 72 b8 3d
       0.028708778 -0.3917773 -0.35855377 0.090061195
0003e0 3b 76 04 3d 87 01 28 bf 56 7c c6 be d0 0d 3e bf
       0.032339316 -0.6562733 -0.38766736 -0.74239826
0003f0 bd 77 0a bf 3f 41 34 be ad 19 7e bd 4b ca 86 bf
       -0.54088956 -0.17603014 -0.062036205 -1.0530485

conv4.weight f4 [64, 64, 3]
000000 3b e7 4e bc 2c ef 3d bd 03 ea 8b bd 15 02 e4 bc
       -0.012628372 -0.04637067 -0.068317436 -0.027833024
000010 11 64 69 bd a0 7d a9 bd 18 62 1f bd c2 32 4b bd
       -0.056980196 -0.08275914 -0.03891191 -0.049608953
000020 1a 38 9f bc 65 eb 7a bd 22 13 77 bd ab 4f ce bc
       -0.019435931 -0.061259646 -0.06032098 -0.025184473
000030 42 14 22 bd e8 12 30 3c dd 4e 95 3d b1 a3 c5 bc
       -0.0395701 0.010746695 0.072904326 -0.024125906
000040 6d 22 29 bd 6f 36 30 bc 3e 91 31 bc b9 52 8c bd
       -0.041292597 -0.0107551655 -0.010837851 -0.068517156
000050 d2 c2 53 bd 72 f8 aa bc 51 f2 04 bd ea 69 ee 3c
       -0.051699467 -0.020870421 -0.032457653 0.029103238
000060 fc 8d 07 bc 16 41 96 3c ed 2c 00 3d 9b cd 0d bc
       -0.008273598 0.018341582 0.031292845 -0.008654977
000070 51 54 2b 3b bd cb bf bc 2b 1c 68 bd 5b a4 a6 3d
       0.0026142786 -0.02341258 -0.056667488 0.08136817
000080 ac f8 dd 3c 6d b7 65 3c ab 67 55 bd cf e9 b6 bd
       0.027096115 0.014020783 -0.05210082 -0.08931314
000090 56 5b 99 bd 26 3b ac bd 29 6a b3 bd c5 73 5b bd
       -0.07488124 -0.08409719 -0.08760483 -0.053577203
0000a0 3f b6 1b 3d 13 e9 0f bc 2e ec 8e bd 93 89 27 bd
       0.0380156 -0.008783597 -0.069786415 -0.040902685
0000b0 26 d5 0f bc e4 6b 2d 3d 41 be 34 3d 66 0f 36 bd
       -0.008778846 0.04233922 0.044126753 -0.04444828
0000c0 fd f4 b1 bc 23 3d f3 3c e2 68 93 bb b3 8f 57 bd
       -0.021723265 0.029692238 -0.004498587 -0.052627277
0000d0 16 ba 73 bd 4b d0 2c bc 4d bb 7c 3d 9b 93 82 bd
       -0.059503637 -0.010547708 0.06170206 -0.0637581
0000e0 11 20 0d bc 0a 1a 37 bc cb 60 76 bd cf f3 4b bd
       -0.008613602 -0.011175642 -0.060150903 -0.04979306
0000f0 d8 98 fd bc 72 a8 dd bd ff 2f cc 3c 71 27 71 bc
       -0.03095667 -0.10823144 0.02492523 -0.014718876
000100 92 31 12 3d 5a 3a 9e bc aa 19 2e bd 3a 5a 3d 3d
       0.035691805 -0.019314934 -0.042504944 0.046228625
000110 7c e8 9c bd 20 08 8a bd 26 e3 67 bd f9 63 b0 bc
       -0.076615304 -0.06739831 -0.05661311 -0.021532046
000120 ca cb 27 be b2 d3 60 bd af be ca bd ad d5 80 bc
       -0.16386333 -0.05488939 -0.09899651 -0.015726889
000130 ba 32 ab bd 61 64 29 bd 15 25 da 3c 6a f7 9b bc
       -0.08359285 -0.041355494 0.02662901 -0.019038875
000140 af 70 8b bd 6d 81 57 bd 6e c0 00 bd f4 2c de bd
       -0.06808602 -0.052613664 -0.031433515 -0.10848418
000150 39 13 7c bd 47 f0 1d bc a4 16 ae bd 4e 97 34 ba
       -0.06154177 -0.009639806 -0.08500412 -0.0006889001
000160 22 31 cf bd cb 81 73 bc 39 7a 44 3d 09 8f 83 3d
       -0.10116793 -0.014862488 0.047968123 0.06423766
000170 91 a5 14 bd 47 0f 17 bd 0d ad 57 3d 2a 45 64 bd
       -0.03629071 -0.036879804 0.05265527 -0.055730022
000180 58 05 53 3b 63 6c 2f bd 28 2a 77 bd a2 54 8b bb
       0.003219923 -0.042827975 -0.060342938 -0.0042520324
000190 c5 d4 8b 3a 15 b8 d2 bc ad 3a e7 bd 42 d3 54 bd
       0.0010668269 -0.025722543 -0.112904884 -0.051959284
0001a0 2b 18 a8 bd 25 a4 e1 bd ab 98 ca bb 64 8b 21 3d
       -0.08207735 -0.11017636 -0.00618275 0.039439574
0001b0 03 d7 82 bd 6c 6a d8 bd 31 91 11 be 3a 69 74 bb
       -0.063886665 -0.10567173 -0.14215542 -0.0037294165
0001c0 76 e1 56 3d 5c 26 de bc 19 23 b9 bc 62 69 55 bd
       0.05246111 -0.0271179 -0.022599744 -0.052102454
0001d0 31 97 43 bd 40 d4 e6 3c 13 7f 2f 3c ec 6b 60 bd
       -0.04775161 0.02817738 0.010711449 -0.054790422
0001e0 74 6f 19 bd e6 d2 5d 3b 0b 8c f7 3c 2a ac 23 3d
       -0.037459806 0.003384763 0.030218145 0.03995911
0001f0 df 3c c0 bc fd da 44 bc 78 3b 4c 3d 43 d3 97 bc
       -0.023466526 -0.0120151015 0.0498614 -0.018533355
000200 57 3b a6 bc c8 5a 3b 3d d4 d6 2c bd 56 37 1f 3d
       -0.020291967 0.045740873 -0.042197064 0.03887113
000210 5f 49 9d 3c a8 b8 53 bd c2 6d 2a be 8f 66 f6 3c
       0.019200025 -0.051689774 -0.16643432 0.0300782
000220 d9 f7 f7 bc cc 20 f5 bc 00 37 bc 3c 54 7e 88 bc
       -0.03026955 -0.029922865 0.022975445 -0.0166618
000230 2d 67 ae bd a3 a9 69 bd 89 86 f6 bd 32 a3 8f bd
       -0.08515773 -0.057046544 -0.12037379 -0.07013549
000240 3f 40 58 bd ac 3c 26 bd a2 3a 14 bc e0 0d 3f 3a
       -0.052795645 -0.040585205 -0.009047182 0.00072881393
000250 d3 a0 37 bd 01 7a cf bd e0 3b a2 3c 72 cf c2 bc
       -0.04483111 -0.10130692 0.019803941 -0.023780558
000260 cd e9 2a 3d 17 e8 97 3c a2 49 bf 3c d6 88 2f bd
       0.041726876 0.018543286 0.02335054 -0.042855106
000270 2c 66 8c 3d 0d 5c 25 3c 28 c7 a8 3c 3d 16 09 bd
       0.06855425 0.010092747 0.020602778 -0.033468474
000280 81 97 52 bc 03 b3 c7 bc 6f 0c e5 bd 7a 22 e0 bd
       -0.012853504 -0.024377352 -0.11184012 -0.10944076
000290 1f 06 d2 bd 98 ad a8 bd 04 c1 ff bd d2 7f 84 bd
       -0.10255074 -0.082362354 -0.12487987 -0.06469692
0002a0 16 f2 1e be 77 18 88 3c 41 71 2c bb 11 64 a7 bd
       -0.15522036 0.016613228 -0.0026312622 -0.08173383
0002b0 7f 7e 3f 3d 7f ea eb bc 1f 94 17 bd e4 95 12 bc
       0.046751495 -0.02879834 -0.037006494 -0.0089468695
0002c0 63 1e b8 bd 7e ba b6 3c 53 01 63 bd a4 42 a6 bc
       -0.08990171 0.022305723 -0.055421185 -0.020295449
0002d0 1a ba 45 3c e1 6c a3 bd 9e f8 35 bd bd 39 28 3d
       0.012068296 -0.079797514 -0.044426553 0.04107069
0002e0 30 00 01 3d 32 fb 7f 3d c7 85 bf bb 41 47 58 bd
       0.03149432 0.062495418 -0.005844805 -0.052802328
0002f0 b7 ef 8a bc 3d d7 64 3d e6 66 17 bd 96 e5 fd 3c
       -0.016960008 0.05586933 -0.036963366 0.030993264
000300 21 e5 40 3f 93 69 9c 3d df bb e5 bd cd a8 1d 3d
       0.7534962 0.07637324 -0.11217474 0.03849106
000310 12 f0 8a 3c 2b 25 b1 be ce 61 f8 3d a0 a3 71 3c
       0.016960178 -0.3459867 0.1212803 0.014748484
000320 c0 42 bf 3d 51 bc 54 3e 1e 7b 16 3f 8b 1c fa 3e
       0.093389034 0.20774962 0.5878161 0.48849902
000330 86 6d 79 3e 60 05 38 3e d5 e7 31 3e 55 00 49 3e
       0.24358186 0.179708 0.17373593 0.19629033
000340 35 1c 73 be a3 24 14 3c 89 1c f9 3d 8d 8a 00 bd
       -0.23741229 0.009041938 0.12163646 -0.031382132
000350 1c 0f 17 3e 6b c2 03 bd ef 5f 8d 3b f8 0f db 3d
       0.14751858 -0.032167833 0.0043144147 0.10696405
000360 2c db 65 be 42 b8 84 3e 9f 49 e2 3c c7 55 53 3e
       -0.22446889 0.25921828 0.027622996 0.2063819
000370 b9 56 2a 3c 2d 47 23 be af cd 44 bd bd 06 03 bf
       0.010396653 -0.1594512 -0.048047718 -0.51182157
000380 86 31 b4 be b6 02 81 3d 78 72 35 bd c3 ea a7 3e
       -0.35194033 0.06299345 -0.04429862 0.32796296
000390 17 ca bd be 16 0c b5 be e0 85 84 3e 9b 9c 05 be
       -0.37068245 -0.35360783 0.2588339 -0.13048021
0003a0 69 35 a1 be 76 76 f2 be c0 58 85 3e 40 6d 05 bf
       -0.3148606 -0.47356004 0.26044273 -0.5211983
0003b0 f8 19 d9 3c c3 77 f9 bd 7f e2 af 3d fc e3 40 be
       0.02650164 -0.12181046 0.085881226 -0.18836969
0003c0 ab 23 b2 be d9 17 96 be 79 b2 37 bf 27 76 c6 bc
       -0.34792838 -0.2931507 -0.717567 -0.024226261
0003d0 b8 c8 46 be a9 c2 d5 bd 1d af 77 3d cc 41 0d be
       -0.19412506 -0.10437519 0.060469735 -0.13794631
0003e0 d5 50 3e bd 72 83 1d bd d8 a8 09 be 30 0e 36 bd
       -0.046463806 -0.038455434 -0.13443315 -0.044447124
0003f0 78 09 bd bd 83 63 32 bd 1f 66 7c 3e d8 59 c1 bd
       -0.09230322 -0.043551933 0.24648331 -0.094409645

conv5.weight f4 [64, 64, 3]
000000 c9 c1 fb bd bf c8 d9 3d 81 7c 45 bc 73 00 84 bf
       -0.12292821 0.106339924 -0.01205361 -1.0312637
000010 63 9e 2e 3d c7 dd 23 be 2a 26 3b be c0 5b 92 3d
       0.042631518 -0.1600257 -0.18276277 0.07146406
000020 77 a7 68 bd e4 4f f3 bf ed 0e 52 3e 61 96 77 3e
       -0.056800332 -1.9008756 0.20513506 0.24178459
000030 53 69 74 bf 94 fa 98 bd 15 10 4e be 1b 4f 31 3e
       -0.9547321 -0.07469669 -0.20123322 0.17315333
000040 4f fd ec bd 19 a2 70 bd dd 5a 0e 3c fe 44 2c bf
       -0.11571752 -0.05874834 0.008688656 -0.67292774
000050 b5 99 56 3e fe a0 0c 3e 36 10 1e bf f4 23 f7 3d
       0.20957072 0.13733289 -0.61743486 0.120674044
000060 46 77 b8 bd b7 21 a5 bf 65 a1 e6 be e3 82 7e bf
       -0.090071246 -1.2900914 -0.4504501 -0.9941847
000070 49 20 00 3f 22 65 e9 bd 52 f2 55 3e 03 de 35 be
       0.50049263 -0.11396243 0.20893219 -0.17760472
000080 e1 96 2f 3e a3 e3 50 3c 56 67 af 3c ad c1 a2 bd
       0.171474 0.012749585 0.02141158 -0.07947097
000090 fc de df 3b e6 9c 1d 3d e5 50 70 3c 5e 18 38 bf
       0.0068320017 0.038479708 0.014667724 -0.7191218
0000a0 6e 7f f3 3d ed 0d 75 bd 20 30 05 bf 2b b4 5e 3e
       0.1188954 -0.059827734 -0.5202656 0.21748416
0000b0 87 6b e7 3e e6 1c 18 bf ac c9 97 3e 6a 82 29 bf
       0.45199224 -0.59419096 0.2964605 -0.6621462
0000c0 47 ad b2 3e 85 ef 15 bf 0b da 8d 3e 8b 1c a0 bc
       0.34897825 -0.585686 0.27705416 -0.01954486
0000d0 bb 23 db 3b f0 8c b6 bc e6 d9 08 c0 93 f1 30 3d
       0.006687609 -0.022284001 -2.1382995 0.043199133
0000e0 96 91 90 3e 42 23 aa be 36 0d c1 bd f1 c2 2b be
       0.28236073 -0.33230025 -0.09426348 -0.16773583
0000f0 0a 80 00 3e 37 0a 5e 3e 90 53 3d 3e ac 0b c1 be
       0.12548843 0.21683584 0.18488908 -0.37704217
000100 9b 91 06 be 57 15 68 3c 45 f3 24 be 66 4e 76 be
       -0.13141482 0.014165244 -0.16108425 -0.24053344
000110 c2 97 62 bc 99 3e e5 bd 81 05 2b be 43 53 19 be
       -0.013830127 -0.1119358 -0.16701318 -0.14973168
000120 0c 7b 32 be 2a eb a2 be 56 04 39 3e 01 be 85 3e
       -0.17429751 -0.3182004 0.1806806 0.26121524
000130 81 3e 80 bf 43 21 0e bd 94 42 d9 be c0 9a 39 3e
       -1.0019075 -0.03469969 -0.42433608 0.18125439
000140 cb 8e 5b be cf a6 8c be 37 c9 04 be 62 a5 ff 3d
       -0.2144119 -0.27471015 -0.12967382 0.12482716
000150 cd 19 a1 be 1f 9e d2 be 1a 67 2a bd 3e e7 a0 ba
       -0.31464997 -0.41136262 -0.04160223 -0.0012275947
000160 00 20 75 bc 81 5a d9 3d 20 e1 0d be 68 91 98 bd
       -0.014961243 0.106129654 -0.1385541 -0.07449609
000170 3f 24 80 3d 80 a9 72 3d 2b 0d 4a bf f7 c1 e8 3d
       0.062569134 0.05924368 -0.7892634 0.11365121
000180 f2 06 b8 bd aa f5 8d 3d 59 08 a5 bd 3a 82 cb bd
       -0.089857 0.06931622 -0.08058233 -0.09936948
000190 7c 10 09 bf 0b ed 1d be 41 72 a4 bf d0 04 a3 3e
       -0.5354078 -0.15422456 -1.2847368 0.3183961
0001a0 8a bb 63 3e e4 9e f5 3b 8b 74 19 bf 4a 2c 6f be
       0.22239509 0.007495748 -0.59943455 -0.23356739
0001b0 80 62 3e bf 11 48 72 bd 88 b6 01 3e 52 ee 3d bd
       -0.7436905 -0.05915076 0.12667286 -0.046369858
0001c0 17 08 44 be b2 94 70 be 58 8d db bd 9f ed 6b bf
       -0.19143711 -0.23494223 -0.107203186 -0.92159456
0001d0 0c 22 10 bf 53 6a 94 be d3 7a 04 be 03 54 34 3d
       -0.5630195 -0.2898737 -0.12937479 0.044025432
0001e0 61 35 51 3d 52 f6 af be 29 16 dc bd 38 b1 12 3e
       0.051076297 -0.34367615 -0.10746414 0.14325416
0001f0 b0 15 ca be e2 0c 79 be 59 89 05 c0 35 13 1e 3e
       -0.3946967 -0.2432132 -2.086508 0.15437014
000200 0a 2b e5 3d 80 69 fd 3d 08 c5 f3 3d 53 1b 9b 3e
       0.1118985 0.12373638 0.11902815 0.30294284
000210 62 62 bb bf 40 d1 3b 3e ba 63 cf 3d da 56 03 3e
       -1.4639399 0.18341541 0.10126443 0.128261
000220 6e 8f 11 3e b4 99 a1 be 87 d9 94 bf 99 e3 03 3e
       0.1421487 -0.3156258 -1.1628884 0.1287979
000230 ec aa 72 3d 10 9c af bd a9 65 60 3d f0 85 bf 3d
       0.059245035 -0.085746884 0.05478445 0.093517184
000240 61 1f 99 3e 6b 5f f6 be cc 85 df bd 1d 73 ba bf
       0.29906753 -0.48119673 -0.109141916 -1.456638
000250 29 22 ad 3e b5 5a 13 bd 16 10 af be 71 44 3f bf
       0.33815125 -0.035975177 -0.3419196 -0.7471381
000260 e4 d1 3d bd 43 13 69 bd c4 f7 22 bd 33 85 d1 bb
       -0.046342745 -0.056903135 -0.03978707 -0.0063940524
000270 ea 6e 95 3e ee ad 11 bf 47 58 04 3e 3b 09 02 bd
       0.29186183 -0.5690602 0.129243 -0.031747084
000280 b3 b3 5c 3c 95 bd ad 3c 4e 21 32 3e ad 34 0a 3d
       0.013470578 0.021208564 0.17395517 0.03374164
000290 af b5 bf 3d ad 11 3f be 31 b9 79 be 3f 07 53 3e
       0.09360825 -0.18659087 -0.24387051 0.20608233
0002a0 c8 23 c4 bd fc 1e 0e be 64 bb fe 3e f4 96 0f 3f
       -0.09577137 -0.13879007 0.49752343 0.5608971
0002b0 b8 0d b0 be 38 c9 c2 3d 89 c7 c5 3d f0 fc 9b be
       -0.34385467 0.09511036 0.09657199 -0.30466413
0002c0 c7 5a 52 3e be c7 29 bf ee f8 43 3f 79 44 42 be
       0.20542441 -0.6632041 0.7655171 -0.18971433
0002d0 00 6c b9 3e 81 df 1d bf 24 e3 9a be 89 77 29 be
       0.3621521 -0.61669165 -0.3025142 -0.16549505
0002e0 ff 1e 4c bf 24 d2 80 3d 3a d7 00 3e 9b 13 69 be
       -0.79734796 0.06290081 0.12582102 -0.22761385
0002f0 9d 0b 5c bd 92 32 83 bf 6b 96 94 3e 37 f5 34 3e
       -0.053722013 -1.0249808 0.2902101 0.17671667
000300 cc 2f d9 3c 41 48 6e 3d 0d 61 4a bd 26 29 bb 3d
       0.02651205 0.058174375 -0.04940896 0.09138708
000310 bd e2 02 be 2d 2e 95 be ff 96 13 bd 40 4a 2d bd
       -0.12781806 -0.29136792 -0.036032673 -0.04230714
000320 6d c0 3f 3d 23 2b 8f be fe dd 98 be 4f a4 42 3f
       0.04681437 -0.27962598 -0.29856867 0.76031965
000330 00 cc 87 be 17 c2 eb 3c 80 1e 46 be 24 90 3b 3d
       -0.26522827 0.028779073 -0.19347572 0.04579176
000340 8e 4a f3 3e 1d cb fd 3e 0e 50 e6 3e 96 59 d6 3e
       0.47517818 0.49569026 0.44982952 0.41865224
000350 b1 b7 e7 bd bf 4b 10 bf a1 d4 69 bd 50 8f 1e c0
       -0.11314333 -0.5636558 -0.057087544 -2.477497
000360 50 b2 21 3c 97 e1 94 bc 01 b6 b5 3d 52 88 e7 bd
       0.009869173 -0.018173976 0.08872605 -0.11305298
000370 ed 1e a9 be cd 8b 25 3e 3b 81 12 3d ba 27 50 3e
       -0.33031407 0.16166611 0.035767775 0.20327654
000380 d3 dd b3 bf 36 93 f9 3d b2 8a 11 bd a0 36 a7 bd
       -1.405207 0.121862814 -0.03553266 -0.08164716
000390 23 93 5e 3d 8e 0d 01 3d 3c 40 8f 3d 91 e0 15 3e
       0.05433954 0.031507067 0.069946736 0.14636447
0003a0 2a 75 a8 be c7 6e ba bf 6a 7c ed be 7f e5 dd be
       -0.3290189 -1.4565057 -0.46383983 -0.43339154
0003b0 a5 54 ab 3d a8 bf 5b 3d dc 33 b5 bc 04 35 a8 bf
       0.08365754 0.053649575 -0.022119455 -1.3141179
0003c0 67 69 5b 3e fc ba 2b 3e 34 5c 04 bf 6a 3f 7c 3d
       0.21426927 0.16770548 -0.5170319 0.061583914
0003d0 56 55 70 3d 12 a0 43 be 3b 23 13 bd 75 7e 4f 3e
       0.058675133 -0.1910403 -0.03592227 0.20263083
0003e0 49 5b 8e 3d c1 3e c0 3d e2 88 95 be 1a a9 d1 3c
       0.06951005 0.09386969 -0.29205996 0.02559333
0003f0 e0 bf c3 3e 5f 90 13 be df 96 6a bf 45 11 8f bd
       0.38232327 -0.14410542 -0.9163646 -0.06985716

conv6.weight f4 [64, 64, 3]
000000 a2 1a 3f 3e 4e 05 bd bc 56 7c 04 be 5d 19 fb 3d
       0.18662503 -0.023073819 -0.12938055 0.12260697
000010 55 af f8 be 93 69 2b bd 11 2f ee 3b bc 1d fc 3e
       -0.48571268 -0.04184873 0.0072687943 0.49241436
000020 d5 67 4d 3c f4 77 06 3f de dd 31 3d a7 87 a3 3e
       0.0125369625 0.52526784 0.04342448 0.31939432
000030 25 27 bd bc 1c df a5 3c 77 f1 9e bd 8a 5b b6 3e
       -0.023089955 0.020247988 -0.077608995 0.35616714
000040 30 53 c1 be 11 b8 64 3e fc 96 b0 bd 80 d4 d6 bb
       -0.3775878 0.22335841 -0.08622548 -0.0065560937
000050 79 ea 0b 3d 53 4c 9e 3e e1 e9 80 3e 74 d8 63 3e
       0.034159157 0.30917606 0.25178435 0.22250539
000060 f1 1a 38 3d 7b d3 9a 3b c2 87 74 3d 0c 7b 1b bf
       0.04494757 0.0047249175 0.05969978 -0.6073463
000070 1b 24 68 bf 2d 20 0c 3d c8 6e ae bd 2d 30 e8 be
       -0.9068009 0.034210373 -0.085172236 -0.45349255
000080 46 71 1c bf 5f f6 5a 3e aa 9b a0 3e 91 90 59 be
       -0.6111034 0.21383046 0.31368762 -0.21246554
000090 2e 09 94 bc a4 52 53 be cc d2 20 3f 9b a2 e1 be
       -0.018070783 -0.20636994 0.6282165 -0.4406937
0000a0 2a 19 96 b9 69 f0 a4 3e 02 77 46 3f 42 ee 8d bd
       -0.00028628978 0.32214668 0.7752534 -0.0693021
0000b0 03 9b 00 bf 7b f8 ab bc ff 10 16 3d 7f d5 75 3c
       -0.5023653 -0.020992508 0.036637302 0.015004515
0000c0 03 7f c6 bd ce 4b 23 bf 15 06 b9 3c 0b a3 2d be
       -0.09692194 -0.63787544 0.022585908 -0.16956727
0000d0 6c ae 29 bf 4a ca 2c 3e 8d e0 3d be 28 c7 1e bf
       -0.6628177 0.16874042 -0.1854269 -0.6202264
0000e0 7b 38 2a bf a7 9b f0 3d 23 ac 0e bf 67 37 ad be
       -0.6649243 0.11748438 -0.5573141 -0.3383133
0000f0 f7 de 77 3e f2 02 fd be 1c 82 50 3d 6b 11 bb 3e
       0.24206148 -0.4941631 0.050905332 0.36536726
000100 0d de 80 bf eb a8 bb be 3a 22 c8 be c9 94 2c bf
       -1.0067765 -0.36652312 -0.39088613 -0.6741453
000110 2c 29 c2 be 9f ee 3e 3f 96 69 ea be 0b 41 a8 bc
       -0.37922037 0.74582857 -0.4578368 -0.020538827
000120 e4 0d 86 be 85 a8 79 bf 34 cf 9b be e9 1b 3b bd
       -0.26182473 -0.97522765 -0.3043152 -0.045680914
000130 fe 5b e4 be 6b 2b bf bd b9 59 e6 ba 2b d2 63 bf
       -0.44601434 -0.09334453 -0.0017574347 -0.88992566
000140 5a 0c b7 3d 5d de ab bd f9 8b c0 be 3f cf 15 bc
       0.08937903 -0.08392022 -0.3760679 -0.00914365
000150 5e fe 32 be db e3 2a be a9 e9 99 be 5e c8 d1 be
       -0.17479846 -0.16688482 -0.3006108 -0.4097318
000160 26 1c ac be 62 39 0d 3f 98 95 c2 3d b3 0f 3c 3d
       -0.33615226 0.55165684 0.09501189 0.04591341
000170 58 6e bf 3d b9 a3 3e bf 4b ba 67 3e ee 2c 25 be
       0.09347218 -0.7446857 0.22629659 -0.1613042
000180 b4 25 69 be 69 46 42 bd 83 09 c4 bd d8 09 18 bf
       -0.22768289 -0.04743043 -0.09572127 -0.5939002
000190 45 c5 a8 be 93 af b4 bd c6 8f 06 3d 66 c1 2d bd
       -0.32963005 -0.088225506 0.032851957 -0.042420767
0001a0 c7 dd 65 3d 8d cf 05 3f c2 82 97 be 06 5c b1 be
       0.056119706 0.5226982 -0.29591948 -0.3464052
0001b0 f8 1f f7 be da 05 03 bf 60 a1 df 3d 2b 02 8f be
       -0.48266578 -0.51180804 0.10919452 -0.27931342
0001c0 f5 ff c4 be c4 55 13 bf 43 88 89 bc 04 35 8c 3d
       -0.3847653 -0.5755274 -0.016788607 0.068460494
0001d0 b4 52 0d bd c8 fd 10 be 68 ba 0c bf b3 49 76 be
       -0.0345027 -0.1415931 -0.54971933 -0.24051552
0001e0 f9 da a9 3e 7b 21 e3 bf 41 db 4a bd c0 e6 6b 3e
       0.33174875 -1.7744592 -0.049525503 0.23037243
0001f0 38 7f 38 3d 2c 10 1b 3c 34 b1 f0 bd ba 24 20 3d
       0.0450432 0.009464305 -0.11752549 0.039097525
000200 ed 9c 0a bd 7a 70 13 be b4 00 e7 be 14 4f 5c bc
       -0.033841062 -0.14398375 -0.45117724 -0.013446588
000210 3a 90 bc 3d 45 4d 4f bf 7b 81 1a bf b0 a0 83 3e
       0.092071965 -0.8097728 -0.6035382 0.25708532
000220 f9 2e cd bd 79 3a 9a be 81 81 68 3e 96 1e 80 3e
       -0.10018725 -0.30122736 0.22705652 0.25023335
000230 3a 37 0a bf 40 97 e5 3d e2 6b eb bf 64 9a d7 3e
       -0.5399052 0.11210489 -1.8392298 0.42109978
000240 44 5f d3 3d 3a 53 34 bf b2 d2 36 bc 96 35 15 3d
       0.10320905 -0.70439494 -0.011158632 0.036428057
000250 3b 79 9a 3d 43 c0 72 3d f7 e2 c1 be 37 66 06 bf
       0.07542654 0.059265386 -0.37868473 -0.5249972
000260 b1 39 39 be a8 2b bb be e2 7a 26 3e 06 98 7a 3c
       -0.18088414 -0.36556745 0.16257814 0.015295034
000270 e2 97 86 bc 93 25 1d be e5 7a ed be db ee eb 3d
       -0.016429845 -0.15346365 -0.46382824 0.115201674
000280 e7 93 78 be 82 30 a8 bd 2e 7c 4c bc 34 a0 37 3d
       -0.2427517 -0.08212377 -0.012480779 0.044830516
000290 a8 6f ff bc ad bd 2d 3c 7f 2f 4c 3d 95 dd 9f bd
       -0.031181172 0.010604304 0.049849983 -0.07805935
0002a0 05 60 22 be 2c 2f a4 3e 5e b6 74 be 2a 2b 64 3e
       -0.15856941 0.3206724 -0.23897693 0.22282091
0002b0 83 47 14 bf b6 56 03 be 1a 1b fd bd a6 2c 03 bf
       -0.5792162 -0.12826046 -0.12358685 -0.51240003
0002c0 47 56 a5 be 88 bc 09 3e 40 df 92 3c 8b c5 d4 bd
       -0.32292387 0.13450825 0.01792872 -0.10389241
0002d0 05 40 90 be bc 80 11 be 87 8d 01 bf fb b9 6d 3d
       -0.28173843 -0.14209265 -0.5060658 0.058038693
0002e0 35 74 01 bf 06 de 8f be 14 84 33 3c f0 9c 86 3d
       -0.5056794 -0.28099078 0.010956783 0.06572902
0002f0 b7 0d 9b 3d ad b0 b3 be 42 d5 ee 3e 87 b5 d8 3d
       0.07570975 -0.3509573 0.46647078 0.105814986
000300 ec df 28 bd fe ac dc be e7 2d 8c bd e9 e2 5c 3e
       -0.041229174 -0.43100733 -0.06844693 0.21570934
000310 bf 2e c4 3e a5 ea e8 3d 91 9d c4 bd 25 bf 0d bd
       0.38316914 0.1137288 -0.09600366 -0.034606118
000320 d4 52 bc be c2 92 41 3e b6 88 13 3e de ba 9e 3d
       -0.36781943 0.1890364 0.1440762 0.07750486
000330 00 ca 05 3a 20 f5 9c 3d ff 29 1f bd 5f 96 26 3e
       0.00051036477 0.076639414 -0.03885841 0.162683
000340 de dc 98 3c 43 e1 b5 bd 59 d0 a1 bd 59 0d af bc
       0.018660005 -0.08880856 -0.07901067 -0.02136867
000350 35 10 97 3c e0 29 74 3e b0 e5 08 3d 35 92 c0 be
       0.018440345 0.23844099 0.033422172 -0.37611547
000360 84 dc 71 bd c7 3d c0 bd 42 5e 5d 3d 15 66 c8 be
       -0.05904819 -0.09386783 0.05404497 -0.39140382
000370 05 bd 84 be fa f3 a8 3e 35 9d 05 bf 5b 79 a3 3d
       -0.2592546 0.3299864 -0.52193004 0.07982131
000380 05 20 53 be 45 24 50 3d df c0 bb be 81 15 6e be
       -0.20617683 0.05081584 -0.36670586 -0.2325039
000390 59 73 23 bf ce d6 3b 3d 7e 81 5e bd 54 ca a3 3e
       -0.6384788 0.04585915 -0.054322712 0.31990302
0003a0 f0 4e 83 be 88 2a 77 bd 82 49 05 be f3 05 9d be
       -0.25646162 -0.060343295 -0.13016322 -0.306686
0003b0 0f 17 8c 3e 75 02 95 bd 1c 63 93 bd aa da 3f 3d
       0.27361342 -0.07275859 -0.07196638 0.046839394
0003c0 b8 0c c8 bd 06 c8 19 bf 9f b9 55 3e a1 6b e5 be
       -0.09768051 -0.60070837 0.2087159 -0.44808677
0003d0 bd ac c3 3d e7 1e 19 be 68 de 33 3e e5 b8 31 3e
       0.095544316 -0.14953195 0.1756531 0.17355688
0003e0 9e ee cb 3d c6 aa ba be 00 a6 c0 bd 90 eb 90 3e
       0.09957622 -0.36458415 -0.09406662 0.2830472
0003f0 10 ee cb bd ed df 8f bd 5d f2 f4 3d f7 fb 4a 3e
       -0.09957516 -0.07025132 0.119602896 0.1982268

conv7.weight f4 [64, 64, 4]
000000 61 22 d3 bd ba 5c 60 3c 7d 02 ec 3e 58 86 a9 3d
       -0.10309292 0.013693983 0.46095648 0.08277577
000010 d1 8e 31 bd a9 0a bb 3d 89 b9 7f be 6c ba cf bd
       -0.04334909 0.09132893 -0.2497312 -0.10142979
000020 bc dc 0c bf 42 0d 50 3d 1d 06 9a 3e 6d da d7 3e
       -0.55024314 0.050793894 0.3008279 0.42158833
000030 f5 b8 da 3e a1 a6 f2 bd b5 32 e5 3a 37 b9 10 be
       0.42719236 -0.11848188 0.0017486425 -0.14133154
000040 61 0a 21 bf ec fc 5a bd 1c 01 e8 3d 78 ae 5f 3d
       -0.6290646 -0.05346386 0.113283366 0.054609746
000050 e9 75 85 bd e5 fa bc bc 59 86 7e be 8d 11 92 bc
       -0.0651663 -0.023068855 -0.24855937 -0.017830634
000060 93 0c 2d 3a 59 8b d1 3c df 53 98 bd 1e 8c c8 3d
       0.00066013 0.025579141 -0.07437872 0.0979235
000070 80 bc 11 bf 86 12 26 3e 6e 4e 7e be 96 af a2 3e
       -0.56928253 0.16218004 -0.24834606 0.31774586
000080 7b 0a 2c be 1b 92 b8 3d 1b 8e 20 be 53 fe 9c be
       -0.16800873 0.090122424 -0.15679209 -0.30662784
000090 dd bb 7e 3d 4b c9 a1 be 45 92 aa bc 3b f9 5b 3e
       0.06219088 -0.31598887 -0.0208217 0.21481793
0000a0 f1 5d 52 3e ca 43 dc 3d 26 ef 00 3f d2 54 62 be
       0.20543648 0.10755117 0.5036491 -0.22102669
0000b0 1c be 84 bd de 34 8a 3d 11 8e 12 3d 08 d1 cf be
       -0.06481573 0.06748365 0.035780016 -0.40589166
0000c0 04 e8 40 be f1 f0 10 3d 41 6c 14 bd 1e 12 1f 3e
       -0.18838507 0.03538603 -0.03623605 0.15534255
0000d0 07 61 d6 3d 30 4d 92 3c 51 44 b8 bd eb 44 c5 bd
       0.10467725 0.017859071 -0.08997405 -0.09632286
0000e0 e3 24 cb 3d be 14 0b 3d 82 84 d5 bd 05 12 07 3b
       0.09919145 0.03395533 -0.104256645 0.0020610106
0000f0 e9 6c f2 3d 0e 1c 40 3f 0a a1 92 3d 4f ba df bd
       0.11837179 0.7504281 0.07159622 -0.109242074
000100 58 21 2d 3d 6a 48 b2 3d 6d 63 6a be 20 7b 85 be
       0.042268127 0.08705218 -0.2288949 -0.260705
000110 11 86 1b be c7 c9 82 3d b1 8e 0a bf 43 b7 7f 3d
       -0.15187861 0.06386142 -0.5412398 0.06243063
000120 d5 bc 70 3d b8 8c bb 3b d5 76 02 3d 2a 55 99 3e
       0.058773834 0.005723562 0.03185161 0.29947788
000130 2a df 0c 3d 69 e4 ae 3f 9d df a7 bd c2 25 3f bd
       0.034392513 1.3663455 -0.08196948 -0.046666868
000140 d2 2e d3 3d c3 b5 c3 bd 02 d0 0b 3e 19 3a 9d bd
       0.10311665 -0.09556153 0.13653567 -0.07677097
000150 8a a3 90 3e 04 6e 23 bd e7 7d 1b be 67 c7 92 be
       0.2824977 -0.03989984 -0.15184747 -0.28667757
000160 41 ec b6 3c 84 f0 41 3e 7e 54 62 bc 9f 47 6e 3e
       0.022329452 0.18939406 -0.01381409 0.23269509
000170 b4 7d 7d 3d 28 e8 c3 bd dd 3c 9c bd 5b cf 34 bc
       0.061887458 -0.09565765 -0.07628796 -0.0110357655
000180 d4 d9 9e 3e 59 41 10 bc 96 d6 eb 3d 9e c1 48 3e
       0.31025565 -0.008804643 0.115155384 0.19605109
000190 0e 5e 8c 3d 37 8f c6 bd c4 fe c0 3c 8b 53 0e 3f
       0.06853877 -0.09695285 0.023558982 0.55596226
0001a0 98 e6 13 bf b1 9d 15 bf d4 96 f2 3d 34 3a 2b bd
       -0.57773733 -0.58443743 0.118451744 -0.041803554
0001b0 4c 0f 2e 3e f7 59 80 bd 7d 3e 40 3d f4 4b cc bd
       0.16998023 -0.062671594 0.046934593 -0.099754244
0001c0 22 7e df be c8 5d 69 bd 91 b2 b2 bd ea a6 50 be
       -0.4365092 -0.056974202 -0.08725465 -0.20376173
0001d0 7e 0d 53 3d b6 c6 95 bd 06 12 1d be b6 53 a2 3d
       0.05152654 -0.07313292 -0.15338907 0.07926123
0001e0 c6 c7 bc bc b7 d3 76 bd 81 1c 94 bd ce dc ce bc
       -0.023044478 -0.0602605 -0.07231999 -0.025251772
0001f0 69 dc 4e bd c4 2a 2b bd a3 04 e2 3d 0c 3b 29 bd
       -0.05050317 -0.04178883 0.11036041 -0.041316077
000200 49 4e 5b bf 3c 5b 31 3f 64 12 0b bf c3 ae a6 3d
       -0.8566633 0.6927984 -0.54324937 0.08138802
000210 45 ca 1b 3d c2 ef 16 3e 7d 0a 2f 3a e8 88 be be
       0.038034696 0.14739898 0.0006677283 -0.37213826
000220 78 19 3c 3f 05 68 17 bd 47 54 27 3f 6b bb 1b 3f
       0.7347636 -0.036964435 0.6536297 0.6083285
000230 03 1f 44 3c 2a 78 c7 be 41 95 06 3c 9c 62 08 bf
       0.011970284 -0.38958865 0.008214296 -0.53275466
000240 70 4a f4 bc 13 5a ef 3c 5e 6b c8 be b5 df bc bd
       -0.02982065 0.029217755 -0.39144415 -0.09222356
000250 fb 52 52 be e7 fe 3f bf e0 92 d2 3d 33 a9 c0 bd
       -0.20539467 -0.74998325 0.102819204 -0.09407272
000260 7b bf 2c bf cc 34 e2 3d 8a d6 6f 3e 90 d6 9a 3e
       -0.67479676 0.110452265 0.23421684 0.30241823
000270 35 5e 7a bd df 00 c2 3d 07 f9 54 be 2c ab 13 be
       -0.061125 0.094728224 -0.20798121 -0.14420766
000280 f5 fb a4 bd 8c 7e 4a 3d f0 a3 5a bd 3d 13 b2 3d
       -0.080558695 0.04943709 -0.053379 0.08695076
000290 c5 dd e5 3d 26 a4 25 bd cd d2 4f 3e 9b cd ee bd
       0.1122394 -0.040439747 0.20295258 -0.1166031
0002a0 45 33 8e bd 43 cf 5f bd 66 b8 cd bd 85 e1 9b 3d
       -0.06943373 -0.05464102 -0.10044937 0.07611374
0002b0 51 da 3e 3d a4 d4 2f 3d 5f 22 c6 bd dd 6f 47 bd
       0.04659492 0.0429274 -0.096745245 -0.048690666
0002c0 41 fd 85 bd 72 76 86 bd 52 54 44 bd bf 8e 71 be
       -0.06542445 -0.065655604 -0.047931977 -0.2358961
0002d0 ae fe 83 bd e4 c8 e3 bb 8b 3b 26 3d ed 35 40 3c
       -0.06445061 -0.0069514383 0.04058413 0.011731607
0002e0 4c a6 35 3c 7e 22 d3 bd 65 06 54 bd 71 3e 45 3d
       0.011087012 -0.10309313 -0.05176391 0.048155252
0002f0 51 9b c1 3b 0e c6 8d 3d bd c6 99 3d 31 60 1f bd
       0.0059084077 0.069225416 0.075086094 -0.038910095
000300 3c e7 67 3e c3 90 32 bf 29 a4 1b bf 3a c5 25 be
       0.22646803 -0.6975214 -0.60797364 -0.16188517
000310 e7 09 51 be b1 ac a4 be 36 e6 8a 3e e6 bc 8b be
       -0.20413934 -0.32163003 0.27128762 -0.27292556
000320 9c de fa bb 40 e9 bd 3d 1a 64 60 bc ea 8a ef 3d
       -0.0076559316 0.092730045 -0.013695741 0.11696418
000330 78 33 ce bc a0 3d 91 3e 3f 1d 1e bd 96 37 0c be
       -0.025171027 0.2836733 -0.03860211 -0.1369308
000340 0b 7c be 3e 3e c4 99 bd 43 11 68 bd e6 b9 98 3d
       0.37204012 -0.07508133 -0.056657087 0.07457332
000350 ec ee 80 be 41 a4 33 be 97 4c 87 be 3a 68 41 3e
       -0.25182283 -0.17543127 -0.2642562 0.18887416
000360 df a2 f4 39 0c 57 54 3e 0e c8 8b bd 0a 39 d0 3d
       0.00046660655 0.20736331 -0.06825267 0.10167129
000370 7e b2 67 3c 9d 77 b7 bc fe aa 09 be 7f 11 de be
       0.014141677 -0.022395903 -0.13444135 -0.43372723
000380 6b df 8b be 99 07 ed 3d ef d1 8e be ef 81 12 be
       -0.27318892 0.11573715 -0.27894542 -0.14307378
000390 1a 18 39 3d dc f0 4a 3c 7b 46 86 bd fa 04 96 bd
       0.045189 0.012386527 -0.06556412 -0.07325168
0003a0 f4 d9 4c bd 15 b2 45 bf 0a 66 11 be f8 2b d4 bd
       -0.050012544 -0.77224857 -0.14199081 -0.10359949
0003b0 d2 c6 4a be dc 36 18 be 45 f2 f9 3c ff 8d 7b 3d
       -0.19802406 -0.14864677 0.03051103 0.061414715
0003c0 90 89 86 be 45 ee c2 3e a3 5d e1 3d b9 4f c1 3d
       -0.26276827 0.3807241 0.11004188 0.09439034
0003d0 62 73 d1 bc ed b4 63 bd a8 61 f4 bd b7 a0 0e 3e
       -0.025567714 -0.055592466 -0.11932689 0.13928495
0003e0 ba fb 0a bd f1 cf 31 bf 09 1f 1a be f5 0a 32 be
       -0.03393147 -0.6945792 -0.15050901 -0.17386992
0003f0 60 35 aa bc 15 cf 4d 3f b5 bd 32 3d d2 32 6a be
       -0.020777404 0.8039411 0.04363795 -0.22870949
