models/trained/unet1d_partialconv_10kdata_30epoch_08_13_20.pth (torch_old, 289553 bytes, 9 tensors)

conv1.weight f4 [32, 1, 5]
0	0xbdf5ebb5	-0.12007848
1	0x3e37076d	0.17873926
2	0xbfd958c0	-1.6980209
3	0xbf47c20a	-0.78030455
4	0xbedf5e76	-0.43626755
5	0x3d1e9ef1	0.038725797
6	0xbe5a30fe	-0.21307752
7	0x3e50add5	0.20378812
8	0xbe11e8b6	-0.14248928
9	0xbcf31770	-0.029674262
10	0xbe0a65c2	-0.1351538
11	0xbdb40870	-0.08790672
12	0xbedabfd6	-0.42724484
13	0xbe97a51c	-0.29618156
14	0xbe3cc6b6	-0.18435177
15	0xbd64c044	-0.05584742
16	0x3e0cf13e	0.13763902
17	0x3e916168	0.28394628
18	0xbe87bfea	-0.26513606
19	0xbdd7b386	-0.10532288
20	0x3da6902b	0.081329666
21	0x3e76fdff	0.2412033
22	0xbe28e86d	-0.16494913
23	0x3e7452d8	0.23859727
24	0xbe1059b4	-0.14096719
25	0xbd837572	-0.06418885
26	0x3e85e3ba	0.26150304
27	0xbeeb09ba	-0.45905858
28	0xbf2f988d	-0.6859215
29	0xbebfac55	-0.37436166
30	0xbe37f91c	-0.17966121
31	0x3ed85201	0.42250064
32	0xbfa46ac2	-1.284508
33	0xbe176d74	-0.14787847
34	0xbcbd29ea	-0.023091275
35	0xbec682f2	-0.38771778
36	0xbe619f5a	-0.22033444
37	0x3ed314cc	0.41226804
38	0x3e098f9d	0.1343369
39	0x3d844bb0	0.06459749
40	0x3d2114e6	0.03932657
41	0xbf31f935	-0.69520885
42	0x3eb9531f	0.3619623
43	0xbecfad71	-0.40562013
44	0xbe88c55d	-0.26713076
45	0xbe973de0	-0.29539394
46	0x3e9aa4a6	0.30203742
47	0x3e76ced8	0.24102342
48	0xbe82671f	-0.254693
49	0xbcd4cf37	-0.025977714
50	0x3e0c7219	0.137154
51	0x3eb60cb7	0.35556576
52	0x3dcb516d	0.0992764
53	0xbd654382	-0.055972584
54	0x3e27effd	0.16400142
55	0xbeddefff	-0.43347165
56	0x3eab35ee	0.33439583
57	0xbef43d9a	-0.47703248
58	0xbee16a23	-0.44026288
59	0xbeb9001a	-0.3613289
60	0x3e34ca41	0.17655279
61	0x3dc063cf	0.09394037
62	0xbe76e6fe	-0.24111554
63	0x3d6ce29d	0.057833303
64	0x3e6813ff	0.22663878
65	0xbd86a044	-0.06573537
66	0xbd679a94	-0.0565439
67	0xbcd9fd99	-0.026610183
68	0x3dd69683	0.104779266
69	0x3ec9692f	0.3933806
70	0xbeaf0424	-0.34182847
71	0xbe31e658	-0.17373025
72	0x3e2cb093	0.16864233
73	0x3eba1063	0.36340627
74	0x3eac7f90	0.33691072
75	0x3ec19619	0.37809828
76	0x3d1e637f	0.038669106
77	0xbeacc650	-0.3374505
78	0x3daf3be1	0.08556343
79	0xbdd7556c	-0.1051434
80	0xbeecc964	-0.462474
81	0x3eeaf16b	0.45887312
82	0x3e9aa37f	0.30202863
83	0xbebcab9a	-0.36849672
84	0x3d628c1a	0.055309393
85	0xbe203d3d	-0.1564836
86	0xbbe15dec	-0.0068776514
87	0x3a9660e2	0.0011472965
88	0x3e9ec0d5	0.31006494
89	0xbe9efc96	-0.31052083
90	0xbcc6216b	-0.024185857
91	0x3b831b1b	0.004001034
92	0x3ead2e88	0.33824563
93	0x3e514442	0.20436195
94	0xbeeda6ea	-0.46416408
95	0xbeb09e62	-0.34495836
96	0x3e7cb679	0.24678983
97	0x3ea0a2a6	0.3137409
98	0xbfc94b55	-1.5726115
99	0xbf33e555	-0.7027181
100	0x3ec6b42f	0.38809344
101	0x3e2ca2ac	0.1685893
102	0xbe529779	-0.20565595
103	0xbcb94c15	-0.022619287
104	0xbe685f9e	-0.22692725
105	0xbd0d81d0	-0.034547627
106	0xbec5e3a6	-0.38650244
107	0xbebb88f8	-0.36627936
108	0xbd248575	-0.040166337
109	0xbabdf623	-0.001449291
110	0xbe545e19	-0.2073902
111	0x3e84bd69	0.25925758
112	0xbea542ba	-0.3227747
113	0x3e9b972a	0.30388767
114	0x3e6c812e	0.23096153
115	0xbed75d50	-0.4206338
116	0xbdaded6f	-0.084925525
117	0xbb69a82e	-0.0035653221
118	0xbd67aeb1	-0.056563083
119	0x3c553d01	0.013015033
120	0x3e0aa41b	0.13539164
121	0xbd241b63	-0.04006518
122	0xbe038a33	-0.12845688
123	0x3ea9e7bf	0.3318462
124	0xbea08c44	-0.31357014
125	0xbe87b6cc	-0.2650665
126	0xbde54684	-0.111950904
127	0xbe5f126c	-0.21784371
128	0xbe20347e	-0.15645024
129	0xbebbabe9	-0.36654595
130	0xbd20898e	-0.039193682
131	0x3d5b30aa	0.053513207
132	0xbe87b6ab	-0.26506552
133	0xbd82a003	-0.06378176
134	0x3e9b83e7	0.3037407
135	0xbc982113	-0.018570459
136	0xbc025a3e	-0.007956086
137	0xbe008cbb	-0.12553684
138	0xbd9599d2	-0.073047295
139	0x3e82d391	0.25552037
140	0x3ebef685	0.37297454
141	0x3e16dfe2	0.14733842
142	0x3eddb38a	0.4330104
143	0xbcd9934a	-0.02655949
144	0xbee9bffd	-0.45654288
145	0xbead303d	-0.33825865
146	0x3eb301a5	0.34962192
147	0xbca9c7a8	-0.020725086
148	0xbdcf30a0	-0.10116696
149	0xbe0dab22	-0.13834813
150	0xbd19a1df	-0.037507888
151	0xbe806b75	-0.25081983
152	0xbd844f2d	-0.06460414
153	0x3e231b05	0.15928276
154	0x3e57eba8	0.2108599
155	0xbea2f26a	-0.31825572
156	0x3ec863c9	0.3913863
157	0xbea3cd7f	-0.3199272
158	0x3dbdf252	0.092747346
159	0xbd8b4614	-0.06800476

conv2.weight f4 [32, 32, 3]
0	0xbd9af731	-0.07566679
1	0xbe8c0d6d	-0.27353993
2	0xbe30eb6a	-0.17277303
3	0xbe17314b	-0.14764898
4	0xbc95f835	-0.01830683
5	0xbd0453dd	-0.03230654
6	0xbd3de86e	-0.04636424
7	0x3d1d7a4c	0.03844671
8	0xbdbc220e	-0.09186183
9	0x3d13513f	0.035966154
10	0x3e2942a6	0.1652933
11	0x3d239296	0.039934717
12	0x3dc52af7	0.096273355
13	0x3db0bbda	0.0862958
14	0xbd082961	-0.033242587
15	0x3c005fde	0.0078353565
16	0xbe18689d	-0.14883657
17	0xbd817b00	-0.063222885
18	0x3d31533c	0.04329227
19	0xbeb06939	-0.3445528
20	0xbdc42b83	-0.09578612
21	0xbec1a9d7	-0.3782489
22	0xbdc05172	-0.093905345
23	0x3c964670	0.018344134
24	0xbd0681b7	-0.03283855
25	0xbcc40f76	-0.023933154
26	0xbe9c5c49	-0.30539158
27	0xbbeda7dc	-0.0072526764
28	0xbe5b0669	-0.21389164
29	0xbd1b0d4b	-0.037854474
30	0x3dc133de	0.09433721
31	0x3e03e8e6	0.12881812
32	0xbd03ed1d	-0.03220855
33	0xbe54b11b	-0.20770685
34	0xbe547c5b	-0.20750563
35	0xbd6620bb	-0.056183558
36	0xbdbf9ce6	-0.09356098
37	0x3d31cbcc	0.043407246
38	0xbd68d29f	-0.05684149
39	0x3c86fdf8	0.016478524
40	0xbcb13d23	-0.021635598
41	0x3cc9abb4	0.024618007
42	0xbe45ae53	-0.1930478
43	0xbe4293db	-0.19001715
44	0xbdff8727	-0.1247695
45	0x3ca39639	0.019969093
46	0xbd1d2d58	-0.03837332
47	0x3d62f0e3	0.05540551
48	0x3da47593	0.08030238
49	0xbe17ab3b	-0.14811413
50	0xbe00ff05	-0.12597282
51	0xbd93d8aa	-0.0721906
52	0xbd48e973	-0.04905076
53	0xbd8a29a1	-0.06746221
54	0x3ce4755c	0.027887993
55	0x3d91f24b	0.07126292
56	0xbc881bf8	-0.016614899
57	0xbe25a9cf	-0.16178058
58	0xbdee15ae	-0.11625229
59	0xbe5e8228	-0.21729338
60	0xbd22c70b	-0.039740603
61	0x3e0e16ec	0.13875932
62	0x3dbe1fca	0.09283407
63	0xbdb1d193	-0.08682551
64	0xbd9bfeb4	-0.0761694
65	0x3d648ac2	0.055796392
66	0xbd54cc9c	-0.051952943
67	0xbdd2b364	-0.10288122
68	0xbdd4c577	-0.10389226
69	0xbdda0bf5	-0.10646812
70	0x3ba63a9c	0.0050729048
71	0x3d9c6353	0.07636132
72	0xbd2a2eb6	-0.041548453
73	0x3db864de	0.09003614
74	0x3d69efb6	0.05711337
75	0xbd8425b8	-0.06452507
76	0x3d3b7ed8	0.045775265
77	0xbd93c1f4	-0.07214728
78	0xbeed7439	-0.46377733
79	0xba18a749	-0.0005823267
80	0x3d1c72f6	0.038195573
81	0xbd7081fe	-0.05871772
82	0xbdb8cd6f	-0.09023558
83	0xbc513bf1	-0.012770639
84	0x3d55038b	0.052005332
85	0xbcc2ae6c	-0.023764811
86	0x3e155bb5	0.14585765
87	0x3d8265a4	0.06367043
88	0xbf5c6d56	-0.86104333
89	0xbf364d36	-0.71211565
90	0xbf43cd8f	-0.7648553
91	0xbd8a8795	-0.067641415
92	0x3da2e637	0.07954066
93	0x3d1f26f7	0.03885552
94	0xbf5468a5	-0.82972175
95	0xbf499b45	-0.7875255
96	0xbe0bd287	-0.13654529
97	0x3d04ac3f	0.03239083
98	0x3d8052e5	0.06265811
99	0xbddec671	-0.108776934
100	0xbd97b027	-0.07406645
101	0x3da3e8fb	0.08003422
102	0x3d5d62e4	0.054049388
103	0x3da06e08	0.07833487
104	0x3d17a294	0.03702028
105	0xbe3503e5	-0.17677267
106	0xbd41fa94	-0.04735811
107	0x3df4dac6	0.1195579
108	0x3d99f8a7	0.0751813
109	0xbc2b4065	-0.010452365
110	0xbd3df456	-0.046375595
111	0xbce60700	-0.02807951
112	0xbdbd3e56	-0.09240405
113	0x3de20f75	0.110381044
114	0xbda46ce9	-0.080285855
115	0xbdb703d2	-0.089362755
116	0x3e64b3e3	0.22334246
117	0xbd9c760a	-0.07639702
118	0xbd9a7479	-0.07541747
119	0xbd28af7e	-0.041182987
120	0xbcac3910	-0.021023303
121	0xbec0f4a1	-0.37686637
122	0xbbc84f3f	-0.0061129625
123	0xbd6ecdb5	-0.058301646
124	0x3d45909a	0.048233606
125	0x3e4298dc	0.19003624
126	0xbdbc1102	-0.091829315
127	0xbcb5d1ff	-0.02219486
128	0xbcceb04e	-0.025230553
129	0xbb94ba60	-0.004538819
130	0xbe80746f	-0.25088832
131	0xbe64ccfc	-0.2234382
132	0x3c89a25f	0.016801057
133	0xbe1a48d2	-0.15066841
134	0xbd3e086d	-0.046394754
135	0xbd97c85b	-0.07411262
136	0x3ce0a7e3	0.027423805
137	0xbdbd8e2d	-0.092556335
138	0x3d603bcd	0.05474453
139	0xbd6b68c1	-0.057472948
140	0xbda737b8	-0.081649244
141	0x3d884663	0.0665405
142	0xbe6ad316	-0.22932085
143	0x3c93ec27	0.018056942
144	0xbe14abf1	-0.14518715
145	0xbd4ed532	-0.050496288
146	0x3e09919d	0.13434453
147	0x3ed9361a	0.4242409
148	0x3e7b1918	0.24521291
149	0x3e2d32d9	0.16913928
150	0xbe1992ea	-0.1499745
151	0xbce5d7b7	-0.028056962
152	0x3db12d2e	0.086511955
153	0xbcffbfc5	-0.031219373
154	0x3ce411d2	0.027840529
155	0x3e3d17a0	0.18466043
156	0xbd97b203	-0.07407
157	0xbde66a67	-0.112507634
158	0x3d2a03c5	0.0415075
159	0x3bf1c13d	0.007377772
160	0x3c54c1e6	0.012985682
161	0x3c87c078	0.016571268
162	0xbd9a0c90	-0.07521927
163	0xbc9d987c	-0.01923775
164	0x3db12bf9	0.08650965
165	0x3c943b9c	0.01809483
166	0x3c6b697c	0.014368411
167	0xbb1e1b7b	-0.0024125266
168	0x3e2ee532	0.17079619
169	0xbc0eb9a6	-0.008711254
170	0xbda53494	-0.08066669
171	0xbdb3be50	-0.087765336
172	0x3dd08604	0.101818115
173	0x3d84af88	0.064787924
174	0xbd894d05	-0.067041434
175	0xbcbc3b4a	-0.02297749
176	0x3d9238c9	0.07139737
177	0x3dd59a89	0.10429866
178	0x3c185a8b	0.009298931
179	0x3d7b3faf	0.06134003
180	0xbdb837bb	-0.08995005
181	0xbda2a102	-0.07940866
182	0x3deb2699	0.11481971
183	0xbd81b459	-0.06333227
184	0xbe28b5af	-0.16475557
185	0x3e909104	0.28235638
186	0x3dae2555	0.08503214
187	0xbc432810	-0.011911407
188	0xbe04c839	-0.12967004
189	0xbdf09936	-0.11747973
190	0xbc9ee3d4	-0.019395746
191	0x3e9e13be	0.30874437
192	0xbcd04b27	-0.02542646
193	0x3d8e26b4	0.06940976
194	0xbdf7573f	-0.12077188
195	0x3bbaf20e	0.0057051247
196	0xbcd6b1b1	-0.026207777
197	0x3d27b74a	0.040946282
198	0xbd91ff20	-0.07128739
199	0x3cbcd5f0	0.023051232
200	0xbd8d6c61	-0.06905437
201	0xbd203a31	-0.039117996
202	0x3c6cb224	0.014446769
203	0x3e182fcd	0.14861985
204	0x3d5a157a	0.053243138
205	0x3e0b5e6a	0.13610235
206	0x3de84c6b	0.113427006
207	0xbe06003a	-0.13086024
208	0xbd59afe6	-0.053146265
209	0x3a894717	0.0010473457
210	0xbda463ac	-0.080268234
211	0x3e071069	0.13189854
212	0xbdfff851	-0.124985345
213	0xbdc0e94e	-0.09419499
214	0xbdf2258c	-0.11823568
215	0xbd9e1b50	-0.07720053
216	0xbb95fd1a	-0.004577291
217	0x3de71cbc	0.112847775
218	0x3d59322c	0.053026363
219	0x3da5ef71	0.081023104
220	0x3db2943d	0.087196805
221	0xbdbf4273	-0.09338846
222	0x3d597e04	0.053098693
223	0x3e0e6461	0.13905479
224	0x3d87a768	0.06623727
225	0xbdb7517d	-0.089510895
226	0xbda5850e	-0.08082019
227	0x3d6f4edf	0.058424827
228	0xbd874054	-0.066040665
229	0x3d905462	0.07047345
230	0x3cf45bb6	0.029828887
231	0xbd137791	-0.0360027
232	0xbd7c552a	-0.061604656
233	0xbd88c9ba	-0.06679101
234	0xbe02eac6	-0.12784871
235	0x3d2397cb	0.039939683
236	0x3d52c9ed	0.051462103
237	0xbd52ad6b	-0.051434916
238	0xbd11831b	-0.035525423
239	0x3e19fa42	0.15036872
240	0x3da3d46f	0.07999503
241	0x3c880273	0.01660273
242	0xbdff4d19	-0.12465877
243	0x3e053b91	0.13011004
244	0xbe1a34f3	-0.15059261
245	0xbdcf0892	-0.101090565
246	0x3de93f5b	0.11389037
247	0x3e0401ca	0.12891307
248	0xbc769ade	-0.015051572
249	0x3d5efc0f	0.0544396
250	0xbe61cc40	-0.22050571
251	0xbecd3db6	-0.40086144
252	0x3d7851a9	0.060624752
253	0x3d5a7ea3	0.053343426
254	0x3ceb7da1	0.028746428
255	0xbc96d71c	-0.018413119

conv3.weight f4 [64, 32, 3]
0	0x3e712d15	0.23552354
1	0x3dfef900	0.12449837
2	0x3dbfa2c6	0.093572184
3	0xbe917862	-0.28412157
4	0xbe6ab609	-0.22921003
5	0x3db25afd	0.08708761
6	0x3e5898f1	0.21152093
7	0x3c8ff305	0.017571935
8	0x3c3bce2e	0.011462731
9	0xbea8775e	-0.3290357
10	0x3c89d4ba	0.016825069
11	0x3da90002	0.082519546
12	0xbd261360	-0.04054582
13	0xbe310838	-0.17288291
14	0xbc5edd58	-0.013602577
15	0xbdac8a0c	-0.08424768
16	0x3caf8fda	0.021430898
17	0x3e4abe0c	0.1979906
18	0x3e02d5f7	0.12776934
19	0xb8a93224	-8.0678874e-05
20	0xbe2bab86	-0.1676465
21	0xbea1540f	-0.31509444
22	0xbdca5ffc	-0.09881589
23	0xbd8adbbe	-0.06780194
24	0xbdab65e2	-0.08369042
25	0xbe3c3107	-0.18378077
26	0xbeaa5e36	-0.33275002
27	0xbc132501	-0.00898099
28	0x3d6112f0	0.0549497
29	0x3d87fc40	0.0663991
30	0xbdff3ffc	-0.12463376
31	0xbd9ccaec	-0.07655892
32	0x3bbdeeb8	0.0057962798
33	0x3d3af2f4	0.045641854
34	0xbddb27cb	-0.10700949
35	0xbdbb30ba	-0.09140153
36	0xbdeffe63	-0.11718442
37	0xbd3a2665	-0.045446772
38	0xbdc12f53	-0.094328545
39	0xbb33f4c5	-0.0027459126
40	0xbcb14cd7	-0.021643085
41	0xbe4076a0	-0.18795252
42	0xbe26c0e9	-0.16284527
43	0xbe9395cf	-0.28825232
44	0xbe9c39b9	-0.3051279
45	0x3c9a860d	0.018862749
46	0xbd3cfd5e	-0.046140067
47	0xbb0e48c6	-0.0021710857
48	0x3d45be4b	0.04827718
49	0x3dd962df	0.10614561
50	0xbd9d5d98	-0.07683867
51	0x3cef80b6	0.029236179
52	0xbe350655	-0.17678197
53	0xbe3df915	-0.18552049
54	0x3e0a5b40	0.13511372
55	0x3cf54a83	0.029942757
56	0x3db39925	0.087694444
57	0xbeb586b7	-0.35454342
58	0xbe8a3b59	-0.26998404
59	0xbd666612	-0.056249686
60	0xbd7b004b	-0.061279576
61	0xbdbb0e81	-0.09133626
62	0x3d68e330	0.056857288
63	0x3bc0d18c	0.005884355
64	0xbe3fc4c3	-0.18727402
65	0xbe0db009	-0.13836683
66	0xbdc04bad	-0.09389434
67	0x3c205bd5	0.009787519
68	0xbda9dbc5	-0.08293871
69	0x3d14287d	0.036171425
70	0x3c8ce89c	0.01720076
71	0x3cb2aa5d	0.021809751
72	0xbe0d87ab	-0.13821284
73	0xbd88b0f6	-0.066743776
74	0xbe3b714f	-0.18304943
75	0xbc68c523	-0.014207157
76	0x3d6e1359	0.05812392
77	0xbddfaa9b	-0.10921212
78	0xbcc0c7d8	-0.023532793
79	0x3d995a19	0.07487888
80	0xbdadf41c	-0.08493826
81	0x3d1be621	0.038061265
82	0xbd288cf0	-0.041150033
83	0xbea29b03	-0.3175889
84	0xbc5a1a7b	-0.0133119775
85	0x3ba1de81	0.0049398546
86	0xbd423d0d	-0.047421504
87	0xbda9f5ae	-0.08298813
88	0x3d531de3	0.051542174
89	0xbe65cbba	-0.22440997
90	0x3d8112d0	0.06302416
91	0x3bd1f918	0.006407868
92	0x3d4180ed	0.047242094
93	0x3da2c89b	0.07948419
94	0xbc904466	-0.01761074
95	0xbd0103d1	-0.03149778
96	0xbe188eb0	-0.14898181
97	0xbde11437	-0.10990184
98	0x3cad9985	0.021191368
99	0x3d95c5f5	0.07313148
100	0x3c018081	0.007904173
101	0xbdc76e4c	-0.09737834
102	0xbe3c80dc	-0.18408531
103	0xbddb2ece	-0.10702287
104	0x3d01c9f7	0.03168675
105	0xbd0a63ce	-0.033786587
106	0xbcd62a84	-0.02614332
107	0xbdfa8f87	-0.12234407
108	0x3d91d64b	0.07120951
109	0x3d22b31a	0.039721586
110	0xbd38720d	-0.045030642
111	0xbe667d28	-0.22508681
112	0xbdfab504	-0.12241557
113	0xbd600aca	-0.05469779
114	0x3c8aaece	0.016929056
115	0xbc408deb	-0.011752586
116	0xbe08e6f2	-0.13369349
117	0xbd10c154	-0.035340622
118	0xbc78e864	-0.015192125
119	0x3df1608b	0.11785992
120	0xbdca1b53	-0.09868493
121	0x3d1fb84d	0.038994122
122	0x3deba97b	0.11506935
123	0x3ce0e72c	0.027453981
124	0xbd85cef7	-0.06533616
125	0xbc13d71a	-0.009023452
126	0xbd7998e1	-0.060936812
127	0xbc2c7d0a	-0.0105278585
128	0xbe2d6acb	-0.1693527
129	0xbe0c08f6	-0.13675293
130	0xbdd8b05e	-0.10580514
131	0xbd66756f	-0.056264337
132	0xbcb02350	-0.021501213
133	0xbaca1825	-0.0015418573
134	0xbcc0bdae	-0.023527946
135	0xbd8657ea	-0.06559737
136	0xbd396a53	-0.045267414
137	0xbdb0ea9f	-0.086385004
138	0xbd1ce823	-0.03830732
139	0xbdc2bb3c	-0.095083684
140	0xbdd099c5	-0.10185579
141	0xbd8f0be0	-0.06984687
142	0x3c929a24	0.017895766
143	0x3b838328	0.004013438
144	0xbda207d2	-0.07911648
145	0x3d064a42	0.03278566
146	0xbcc35b99	-0.023847388
147	0xbd97d2dc	-0.07413265
148	0xbc27ecdf	-0.010249346
149	0x3dc2fa3b	0.09520384
150	0xbcbd9a14	-0.02314476
151	0xbd852e15	-0.0650293
152	0xbd8d111d	-0.0688803
153	0x3cdd336f	0.027002065
154	0x3cd0be11	0.025481256
155	0xbd171a75	-0.036890466
156	0x3d3ca845	0.04605891
157	0x3dbccb72	0.092184916
158	0xbe255d06	-0.16148767
159	0xbd8b33bb	-0.06796976
160	0xbda25fe0	-0.07928443
161	0xbcf53dee	-0.029936757
162	0x3d88d609	0.06681449
163	0xbd591d46	-0.053006433
164	0xbd3a8aa4	-0.045542374
165	0x3d526210	0.05136305
166	0x3d349d35	0.044095237
167	0x3d789e7a	0.06069801
168	0xbcf8e163	-0.03038091
169	0xbe184537	-0.14870153
170	0xbe191f09	-0.14953245
171	0xbd3cadde	-0.04606425
172	0xbd6d9797	-0.058005895
173	0xbd813d91	-0.06310571
174	0xbced4a15	-0.02896599
175	0x3d747f88	0.059691936
176	0xbd5cd8e4	-0.05391778
177	0xbd3c996f	-0.046044763
178	0xbc81b9f8	-0.015835747
179	0x3b955e27	0.004558343
180	0xbdef57da	-0.11686678
181	0x3d19ec73	0.03757901
182	0xbdbe4c4b	-0.092918955
183	0xbd85ab48	-0.0652681
184	0x3d812589	0.063059874
185	0xbe2832e2	-0.1642566
186	0xbe34ed09	-0.17668547
187	0xbc014fa1	-0.00789252
188	0xbdb6c117	-0.08923548
189	0xbdc6d51a	-0.09708615
190	0x3d6b3103	0.057419788
191	0xbe11d16f	-0.14240049
192	0x3e1e58e7	0.15463601
193	0x3d9c4210	0.07629788
194	0xbc8dc033	-0.017303562
195	0xbe4a9484	-0.19783217
196	0x3c74174b	0.014898132
197	0x3da68acd	0.08131943
198	0x3cfd0f47	0.030891074
199	0x3e15b4f4	0.1461981
200	0xbd0adfd3	-0.03390486
201	0xbcfb7d5a	-0.03069942
202	0xbd98e65c	-0.074658126
203	0x3c64283a	0.013925606
204	0xbdf63281	-0.120213516
205	0xbdedfb1f	-0.11620163
206	0xbe2340d6	-0.15942702
207	0xbe0b1033	-0.13580398
208	0x3e14faf6	0.14548859
209	0x3df6d173	0.12051668
210	0xbca1a151	-0.019730242
211	0xbd35af27	-0.04435649
212	0xbe4caf8a	-0.19988838
213	0xbe808b9d	-0.25106516
214	0x3d17290d	0.036904383
215	0xbd10c91c	-0.035348043
216	0xbf0d1ef8	-0.5512538
217	0x3dff2cad	0.12459693
218	0xbdbdb8bb	-0.0926375
219	0xbd5a558c	-0.05330424
220	0xbb367fdb	-0.0027847204
221	0x3d2b9ed4	0.041899517
222	0xbdd73f46	-0.10510115
223	0x3d0b6414	0.03403099
224	0xbe4491f4	-0.19196302
225	0xbcfa34aa	-0.03054269
226	0xbd49adf4	-0.04923816
227	0xbdbd58e6	-0.09245472
228	0xbda7e2ac	-0.08197531
229	0xbd041733	-0.032248687
230	0xbcfdc55a	-0.030977894
231	0xbe882709	-0.2659228
232	0xbd8214b1	-0.06351603
233	0xbcfbebde	-0.030752119
234	0xbef25b82	-0.4733544
235	0xbd173e8d	-0.036924887
236	0xbe4860ec	-0.19568223
237	0x3ceee7e8	0.029163316
238	0xbdd45a21	-0.10368753
239	0xbd44e8e7	-0.048073675
240	0x3c7b9e29	0.015357533
241	0xbc845d33	-0.016157722
242	0xbccacc91	-0.024755748
243	0xbe7cacd5	-0.24675305
244	0x3cc85f50	0.024459511
245	0xbeddf2d2	-0.4334932
246	0x3d8eca82	0.06972219
247	0x3e23fbf9	0.16014089
248	0x3dd70a77	0.10500043
249	0xbe832406	-0.2561342
250	0xbd7aa753	-0.06119473
251	0x3b767008	0.0037603397
252	0xbe9f497d	-0.31110755
253	0xbd4fd234	-0.050737575
254	0xbd1b86ee	-0.037970476
255	0xbefb0b9f	-0.49032304

conv4.weight f4 [64, 64, 3]
0	0xbd1e493f	-0.03864407
1	0xbdc314f9	-0.095254846
2	0xbd92ac34	-0.071617514
3	0xbce15c3b	-0.0275098
4	0xbd93a348	-0.07208878
5	0xbd157a24	-0.036493436
6	0x3cda6f40	0.026664376
7	0xbda01c58	-0.07817906
8	0xbcf7266f	-0.030169694
9	0xbc97a584	-0.018511541
10	0xbd5e93b3	-0.054340076
11	0xbca52567	-0.020159436
12	0xbd20239d	-0.039096463
13	0x3c6a3008	0.014293678
14	0x3d706e82	0.05869914
15	0xbd49547b	-0.049152832
16	0xbcde945a	-0.027170349
17	0x3c5f0f29	0.013614454
18	0xba721aa2	-0.0009235536
19	0xbd3410a5	-0.043961186
20	0xbd390bef	-0.045177396
21	0xbd3753ba	-0.044757582
22	0xbbf5f382	-0.007505835
23	0x3d31129b	0.043230634
24	0xbd1f8bd1	-0.0389517
25	0x3c1e0c24	0.009646449
26	0x3b7057c0	0.0036673397
27	0x3ca93e4e	0.020659592
28	0xbcc403c3	-0.023927575
29	0xbd48c5f5	-0.04901691
30	0xbd5fc883	-0.054634582
31	0x3d42bece	0.047545247
32	0x3db942ae	0.09045921
33	0x3d2496a1	0.040182713
34	0xbd9d1899	-0.07670707
35	0xbcf3dd5a	-0.029768635
36	0xbdb01ea4	-0.08599594
37	0xbdc403cf	-0.09571039
38	0xbdc0e5f3	-0.09418859
39	0xbd3613cf	-0.044452485
40	0x3d71b0a9	0.059006367
41	0x3cc0b4a4	0.023523636
42	0xbd8a4b2a	-0.06752618
43	0xbd5d31a9	-0.054002438
44	0x3cc7d89e	0.024395283
45	0x3d2d6be4	0.04233922
46	0x3d3f71a2	0.046739228
47	0xbd413e86	-0.047178768
48	0xbd9252d7	-0.07144707
49	0xbc02a708	-0.007974394
50	0xbb199dc1	-0.0023439976
51	0xbd563cd1	-0.052304093
52	0xbd82f72b	-0.063948
53	0xbb692448	-0.0035574604
54	0xbc2a0d3b	-0.010379131
55	0xbd1f7d32	-0.038937755
56	0xbd023298	-0.03178653
57	0xbc717a6c	-0.01473866
58	0xbe030d07	-0.12797938
59	0xbdc48844	-0.09596303
60	0xbd0cbca1	-0.034359578
61	0xbdc4aed3	-0.096036576
62	0x3ce38773	0.027774548
63	0xbca21c6a	-0.01978894
64	0x3d1ce737	0.03830644
65	0xbc9f3b0d	-0.019437337
66	0xbd203a6e	-0.039118223
67	0x3c1cc59a	0.009568596
68	0xbdeb5eab	-0.11492666
69	0xbda5c904	-0.08094981
70	0xbdba4777	-0.09095662
71	0xbd29f2eb	-0.04149143
72	0xbd9bdd69	-0.0761059
73	0xbd09d3bb	-0.033649188
74	0xbdb13891	-0.08653367
75	0x3a88ee97	0.0010447082
76	0xbd9966cf	-0.07490312
77	0xbd0d4225	-0.03448691
78	0x3ccdbf12	0.025115523
79	0xba8a8d1a	-0.0010570616
80	0xbd8b85e8	-0.0681265
81	0xbd39c5d0	-0.045354664
82	0xbc518191	-0.012787239
83	0xbd0a6381	-0.0337863
84	0xbdda7da9	-0.10668499
85	0xbd306bf4	-0.043071702
86	0xbdf32a77	-0.11873334
87	0xbd089bae	-0.033351593
88	0xbdbd0f59	-0.09231443
89	0xbc0d1fe3	-0.008613559
90	0x3d2c6f34	0.04209824
91	0x3d88a94d	0.066729166
92	0xbd246eec	-0.040144846
93	0xbc0bdee2	-0.008537026
94	0x3d28bf08	0.041197807
95	0xbd58521f	-0.05281269
96	0xbb9bb92a	-0.004752298
97	0x3c723860	0.014783949
98	0xbd0835a8	-0.033254296
99	0xbddf5b47	-0.10906082
100	0x3c3572d2	0.011074739
101	0xbb6ccb4d	-0.003613192
102	0xbddad61a	-0.10685368
103	0xbcecc429	-0.02890213
104	0xbdc3ef44	-0.09567121
105	0xbdbbd840	-0.09172106
106	0x3cc4d423	0.024026936
107	0xbb8e077a	-0.0043343874
108	0xbdab9bee	-0.083793506
109	0xbddfb283	-0.1092272
110	0xbdb5c96a	-0.08876307
111	0xbb311f42	-0.0027026688
112	0x3c37ab8d	0.0112103345
113	0xbd001ad6	-0.031275593
114	0xbdc3b8b4	-0.09556714
115	0xbda9fe3f	-0.08300447
116	0xbd1c46f1	-0.038153592
117	0x3ced21a0	0.028946698
118	0x3c8a4432	0.016878221
119	0xbdb7dd82	-0.08977796
120	0xbd110531	-0.03540534
121	0x3b8af26c	0.0042403247
122	0x3d191362	0.037372
123	0x3c921da5	0.017836401
124	0xbc5612da	-0.013066018
125	0x3d0c81b8	0.034303397
126	0x3c1428d5	0.009042938
127	0xbce47b45	-0.02789081
128	0xbcac6294	-0.0210431
129	0xbc99df9f	-0.018783389
130	0xbc4ea21a	-0.01261189
131	0x3d13e7ff	0.03610992
132	0xbc200dc0	-0.009768903
133	0xbd10deb9	-0.035368655
134	0xbdaca859	-0.08430547
135	0xbc428fd6	-0.0118751135
136	0xbd24efe2	-0.040267833
137	0xbd549080	-0.05189562
138	0x3cc327a1	0.023822607
139	0x3c8535de	0.016261037
140	0xbd6e787e	-0.05822038
141	0xbcc41ef6	-0.023940545
142	0xbdb4e378	-0.08832449
143	0xbd4edde2	-0.050504573
144	0xbdbf7162	-0.09347798
145	0xbd0107f7	-0.031501736
146	0xbd2eb844	-0.0426562
147	0x3c0c9191	0.008579628
148	0xbd8633d1	-0.06552852
149	0xbdfb9abf	-0.12285375
150	0x3cc87522	0.024469916
151	0xbcea887c	-0.028629534
152	0x3d74ebfc	0.059795365
153	0xbc8b6da0	-0.017020047
154	0x3d220971	0.039559785
155	0x3cb51f45	0.022109637
156	0x3d89c85d	0.067276694
157	0x3aafb647	0.0013405763
158	0x3c60b2c8	0.0137145
159	0xbcdefc3a	-0.02721988
160	0xbd0e7470	-0.034779012
161	0xbdbaf2ec	-0.09128365
162	0xbd83802c	-0.06420931
163	0xbd537e6a	-0.05163423
164	0xbd98923d	-0.07449768
165	0xbda3674f	-0.07978689
166	0xbdd52695	-0.104077496
167	0x3c6011dc	0.013676133
168	0xbdf39ec1	-0.11895514
169	0x39102e37	0.00013750127
170	0xbd5027ca	-0.050819196
171	0xbd97e2a6	-0.07416277
172	0x3cb23689	0.02175452
173	0x3d020302	0.03174115
174	0xbcaf6196	-0.021408837
175	0x3d249cca	0.04018859
176	0xbdc6084f	-0.096695535
177	0xbb9a1a1f	-0.004702821
178	0xbd203855	-0.039116222
179	0xbc8043a3	-0.015657252
180	0xbcdb67fc	-0.026782982
181	0xbd4095ae	-0.047017746
182	0xbc6294ea	-0.013829449
183	0x3c9fc0dd	0.019501144
184	0x3c16a97f	0.009195684
185	0x3c7fdc3b	0.015616472
186	0xbc4656ae	-0.012105627
187	0xbd462f7d	-0.048385132
188	0xbcde1e54	-0.027114071
189	0x3cd4b9dc	0.02596753
190	0xbd99404e	-0.07482968
191	0x3cc26183	0.023728138
192	0x3ad530a1	0.0016265103
193	0xbe308dc4	-0.1724158
194	0x3d9220af	0.0713514
195	0x3e62e2a8	0.22156775
196	0xbdc60601	-0.09669114
197	0xbdb6412c	-0.08899149
198	0xbd5170b9	-0.05113289
199	0xbe63f385	-0.22260864
200	0x3d2481e5	0.04016294
201	0xbd50c5b9	-0.050969813
202	0x3d701db4	0.058622077
203	0xbd4c23d3	-0.049838852
204	0x3bb23a8d	0.0054391087
205	0x3d5d8e2b	0.05409066
206	0x3d77e9af	0.060525592
207	0xbe16a3ae	-0.14710876
208	0xbd82d6e4	-0.063886434
209	0xbb63fa15	-0.0034786512
210	0x3c91c16f	0.017792432
211	0xbdba2333	-0.09088745
212	0xbce6a0aa	-0.028152782
213	0xbc5a22ce	-0.013313962
214	0xbe8c21dc	-0.27369583
215	0xbdf871f9	-0.121311136
216	0xbd5a12db	-0.05324064
217	0x3e1f4018	0.15551794
218	0x3e80b551	0.25138333
219	0xbd2765a8	-0.04086843
220	0xbdeb8c5e	-0.11501382
221	0xbd4cadb5	-0.049970347
222	0xbcce5e91	-0.025191577
223	0xbcfffd84	-0.031248815
224	0x3e259de5	0.16173513
225	0x3dc0fe71	0.09423531
226	0x3e4268f8	0.18985355
227	0x3e01a78a	0.12661567
228	0x3e09ffc1	0.13476469
229	0xbe5954b2	-0.21223715
230	0xbd9c6ad8	-0.07637566
231	0xbe3120c6	-0.17297658
232	0xbe41c43a	-0.1892251
233	0x3c700ea3	0.014651927
234	0xbe7bbaee	-0.24583027
235	0xbf0d370b	-0.55162114
236	0xbdc891c8	-0.097934306
237	0x3ae3558d	0.0017344222
238	0x3d54afff	0.051925655
239	0xbd9d0bdc	-0.076682776
240	0xbd9eb6fa	-0.07749744
241	0xbd65eacb	-0.05613212
242	0x3cdc354a	0.026880879
243	0x3ce540dc	0.027985029
244	0xbdc5a624	-0.096508294
245	0x3caf7aef	0.021420924
246	0xbd460975	-0.048348863
247	0xbea4dfd2	-0.3220201
248	0xbe0fa178	-0.14026439
249	0xbd8e0b16	-0.06935708
250	0xbccc194a	-0.024914403
251	0x3dde45ec	0.1085318
252	0xbd389754	-0.045066193
253	0xbdfdd068	-0.12393266
254	0x3e18eeb3	0.14934807
255	0xbccd5bf0	-0.025068253

conv5.weight f4 [64, 64, 3]
0	0xbd7a7814	-0.06114967
1	0x3d193b1d	0.03740989
2	0xbd8a2589	-0.067454405
3	0xbc77ed40	-0.015132248
4	0x3ca2a43b	0.019853702
5	0xbe425bac	-0.18980283
6	0xbd80f401	-0.0629654
7	0x3c8e02d5	0.017335335
8	0xbd153e70	-0.0364365
9	0x3ddd4572	0.10804261
10	0xbe085321	-0.13312961
11	0x3da75c14	0.081718594
12	0x3c1d4cda	0.009600842
13	0x3d34a263	0.044100177
14	0x3c02dbe4	0.007986996
15	0x3dabc6fb	0.08387562
16	0x3bd7e95d	0.0065890984
17	0x3d693d71	0.05694336
18	0xbdd1c4b4	-0.10242596
19	0x3cdb1f0b	0.0267482
20	0xb9deb1ed	-0.00042475705
21	0xbccfbeee	-0.025359597
22	0xbda79f9f	-0.08184742
23	0x3d272792	0.04080922
24	0xbdc9c10c	-0.09851274
25	0xbe0c14a7	-0.13679753
26	0xbca1ef77	-0.019767506
27	0x3db6d6d5	0.08927695
28	0xbe1e2173	-0.15442447
29	0x3e011e8f	0.12609313
30	0xbd9475ac	-0.07249007
31	0x3dbe2f4c	0.09286365
32	0x3d36f2a5	0.044664998
33	0xbe53ebac	-0.2069537
34	0xbe2cb540	-0.16866016
35	0x3d858b08	0.06520659
36	0xbdd69c73	-0.10479059
37	0xbd32f73f	-0.043692823
38	0x3d9dbaae	0.07701622
39	0xbd602f63	-0.05473269
40	0x3da5e069	0.080994435
41	0x3d16b57f	0.036794182
42	0x3b6d40c4	0.0036201933
43	0x3dabccf6	0.083887026
44	0xbd42baaa	-0.047541298
45	0xbcc78471	-0.024355145
46	0xbdc1f432	-0.09470405
47	0x3d982c3c	0.07430312
48	0x3db0e6c8	0.08637768
49	0xbdf7074e	-0.1206194
50	0xbd8268ba	-0.06367631
51	0xbdf223db	-0.11823245
52	0xbc233dba	-0.009963447
53	0x3d8d05ee	0.068858966
54	0xbb3f08e3	-0.0029149584
55	0x3cab1842	0.02088559
56	0xbd218e54	-0.039442375
57	0x3b9dddab	0.0048176846
58	0xbd218d26	-0.03944125
59	0xbdb2ee74	-0.087368876
60	0x3cc74d67	0.0243289
61	0xbccfaea0	-0.025351822
62	0x3c1939b7	0.009352139
63	0xbd50fe6e	-0.051023893
64	0xbd78b658	-0.06072077
65	0xbd16bd6c	-0.03680174
66	0xbe3965ca	-0.18105236
67	0xbd2b3861	-0.041801814
68	0x3d870e62	0.0659454
69	0xbe0bda68	-0.13657534
70	0xbc8b53f3	-0.017007804
71	0x3cbdbc33	0.02316103
72	0xbcfd1595	-0.03089408
73	0xbe2020ab	-0.15637462
74	0xbcafc4a4	-0.02145607
75	0x3cf7f9e3	0.030270522
76	0xbe1027e1	-0.14077713
77	0x3de983de	0.11402105
78	0x3dcb882b	0.09938081
79	0xbc430ad1	-0.011904434
80	0x3e02db9e	0.1277909
81	0xbcd334d9	-0.025782036
82	0xbdb65c99	-0.0890438
83	0x3cd24515	0.025667707
84	0xbcf944ad	-0.030428255
85	0x3d125bb8	0.035732
86	0xbd55ea54	-0.052225426
87	0x3d254942	0.040353067
88	0x3dce5ea7	0.10076647
89	0xbdb8aa70	-0.090168834
90	0xbd30076b	-0.042975824
91	0xbba06907	-0.0048953327
92	0xbd1e304c	-0.03862028
93	0x3d11d10e	0.03559976
94	0xbe1c2083	-0.15246777
95	0x3bb41b6a	0.005496432
96	0xbc88264d	-0.016619826
97	0xbd8a567b	-0.06754776
98	0x3da2d159	0.07950086
99	0xbc8ade47	-0.016951693
100	0xbe91eb86	-0.28500003
101	0x3e0b1a59	0.1358427
102	0x3d04a138	0.032380313
103	0xbcd8be98	-0.02645807
104	0x3e00b7d5	0.12570126
105	0x3d4d3d9a	0.050107576
106	0xbcbf8e7a	-0.023383368
107	0xbd39886f	-0.04529613
108	0x396cccb9	0.00022582979
109	0xbe067e22	-0.13134053
110	0x3b3235e3	0.0027192764
111	0x3c84b441	0.016199233
112	0xbd8aff61	-0.06786991
113	0x3d450bb3	0.04810686
114	0x3d2a5e05	0.04159357
115	0xbe396c2c	-0.1810767
116	0x3de2e918	0.11079615
117	0xbe1afe37	-0.15136038
118	0xbd48ad2e	-0.048993282
119	0x3d6c6562	0.057713874
120	0xbe2781c4	-0.16358095
121	0xbde5bf91	-0.11218179
122	0xbcd99bc6	-0.026563536
123	0x3a055527	0.0005086236
124	0x3aa7318b	0.0012755854
125	0xbe16e198	-0.14734495
126	0xbc7033e1	-0.014660806
127	0xbd8c4d62	-0.06850697
128	0xbd884217	-0.06653231
129	0xbda721a9	-0.08160717
130	0x3c4ecf29	0.012622633
131	0x3c3b4be1	0.011431665
132	0x3d1cc0b4	0.038269714
133	0x3caf4d7e	0.021399256
134	0x3ce493f1	0.027902575
135	0x3c73a162	0.01487002
136	0xbd587457	-0.052845325
137	0x3d9f1339	0.07767338
138	0xbdccddd5	-0.100032486
139	0xbe1c84fa	-0.15285102
140	0x3e35cfd1	0.17755057
141	0xbe8704c4	-0.26370823
142	0x3d9ed5f2	0.077556506
143	0x3c0172e4	0.007900927
144	0xbdec26e6	-0.11530857
145	0xbd14bf44	-0.036315218
146	0x3cc9f663	0.02465362
147	0xbe55012c	-0.20801228
148	0xbd1569d6	-0.036477886
149	0xbc44cfe7	-0.012012458
150	0xbe1082cc	-0.14112395
151	0xbe180cfc	-0.14848703
152	0x3c8290d1	0.015938194
153	0xbd93f148	-0.07223755
154	0xbdc1ef05	-0.094694175
155	0x3dbabdbd	0.09118221
156	0xbdc1d374	-0.094641596
157	0xbdbaaf79	-0.091155
158	0x3e1191e4	0.14215809
159	0xbd2d3184	-0.04228355
160	0xbd1a401e	-0.037658803
161	0x3cb335b0	0.021876186
162	0xbd75274e	-0.059851937
163	0xbd43bc4f	-0.047787007
164	0xbcb2e8af	-0.021839468
165	0xbd8d717a	-0.069064096
166	0xbe6329f7	-0.22183977
167	0x3de6e03b	0.11273237
168	0x3dc24589	0.09485919
169	0xbec10f53	-0.37707004
170	0x3e010409	0.12599196
171	0xbceb55ad	-0.028727377
172	0x3d574b2f	0.052561935
173	0xbd53bd3a	-0.051694132
174	0xbe1ea784	-0.1549359
175	0x3ce0c65f	0.02743834
176	0xbe016ff9	-0.1264037
177	0xbbc8cbb3	-0.0061277985
178	0x3d90bf8c	0.07067785
179	0xbdc813cf	-0.09769403
180	0xbcf9c0a3	-0.030487364
181	0xbcc090e4	-0.02350659
182	0xbc2ac758	-0.010423504
183	0xbcb2726f	-0.021783082
184	0xbd5ea0f5	-0.05435272
185	0xbc91fbf6	-0.01782034
186	0x3da111d2	0.07864727
187	0xbe88067f	-0.26567456
188	0x3ddd30d6	0.1080033
189	0x3dc5b499	0.09653587
190	0x3cfa98ad	0.03059038
191	0x3b141f10	0.0022601523
192	0xbd8f0925	-0.06984166
193	0xbc49e1b6	-0.01232188
194	0xbd842019	-0.06451435
195	0xbdd7678a	-0.105177954
196	0xbc68586c	-0.014181238
197	0x3da7a21c	0.08185217
198	0xbdd55709	-0.10416991
199	0xbc65f292	-0.014034884
200	0xbdccf263	-0.10007169
201	0xbec62515	-0.38700166
202	0x3cb30138	0.021851167
203	0xbdd3bbd7	-0.10338562
204	0xbd7a9b20	-0.061183095
205	0x3c9c014e	0.01904359
206	0x3d4dee8b	0.05027632
207	0xbb9d36d4	-0.004797796
208	0xbc31d2d6	-0.01085349
209	0x3d089214	0.033342436
210	0xbde58c02	-0.11208345
211	0xbe7affff	-0.24511717
212	0x3bad4381	0.005287588
213	0xbde50efa	-0.11184497
214	0x3cd187bf	0.025577424
215	0xbda65641	-0.081219204
216	0x3e3c7874	0.18405324
217	0xbd899114	-0.067171246
218	0xbda53bd2	-0.080680504
219	0xbdf5c86c	-0.12001118
220	0x3dd31b58	0.1030795
221	0xbe305101	-0.172184
222	0x3d54a403	0.051914226
223	0xbccfcf12	-0.025367294
224	0xbcd0ef56	-0.02550475
225	0xbcc26558	-0.023729965
226	0xbe206cfe	-0.15666577
227	0x3dc13496	0.09433858
228	0xbd8b7471	-0.06809319
229	0xbdc053be	-0.093909726
230	0xbe083712	-0.13302258
231	0xbe382044	-0.17981058
232	0x3cfe62d8	0.031052992
233	0x3d921606	0.07133107
234	0x3d477472	0.048695035
235	0x3d7f74dd	0.06236731
236	0x3bde8ede	0.0067919334
237	0xbd97c151	-0.07409919
238	0xbd45c8eb	-0.048287313
239	0xbe68d80f	-0.2273867
240	0x3e32fce8	0.17479289
241	0xbdc7a518	-0.09748286
242	0x3d1d4152	0.038392372
243	0x3d383d85	0.044980545
244	0x3c62f2dc	0.0138518475
245	0xbe54cda7	-0.20781575
246	0x3cc19809	0.023632066
247	0x3d76be0e	0.060239844
248	0xbcf8a7d4	-0.030353464
249	0x3d079a12	0.033105917
250	0xbe0e95bd	-0.13924308
251	0x3d136ad2	0.035990544
252	0x3ce3ac28	0.027792051
253	0xbde5e03e	-0.112244114
254	0x3c19a0bf	0.009376704
255	0xbcfd8266	-0.030945968

conv6.weight f4 [64, 64, 3]
0	0x3d867e9a	0.06567116
1	0x3d67f3d6	0.056629024
2	0xbdca5502	-0.09879495
3	0xbda8c8b7	-0.08241408
4	0xbd3ea1ed	-0.046541143
5	0xbd1f9827	-0.038963463
6	0xbdd8f99d	-0.10594485
7	0xbe142f6b	-0.14471214
8	0xbc35a8aa	-0.011087576
9	0x3d7bc7bb	0.061469775
10	0xbe5f5ce7	-0.21812783
11	0xbbcf3b85	-0.006324234
12	0x3e3594c8	0.17732537
13	0x3d4998dc	0.049218044
14	0xbce9efb9	-0.028556691
15	0xbe0f403c	-0.13989347
16	0xbead48a0	-0.3384447
17	0x3e0193f8	0.12654102
18	0xbdcd52a4	-0.10025528
19	0xbe0b7862	-0.13620141
20	0x3d8c3cad	0.068475105
21	0xbbb7423e	-0.0055926135
22	0xbe45d30a	-0.19318786
23	0xbdc60add	-0.09670041
24	0x3e013613	0.12618284
25	0xbc543cd5	-0.012953957
26	0x3d45d20e	0.048296027
27	0x3da3c778	0.0799703
28	0x3d0f5b85	0.03499939
29	0x3d5689f5	0.05237766
30	0xbd7cbf0a	-0.061705627
31	0x3d18932c	0.03724973
32	0x3af06fce	0.0018343867
33	0xbe46e319	-0.19422568
34	0xb9993580	-0.00029222295
35	0xbcdf6978	-0.027271971
36	0x3e372790	0.17886186
37	0xbe083d57	-0.1330465
38	0xbe328a52	-0.17435578
39	0xbe023100	-0.12714005
40	0xbb64ce6e	-0.003491308
41	0x3d8e124f	0.06937086
42	0x3da493e1	0.08036018
43	0x3cd3c40d	0.02585032
44	0xbcafa9ee	-0.021443333
45	0x3d5a3c04	0.05327989
46	0xbd0cd0e8	-0.034378916
47	0x3c66d321	0.014088423
48	0xbc737f77	-0.014861933
49	0xbddbeed4	-0.10738912
50	0x3dec0f5d	0.11526368
51	0x3d0d3210	0.03447157
52	0xbda57645	-0.08079199
53	0xbc5e4df1	-0.013568387
54	0xbd8f96f4	-0.07011214
55	0xbdd4736c	-0.103735775
56	0x3e1dd2eb	0.1541249
57	0x3e8aaf91	0.27087072
58	0xbde2a049	-0.11065728
59	0xbc1e4b06	-0.009661442
60	0xbe19b94f	-0.15012096
61	0xbc9a6c67	-0.018850518
62	0xbbbf6eac	-0.0058420505
63	0x3c34f92d	0.011045736
64	0x3cd29d13	0.025709664
65	0xbd3f8edc	-0.0467671
66	0xbe295258	-0.16535318
67	0x3d3059af	0.04305428
68	0x3cc87aaf	0.024472563
69	0xbd8b8ad4	-0.06813589
70	0xbde50e61	-0.11184383
71	0xbdb087cc	-0.08619651
72	0xbe9dcd8d	-0.30820885
73	0x3c915ce4	0.017744489
74	0xbd8c7bf0	-0.06859577
75	0x3dedc3c5	0.11609606
76	0xbdab1015	-0.08352677
77	0xbc73064a	-0.014833042
78	0xbdadfec1	-0.08495856
79	0xbe1423d2	-0.1446679
80	0xbcbea079	-0.023269879
81	0x3ab98998	0.0014155386
82	0xbe813d10	-0.252419
83	0xbd037fb8	-0.032104224
84	0x3d8defb2	0.06930484
85	0xbe97dd08	-0.2966082
86	0x3d485fb3	0.04891939
87	0x3c1792f0	0.009251341
88	0x3d431d58	0.047635406
89	0xbd31ba2c	-0.043390438
90	0x3d7e1b02	0.062037475
91	0x3b017496	0.0019753329
92	0x3d970350	0.07373679
93	0x3ca465fd	0.020068163
94	0x3df5777e	0.11985682
95	0x3d85c7dc	0.06532261
96	0x3e334b3e	0.17509171
97	0xbe5b33bf	-0.21406458
98	0x3cc0ccc6	0.023535144
99	0x3bcd54db	0.006266219
100	0xbe0106fc	-0.1260032
101	0x3e0570f6	0.13031372
102	0x3d4611be	0.048356764
103	0xbe81cb1b	-0.2535027
104	0x3e5c4d2d	0.21513815
105	0xbc1603c0	-0.0091561675
106	0x3d50ef64	0.05100955
107	0xbcc4843b	-0.023988834
108	0x3ded835d	0.11597321
109	0xbdac3ffa	-0.0841064
110	0x3c3ff1d5	0.011715372
111	0x3daa184c	0.083054155
112	0xbe461044	-0.19342142
113	0xbc3f3feb	-0.011672954
114	0x3d2916fa	0.041281678
115	0x3d96fa83	0.07372
116	0x3b923620	0.0044620186
117	0x3caa095e	0.02075642
118	0x3da37225	0.07980756
119	0x3be7be43	0.0070722415
120	0xbe681195	-0.22662957
121	0xbdcf666c	-0.10126957
122	0x3b657980	0.0035015047
123	0x3d296aeb	0.04136173
124	0xbd803a34	-0.06261101
125	0xbd8942f3	-0.06702223
126	0xbe090d57	-0.13383995
127	0x3d818fff	0.06326293
128	0x3de8c21b	0.11365148
129	0xbd3e6c85	-0.04649021
130	0xbd71517a	-0.058915593
131	0x3e188ac2	0.14896682
132	0x3d57ccad	0.05268543
133	0xbc2acd54	-0.010424931
134	0x3cc1c173	0.023651814
135	0x3d9b7ddd	0.07592366
136	0x3c6ffb9e	0.014647393
137	0xbd6f695d	-0.05845009
138	0xbd6fa913	-0.05851085
139	0x3e02f7b7	0.12789808
140	0xbde7e68a	-0.11323269
141	0xbd0bb407	-0.034107234
142	0xbc01c2b3	-0.007919955
143	0x3dc78335	0.09741823
144	0xbe338067	-0.1752945
145	0x3d31308d	0.043259192
146	0x3d614d21	0.055005196
147	0x3da3ed78	0.08004278
148	0x3c43c909	0.011949786
149	0x3bf32d4a	0.0074211704
150	0x3e570712	0.20998791
151	0xbe3e2a0f	-0.18570732
152	0xbd271131	-0.04078788
153	0x3dc5fc97	0.09667318
154	0xbe84ccc2	-0.25937468
155	0x3d70c8f0	0.05878538
156	0xbc288713	-0.01028611
157	0xbc45a08d	-0.012062204
158	0xbdd6946b	-0.10477527
159	0xbce1a8ea	-0.027546365
160	0xbca46e47	-0.020072116
161	0x3d8301b6	0.06396811
162	0xbdf539ff	-0.119739525
163	0x3d605b3b	0.054774504
164	0xbd8b172b	-0.06791528
165	0x3d38c062	0.045105346
166	0x3da3f8db	0.0800645
167	0xbd2efe79	-0.042723153
168	0x3dd9e800	0.106399536
169	0xbdf0f818	-0.1176607
170	0xbc52a1b1	-0.012855933
171	0x3ce6587f	0.02811837
172	0xbdd0f0a9	-0.10202152
173	0xbd085537	-0.033284392
174	0x3db6407c	0.08899018
175	0x3c83526a	0.016030509
176	0x3d8463f4	0.06464377
177	0x3d1805da	0.037114955
178	0x3d676c2f	0.056499656
179	0xbdef5be3	-0.11687448
180	0xbc9364d7	-0.01799242
181	0xbe1e5897	-0.15463482
182	0x3da7420e	0.08166896
183	0x3d9d635b	0.07684966
184	0xbe2df078	-0.16986263
185	0xbd793936	-0.060845576
186	0xbdced337	-0.1009888
187	0xbe9b0f5a	-0.3028515
188	0x3cb77f7e	0.02239966
189	0x3e7aaea0	0.24480677
190	0xbb8cc798	-0.0042962544
191	0x3b98b656	0.004660408
192	0x3c8b4e09	0.017004983
193	0xbc6771ba	-0.014126236
194	0x3cfa487d	0.030552143
195	0xbd6df30e	-0.058093123
196	0xbd853f83	-0.065062545
197	0x3cdc51e0	0.02689451
198	0xbd1d11df	-0.03834712
199	0xbdddae3f	-0.108242504
200	0xbd646104	-0.055756584
201	0xbd7882d9	-0.06067166
202	0x3d0c2277	0.034212556
203	0xbb8916b5	-0.004183615
204	0x3d0568cb	0.03257064
205	0x3ce734c2	0.0282234
206	0x3d351222	0.044206746
207	0xbba59d3d	-0.0050541447
208	0xbc97ec8b	-0.01854541
209	0xbc854947	-0.016270293
210	0xbd00437a	-0.03131435
211	0xbd9dda07	-0.07707601
212	0xbccabdee	-0.024748769
213	0xbc14170e	-0.0090387
214	0x3c055546	0.008138007
215	0x3b97e65d	0.0046356157
216	0xbd7be506	-0.06149771
217	0xbda6426b	-0.08118137
218	0x3d150a16	0.03638657
219	0xbd4a4274	-0.04937978
220	0xbcbcced4	-0.023047842
221	0xbcc42314	-0.023942508
222	0x3d5ad5cf	0.05342656
223	0xbc68e6d3	-0.014215189
224	0x3d550961	0.052010898
225	0x3c486391	0.01223077
226	0xbd4c0360	-0.049807906
227	0xbd83caeb	-0.06435188
228	0xbdb72787	-0.08943086
229	0xbd166356	-0.036715828
230	0xbd9a01f5	-0.075199045
231	0xbcfeb326	-0.031091284
232	0x3ba0afda	0.0049037756
233	0x3d216731	0.03940505
234	0xbd8d8614	-0.06910339
235	0xbdb13b1c	-0.08653852
236	0xbd847929	-0.06468422
237	0xbd76b585	-0.060231704
238	0xbd084418	-0.033268064
239	0x3d28c93c	0.041207537
240	0xbc8d1061	-0.017219724
241	0xbcc8e584	-0.024523504
242	0xbd10bd2f	-0.03533667
243	0xbd216300	-0.039401054
244	0x3d68d8fe	0.056847565
245	0xbcea8ee0	-0.028632581
246	0xbcca0a74	-0.024663188
247	0xbd99d6d0	-0.07511675
248	0xbdbdaaba	-0.09261079
249	0xbd46e8c7	-0.048561838
250	0x3d176f8f	0.036971625
251	0xbd296ac2	-0.041361578
252	0xbd2060ae	-0.0391547
253	0xbd609455	-0.05482896
254	0x3cc62139	0.024185764
255	0xbd12e3d2	-0.035861798

conv7.weight f4 [64, 64, 4]
0	0xbd3a2349	-0.045443807
1	0x3bc579ef	0.0060264985
2	0xbddc8325	-0.10767201
3	0xbcf742f0	-0.030183285
4	0xbde15de6	-0.11004238
5	0xbd5b96d5	-0.05361064
6	0xbd294c1f	-0.04133236
7	0x3d7d3be2	0.061824687
8	0xbd8a7889	-0.067612715
9	0x3cc72383	0.024308925
10	0x3dcaabe0	0.09896064
11	0x3e1807cb	0.14846723
12	0x3e031bac	0.12803525
13	0x3d888f3d	0.066679455
14	0xbd9d839e	-0.076911196
15	0xbe004550	-0.1252644
16	0xbb2b1a29	-0.0026108122
17	0xbddc065a	-0.10743399
18	0xbb0ba67f	-0.0021308956
19	0x3cdc738d	0.026910568
20	0x3db4433f	0.08801889
21	0x3e29be8b	0.16576593
22	0xbd84e8b5	-0.06489698
23	0xbe762309	-0.24036802
24	0xbe0475a2	-0.12935498
25	0xbbe19186	-0.006883803
26	0xbcad9a51	-0.021191748
27	0x3ceeebaf	0.029165117
28	0x3c3bcb8c	0.011462104
29	0xbc1b2cc7	-0.009471125
30	0xbd400f21	-0.046889428
31	0x3dbccac5	0.09218363
32	0x3e16287d	0.14663883
33	0x3d96f719	0.07371349
34	0xbdd28a70	-0.10280311
35	0x3e718717	0.23586689
36	0xbdefc0af	-0.11706673
37	0xbd90f958	-0.070788085
38	0xbd7320d3	-0.059357475
39	0xbde53428	-0.11191589
40	0xbe303a8f	-0.17209838
41	0xbbd9e0af	-0.006649099
42	0xbe463429	-0.19355835
43	0xbd6ad88d	-0.057335425
44	0xbd8e2590	-0.06940758
45	0x3d4b85eb	0.04968826
46	0x3d24c06c	0.04022257
47	0xbdfc0c62	-0.12307049
48	0x3cf2ecf1	0.029653998
49	0x3c5645b9	0.013078147
50	0x3d1da422	0.038486607
51	0xbc5f7440	-0.013638556
52	0xbd44330c	-0.047900245
53	0x3bbfd1bc	0.0058538597
54	0x3bf3bf8e	0.0074386066
55	0xbd3f3bcb	-0.046687882
56	0xbd6cb86d	-0.05779307
57	0x3ce7323d	0.028222198
58	0xbe69aeec	-0.22820634
59	0x3c5b9eac	0.01340453
60	0x3d4df27c	0.05028008
61	0x3b4ef21a	0.003157741
62	0xbd04a0a4	-0.03237976
63	0xbe5391a4	-0.20661026
64	0x3b7e19c7	0.0038772689
65	0xbd06ad2d	-0.032879997
66	0xbc37b043	-0.011211458
67	0x3c772e08	0.015086658
68	0xbdb79c2d	-0.08965335
69	0x3deb8e9b	0.11501809
70	0xbe40d996	-0.18833002
71	0x3cfb6f58	0.030692741
72	0xbdf260b6	-0.118348524
73	0x3cb55474	0.022134997
74	0xbd01c382	-0.03168059
75	0xbd243703	-0.040091526
76	0x3c0b669b	0.00850835
77	0x3bc63528	0.006048817
78	0xbd7c4f6a	-0.061599173
79	0x3cb067c7	0.02153386
80	0xbc404cf0	-0.011737093
81	0x3d03b71a	0.03215704
82	0x3e2a217e	0.16614339
83	0x3e4e2f76	0.20135292
84	0xbe994016	-0.29931706
85	0xbd58d727	-0.05293956
86	0xbdd89d16	-0.10576837
87	0xbcb58827	-0.022159649
88	0x3d5dbe02	0.054136284
89	0x3dd68722	0.10474993
90	0xbce1d55f	-0.027567564
91	0x3ca0b250	0.019616276
92	0xbd3100f9	-0.04321382
93	0xbe27284c	-0.16323966
94	0xbd8fae48	-0.070156634
95	0xbd71d3ea	-0.059039988
96	0xbab84a00	-0.001406014
97	0xbd8245a7	-0.063609414
98	0xbd8be3dd	-0.06830571
99	0xbc34ac96	-0.011027476
100	0x3e7c42ba	0.24634829
101	0xbd40ae2f	-0.047041114
102	0xbd772c92	-0.06034524
103	0x3d6edd72	0.058316655
104	0xbdf5a4c4	-0.11994317
105	0xbe28ec8f	-0.1649649
106	0xbdde8296	-0.10864751
107	0xbd9ea863	-0.07746961
108	0x3c0a0530	0.008424088
109	0xbd875055	-0.06607119
110	0xbc108759	-0.008821332
111	0xbd680d9c	-0.056653604
112	0xbd16841a	-0.036747076
113	0xbd0eca80	-0.034861088
114	0xbd9b5e67	-0.07586365
115	0xbd54227a	-0.051790692
116	0xbe46188f	-0.19345306
117	0x3c3bae8b	0.0114551885
118	0xbd97d9e2	-0.07414605
119	0xbde3191e	-0.11088775
120	0xbda95f78	-0.08270162
121	0xbe22fcbe	-0.15916726
122	0xbd824f21	-0.06362749
123	0xbe1b59c9	-0.15170969
124	0x3c2e959b	0.010655786
125	0x3d6f2219	0.058382127
126	0xbd1042ac	-0.035219833
127	0xbda3c4d6	-0.07996528
128	0x3e378345	0.17921169
129	0x3b9ae65f	0.0047271694
130	0x3e15e854	0.14639407
131	0xbe222a8a	-0.1583654
132	0x3d8a4716	0.0675184
133	0xbdddf714	-0.10838142
134	0x3d765ef4	0.060149148
135	0x3e226bd6	0.15861449
136	0x3df7123a	0.12064023
137	0x3d920d45	0.07131437
138	0x3dedc671	0.11610115
139	0x3cfe687c	0.031055681
140	0xbb80d088	-0.003931109
141	0xbc10ab92	-0.008829968
142	0x3c838212	0.016053233
143	0xbca41339	-0.020028697
144	0xbcaaa4ae	-0.020830479
145	0xbca1caff	-0.019750116
146	0x3d11f004	0.035629287
147	0xbcb95992	-0.022625718
148	0x3ccb7612	0.024836574
149	0xbdd28c7d	-0.10280702
150	0xb9b9f649	-0.00035469446
151	0x3d74d107	0.059769657
152	0xbbf6fe20	-0.0075376183
153	0xbc493057	-0.0122795915
154	0xbccf3592	-0.025294099
155	0xbcf673b4	-0.030084468
156	0x3beaaff9	0.007162091
157	0x3cf27a94	0.029599465
158	0xbd3d164e	-0.04616385
159	0x3d7e9762	0.06215609
160	0xbe562526	-0.20912609
161	0xbc7b6c96	-0.015345713
162	0xbdb6236f	-0.08893477
163	0x3e254a1e	0.16141555
164	0xbb0ff1fb	-0.00219643
165	0x3d6acb14	0.057322577
166	0x3d167003	0.036727916
167	0x3dc540c3	0.09631493
168	0xbdeecf8f	-0.116606824
169	0x3bdea9c5	0.0067951404
170	0xbdc209c5	-0.0947452
171	0xbd092651	-0.033483807
172	0xbc91237b	-0.017717114
173	0x3e4b18e5	0.19833715
174	0xbdd51b4f	-0.10405599
175	0x3de93a24	0.113880426
176	0xbdef4112	-0.11682333
177	0x3cb1acb7	0.021688802
178	0xbdc546b5	-0.09632627
179	0x3cf7b9c6	0.03023995
180	0xbda6f53e	-0.08152245
181	0x3c0ff0c6	0.008785432
182	0x3c40f167	0.011776305
183	0x3e6ac172	0.22925356
184	0x3c8c0204	0.017090805
185	0xbd845752	-0.064619675
186	0x3d981877	0.07426541
187	0xbcf53a2b	-0.029934963
188	0x3d48ad03	0.04899312
189	0xbd665aa1	-0.056238774
190	0x3d358ff8	0.044326752
191	0xbc2f0d4d	-0.0106843235
192	0x3d74c12f	0.059754547
193	0x3d0c6532	0.034276195
194	0xbe37ff0d	-0.17968388
195	0xbdf1287c	-0.117753
196	0xbdd1f072	-0.102509394
197	0xbdc5a4c7	-0.096505694
198	0x3d377a6d	0.04479449
199	0x3dc97f9a	0.09838791
200	0xbbf6edb8	-0.0075356625
201	0x3d122df6	0.035688363
202	0xbc919fa3	-0.017776316
203	0x3b790978	0.0038000029
204	0xbd23acd1	-0.039959732
205	0xbe00884b	-0.12551992
206	0x3a321f76	0.0006794849
207	0x3e4163e6	0.18885764
208	0xba97d535	-0.0011583926
209	0xbd65227d	-0.055941094
210	0x3c2c7a3e	0.010527192
211	0xbcca89fd	-0.024724001
212	0x3d01a90e	0.031655364
213	0xbd1e6040	-0.03866601
214	0xbdf6dc10	-0.12053692
215	0x3cd9a1d5	0.026566425
216	0xbdd7d2ee	-0.105382785
217	0xbe02c85a	-0.1277174
218	0xbdc86d21	-0.0978644
219	0xbd23e4fb	-0.040013295
220	0xbe233b65	-0.15940626
221	0x3d337037	0.04380819
222	0xbdd32732	-0.1031021
223	0xbd7b1c33	-0.06130619
224	0x3baf7776	0.005354817
225	0x3de39276	0.111119196
226	0xbddaf360	-0.10690951
227	0xbe0d9bea	-0.13829008
228	0xbd8c70dd	-0.068574645
229	0x3da672e4	0.081273824
230	0x3bafb35b	0.005361957
231	0xb9d2a200	-0.0004017502
232	0xbd5618a3	-0.05226959
233	0xbd4d44a3	-0.050114285
234	0xbd83e26f	-0.06439673
235	0xbcd4c52e	-0.025972929
236	0xbe23425f	-0.15943287
237	0xbd88df40	-0.066832066
238	0xbcf3469a	-0.029696751
239	0xba8d2624	-0.0010768813
240	0xbe0429c0	-0.12906551
241	0xbc9e216b	-0.019303044
242	0xbdcd9f4e	-0.100401506
243	0x3cd16072	0.025558684
244	0x3a881613	0.0010382555
245	0xbd921f96	-0.07134931
246	0xbb74ef99	-0.0037374257
247	0x3e5cf177	0.21576487
248	0xbe358241	-0.17725469
249	0x3d8b2383	0.06793883
250	0xbd27ed9b	-0.040998083
251	0x3b155d9c	0.0022791391
252	0xbda7062a	-0.081554726
253	0x3d17ff70	0.03710884
254	0xbe20f75b	-0.15719359
255	0xbc592c2a	-0.013255158
